models/model_long_conv_x10_cuda_100_epochs/model_long_conv_x10_cuda_100_epochs\model.pth (torch, 227370 bytes, 14 tensors)

conv_layers.0.0.conv.weight f4 [16, 10, 3, 3]
0	0x3d05c91f	0.032662507
1	0x3f0a2b37	0.5397219
2	0x3e7ac041	0.24487402
3	0x3efc3b53	0.4926401
4	0x3dfc71fe	0.1232643
5	0x3e399ee5	0.1812702
6	0x3e4a1ebd	0.19738288
7	0x3e17c4f2	0.14821222
8	0x3d9f017d	0.07763956
9	0xbc31d0ee	-0.010853035
10	0xbc46258c	-0.012093913
11	0xbc0ee63c	-0.008721884
12	0xbbe68cde	-0.0070358356
13	0xbb871cbf	-0.0041233
14	0xbc400608	-0.011720188
15	0xbc52b0ea	-0.012859562
16	0xba2732da	-0.0006378122
17	0xbb4db9b1	-0.0031391198
18	0x3c9a1991	0.01881102
19	0xbc3e560d	-0.011617196
20	0xbb2a2359	-0.002596101
21	0x3a43a860	0.00074637495
22	0x3bdf15d9	0.0068080244
23	0xbb8c2143	-0.004276426
24	0xbc9bd002	-0.019020084
25	0xbb56d4c3	-0.0032780624
26	0xbc820367	-0.015870763
27	0x3c381d7b	0.011237497
28	0xbcd7689a	-0.026294995
29	0x39d51907	0.00040645173
30	0xbac867fb	-0.0015289778
31	0xbc1dbf08	-0.009628065
32	0xbad147ae	-0.0015966797
33	0x3bc86a89	0.0061162156
34	0x39c23329	0.0003704068
35	0x3c2241b3	0.009903359
36	0xbbe2c9db	-0.0069210357
37	0x3c51bb61	0.012801022
38	0x3c499efe	0.012305973
39	0x3bfca8ec	0.0077105667
40	0x3c2c834a	0.010529349
41	0x3c093d25	0.008376394
42	0xbc23e09c	-0.0100022815
43	0x3b23c1a1	0.0024987238
44	0x3c0ea8e4	0.008707259
45	0x3e93d122	0.28870493
46	0x3fb9f20d	1.4526993
47	0x3f6f81c5	0.9355739
48	0x3faa833d	1.3321301
49	0x3fd24619	1.6427642
50	0x3f5fbf06	0.87400854
51	0x3f7caa7f	0.98697656
52	0x3f7e3cd4	0.99311566
53	0x3ea18418	0.31546092
54	0x3d11510a	0.035477675
55	0x3d698d4a	0.05701951
56	0x3de5b857	0.11216801
57	0x3ba4abd8	0.005025368
58	0x3ca2d989	0.01987912
59	0xbc3670b4	-0.011135269
60	0x3dea1aa9	0.11430866
61	0x3c238301	0.009979964
62	0xbb61f3bf	-0.003447756
63	0x3c627723	0.01382235
64	0x3d3652a0	0.04451239
65	0x3be3af04	0.0069483537
66	0x3de7648a	0.11298473
67	0x3d007481	0.031361107
68	0x3dc909d2	0.09816326
69	0x3b600ecd	0.003418851
70	0x3c94c590	0.018160611
71	0x3d1a026c	0.037599966
72	0x3dd6dcca	0.10491331
73	0xbcb15104	-0.021645077
74	0xbadf10b3	-0.0017018527
75	0x3c41eb14	0.011835832
76	0xbc6493bf	-0.013951241
77	0xbc320e38	-0.010867648
78	0xbbc4beb2	-0.006004178
79	0xbc1a2d04	-0.009410147
80	0xbce78758	-0.02826278
81	0xbc52eb2d	-0.012873453
82	0xbbd71dc2	-0.0065648267
83	0x3a4491bf	0.00074985245
84	0x3cae413a	0.021271337
85	0x3b8673ea	0.0041031735
86	0xbc2d22fa	-0.010567421
87	0xbb60f784	-0.0034327218
88	0xbbb76cb0	-0.0055976734
89	0x3c6dbdff	0.014510631
90	0x3fa0f981	1.2576143
91	0x3fe12d00	1.7591858
92	0x3fd00955	1.6252848
93	0x3fd224d8	1.6417494
94	0x3fb85348	1.4400415
95	0x3fc5c6fb	1.5451349
96	0x3fa556c7	1.2917107
97	0x3fe2de3d	1.7724072
98	0x3face156	1.3506267
99	0xbb1b172d	-0.0023664937
100	0xbae09749	-0.001713493
101	0x3bab93fa	0.005236146
102	0xbb3e947f	-0.002908021
103	0xbb06a53e	-0.002054527
104	0xbadb9166	-0.0016751706
105	0x37be5010	2.2687047e-05
106	0x3b961b5d	0.0045808987
107	0x3bf264f2	0.0073972875
108	0x3bb54cb0	0.0055328235
109	0x3bfb0590	0.007660575
110	0xbccee6f3	-0.02525661
111	0x3bb13049	0.0054073674
112	0xbb077463	-0.0020668737
113	0x3aa490d7	0.0012555373
114	0xbc935ec1	-0.017989518
115	0xbc0795a2	-0.008275421
116	0xbc98c779	-0.018649803
117	0xbc2960ad	-0.010337991
118	0xbc068e47	-0.0082126325
119	0x3c2fe62b	0.010736029
120	0xbc102047	-0.008796758
121	0x3b28d5b8	0.0025762152
122	0xbd351c57	-0.04421648
123	0x3b414a40	0.002949372
124	0xbb8f2352	-0.004368224
125	0xbbe012ee	-0.006838194
126	0xbc047ed8	-0.0080868825
127	0xbc05591b	-0.00813892
128	0x3a0a9756	0.0005286833
129	0xb9bca92d	-0.000359842
130	0xba274f49	-0.0006382359
131	0x3b8e19d0	0.004336573
132	0xbc0ac121	-0.008468897
133	0xbb718df3	-0.003685829
134	0xbb96e910	-0.00460542
135	0x3ba1ca15	0.00493742
136	0x3db78506	0.08960919
137	0x3c22347a	0.009900207
138	0x3f31189e	0.6917819
139	0x3f25b0fc	0.6472318
140	0x3f126426	0.57184064
141	0x3c557e84	0.013030652
142	0x3d6193d4	0.05507262
143	0xbcc2e185	-0.023789177
144	0x3ad514ca	0.0016256806
145	0xbb0c1275	-0.0021373306
146	0x3ac31110	0.0014882404
147	0x3ccd5032	0.025062654
148	0x3c178673	0.009248364
149	0x3c615410	0.013752952
150	0xbb72bac7	-0.0037037598
151	0x395f6d48	0.00021307648
152	0xbb96048d	-0.004578179
153	0xbb949b25	-0.004535096
154	0x3b97be3d	0.0046308325
155	0xba87a754	-0.001034955
156	0x3ca520b3	0.020157194
157	0x3c25d3f5	0.010121335
158	0x3baf7a51	0.0053551574
159	0xbb1be306	-0.002378644
160	0xbb93812b	-0.004501482
161	0x3bb8b9c2	0.0056373784
162	0x3b515da9	0.0031946695
163	0x3c9ddbd2	0.019269858
164	0x3c1db94a	0.009626696
165	0xbb300e19	-0.0026863872
166	0xbbc49678	-0.0059993826
167	0xbb0f7cbb	-0.0021894414
168	0xbb23f557	-0.002501806
169	0x3921a857	0.00015416868
170	0x3ae293b5	0.0017286452
171	0x3c3b23be	0.011422096
172	0xbb7731a6	-0.0037718802
173	0xb9401c0d	-0.00018320997
174	0x3c2aecb2	0.010432409
175	0x3c26aec7	0.010173506
176	0x3c098b0b	0.008394967
177	0xbb69712e	-0.003562044
178	0xbc0846d9	-0.008317673
179	0xbc0114b7	-0.007878474
180	0x3ea2878a	0.31744033
181	0x3e266fde	0.16253611
182	0x3e47a140	0.19495106
183	0x3d9ce0ad	0.07660041
184	0x3d650167	0.05590954
185	0xbd251822	-0.040306218
186	0x3ecb9a8f	0.39766356
187	0x3d9109e2	0.07081963
188	0x3e6ac049	0.22924913
189	0xbe22b360	-0.15888739
190	0xbb61b2f8	-0.003443895
191	0x3df9d67a	0.12199111
192	0xbde126ab	-0.109937035
193	0x3d1ae66f	0.037817415
194	0xbe3f2276	-0.1866549
195	0xbe0d6606	-0.1380845
196	0xbe8f7944	-0.28022206
197	0x3e3f6340	0.18690205
198	0xbefe8f5d	-0.49718753
199	0xbd483aeb	-0.048884314
200	0xbed2cec5	-0.41173378
201	0xbdfd6c63	-0.12374189
202	0x3d88083a	0.06642194
203	0xbe022d76	-0.12712654
204	0x3b8b74e4	0.004255878
205	0x3e10dc66	0.14146575
206	0xbd585739	-0.052817557
207	0x3dc944d0	0.09827578
208	0xb8668f70	-5.496986e-05
209	0x3d55d3a0	0.052203774
210	0x3d429fbc	0.047515616
211	0xbd183f87	-0.03716996
212	0x3d427fff	0.047485348
213	0x3ccbe780	0.024890661
214	0xbc885257	-0.016640825
215	0x3cc3054b	0.023806235
216	0x3e17121e	0.14753005
217	0xbc68a330	-0.014199063
218	0xbd545791	-0.051841322
219	0x3d0335df	0.032033797
220	0xbbd1c3a6	-0.006401497
221	0x3d54c0ac	0.05194156
222	0x3b83e859	0.0040255007
223	0x3d23737a	0.03990505
224	0xbd1b9b73	-0.037990045
225	0xbd353401	-0.044239048
226	0xbcd5e71d	-0.02611118
227	0x3e8d6898	0.2761886
228	0xbdbd5548	-0.09244782
229	0xbdc80518	-0.097665966
230	0x3d6db7fd	0.058036793
231	0xbdb6df66	-0.089293286
232	0x3d8eb25d	0.06967614
233	0xbe2db0a4	-0.16961914
234	0x3e141801	0.14462282
235	0x3e385bf2	0.18003824
236	0xbc5cb115	-0.013469954
237	0xbdb760b2	-0.0895399
238	0x3d2fad85	0.04289009
239	0x3e396160	0.18103552
240	0xbce3bc95	-0.027799884
241	0xbd382881	-0.044960503
242	0xbc8d0542	-0.017214421
243	0xbc1f0ae6	-0.009707188
244	0xbd406f87	-0.04698136
245	0x3cae2218	0.021256492
246	0x3df23dff	0.11828231
247	0xbc2d2bfa	-0.010569567
248	0xbe96dbfd	-0.29464713
249	0x3d95e010	0.07318127
250	0x3d504c49	0.050854
251	0x3cb20996	0.021733087
252	0x3e9afd3f	0.30271336
253	0x3e8770d6	0.26453274
254	0xbd0cde10	-0.034391463
255	0x3d5fef29	0.05467144

conv_layers.0.0.conv.bias f4 [16]
0	0xbc85ce63	-0.016333764
1	0xbc0d9029	-0.0086403275
2	0xbef6a271	-0.48170808
3	0xbc09e9c2	-0.008417549
4	0xbce333c2	-0.027734641
5	0xbc3fb2b5	-0.011700322
6	0xbe50570d	-0.20345707
7	0xbf205a5c	-0.6263788
8	0xbb974177	-0.0046159583
9	0xbe74d9e0	-0.23911238
10	0xbe9d2bf7	-0.30697605
11	0xbe0f9f9f	-0.14025734
12	0xbf001c87	-0.5004353
13	0xbee5e87d	-0.44903937
14	0xbe1f56f5	-0.15560515
15	0xb8e0b062	-0.00010714006

conv_layers.2.0.conv.weight f4 [32, 16, 3, 3]
0	0x3da2f2e4	0.07956484
1	0xbde7a8cf	-0.113114946
2	0xbe8571d3	-0.26063403
3	0x3dc01093	0.09378161
4	0x3ced70cc	0.02898445
5	0xbdc8755e	-0.09788011
6	0x3aafb272	0.0013404621
7	0xbdebcf3e	-0.11514138
8	0xbda7e1ce	-0.08197366
9	0x3ce10446	0.027467858
10	0x3abe3fea	0.0014514897
11	0x3bf80bc8	0.007569764
12	0x3dad531b	0.08463117
13	0x3c0f79b8	0.008757047
14	0x3d30f95a	0.04320655
15	0xbd995b54	-0.074881226
16	0xbd5b35d1	-0.05351812
17	0x3d426e79	0.047468636
18	0x3e816555	0.25272623
19	0x3e089a9b	0.13340227
20	0x3e5d1573	0.21590213
21	0x3e263923	0.16232733
22	0x3dd840ff	0.10559272
23	0xbe978d7e	-0.29600137
24	0x3b8cb12e	0.0042935824
25	0x3e0f3438	0.13984764
26	0x3ca1108c	0.01966121
27	0x3d48e0d0	0.049042523
28	0x3d98269d	0.0742924
29	0x3d89ec85	0.06734566
30	0x3d8042e1	0.06262756
31	0xbb5ca188	-0.0033665616
32	0x3c08e7f2	0.008356081
33	0xbd131e62	-0.035917647
34	0xbd9784b7	-0.0739836
35	0xbdc7b371	-0.097510226
36	0x3c6434b4	0.013928581
37	0x3c52eff3	0.012874591
38	0xbe5fad11	-0.21843363
39	0x3e04effb	0.1298217
40	0x3d920187	0.071291976
41	0xbe1aadb3	-0.15105323
42	0xbc3e9c6f	-0.011633976
43	0xbe33f4b5	-0.17573817
44	0xbe4a872d	-0.19778128
45	0xbd364b38	-0.044505328
46	0xbd4e52d8	-0.050371975
47	0x3e2c45a7	0.16823445
48	0x3e229c0b	0.15879838
49	0x3caeaf70	0.02132389
50	0x3e20185a	0.1563429
51	0x3dcb48cc	0.09925994
52	0x3d8d03c7	0.06885486
53	0x3ca5a4d3	0.020220196
54	0x3d650236	0.05591031
55	0x3be0ab16	0.0068563325
56	0x3e550d6c	0.20805901
57	0x3e065a32	0.13120344
58	0xbe2dd4e0	-0.16975737
59	0xbd92d775	-0.071700014
60	0x3e78a840	0.24282932
61	0x3dfdf49d	0.12400172
62	0x3d0f873c	0.03504108
63	0x3cdd5620	0.027018607
64	0x3c903a16	0.017605823
65	0x3de9812b	0.1140159
66	0x3d682f77	0.05668589
67	0x3e3b8be4	0.18315083
68	0x3e923d1d	0.2856225
69	0x3e159ce7	0.14610635
70	0x3e4afd3e	0.19823167
71	0x3e5b85db	0.2143778
72	0x3d963306	0.07333951
73	0x3d3f3eaf	0.04669064
74	0xbdb2cb7e	-0.08730219
75	0x3c96613c	0.018356912
76	0x3d80a13a	0.062807515
77	0xbd10a2f5	-0.035311658
78	0xbe4ab633	-0.19796066
79	0xbd7b7684	-0.061392322
80	0x3d663468	0.056202322
81	0x3e566e24	0.20940453
82	0x3eac4f44	0.33654225
83	0x3e4b1c75	0.19835074
84	0x3d0e4e6e	0.034742765
85	0xbe4a3a7d	-0.19748874
86	0xbd93e076	-0.07220547
87	0x3ded9f60	0.11602664
88	0x3c53d0ca	0.012928197
89	0x3d3ab77e	0.045585148
90	0x3d93b621	0.07212473
91	0x3eb040e4	0.34424508
92	0xbc23f55e	-0.010007231
93	0xbc9cce05	-0.019141207
94	0xbbb7cab0	-0.005608879
95	0x3e5e43a5	0.21705492
96	0x3e277dd1	0.16356589
97	0xbd9af8cb	-0.07566985
98	0x3d28e8fb	0.041237812
99	0x3d30788b	0.04308371
100	0x3de517ab	0.11186155
101	0x3e8e2dc8	0.27769303
102	0x3d1b90b7	0.037979808
103	0x3e977cb8	0.2958734
104	0x3e65f328	0.22456038
105	0x3deb3d84	0.114863425
106	0x3ebdeaeb	0.3709329
107	0x3d4fa41e	0.050693624
108	0x3d9fa781	0.07795621
109	0xbe354914	-0.17703658
110	0x3b227e77	0.0024794617
111	0xbdaed5bc	-0.0853686
112	0x3d3f8e4d	0.046766568
113	0xbe4241bc	-0.18970388
114	0xbc68d5e3	-0.014211151
115	0x3c461b0c	0.012091409
116	0xbc5a47da	-0.013322795
117	0x3dab0208	0.08349997
118	0xbad98c07	-0.0016597518
119	0x3e292704	0.1651879
120	0xbe10b4e0	-0.14131498
121	0x3e0e2c2b	0.13884036
122	0x3d59054e	0.052983575
123	0xbed21269	-0.4102967
124	0xbe960638	-0.2930162
125	0xbda3a45e	-0.07990335
126	0xbe4d9ea5	-0.2008005
127	0xbd907199	-0.07052917
128	0xbe950099	-0.29102018
129	0xbebccb6f	-0.36873958
130	0xbf201697	-0.6253447
131	0x3d3a03ee	0.045413904
132	0xbc935000	-0.017982483
133	0xbe3fee45	-0.18743236
134	0x3ed2af7c	0.4114951
135	0xbd27c01e	-0.0409547
136	0x3d5a4a07	0.053293254
137	0x3d16ff11	0.036864344
138	0xbd504230	-0.05084437
139	0x3be141c9	0.0068742973
140	0xbc82eff1	-0.015983554
141	0x3ce4c497	0.027925773
142	0x3b9b0c71	0.0047317077
143	0x3e21a04f	0.15783809
144	0xbccf1425	-0.02527816
145	0x3cf95bc1	0.03043926
146	0x3d68b8d0	0.056816876
147	0x3da2cab9	0.079488225
148	0xbd2fc6a8	-0.042914063
149	0x3db65cce	0.0890442
150	0x3d7091c1	0.05873275
151	0x3d0ffc49	0.035152707
152	0x3d5bf7c6	0.053703092
153	0xbe684cf9	-0.22685613
154	0xbdb024dd	-0.08600781
155	0xbe0d9882	-0.13827708
156	0xbdc41803	-0.09574892
157	0xbd998485	-0.07495979
158	0xbe4296e6	-0.19002876
159	0xbe163d57	-0.14671837
160	0xbc2d8280	-0.010590196
161	0xbe804d90	-0.25059175
162	0xbe6272fd	-0.22114177
163	0x3d0b23af	0.033969577
164	0xbdec8270	-0.115483165
165	0xbd1e96ee	-0.038718157
166	0x3d4135c2	0.047170408
167	0xbcbe8e31	-0.023261162
168	0xbdeb9c1b	-0.11504384
169	0x3e10bb9c	0.14134067
170	0xbe3300c5	-0.17480762
171	0xbf234183	-0.6377184
172	0xbec21255	-0.3790461
173	0xbef3546d	-0.4752535
174	0xbe350f8d	-0.17681713
175	0x3da2a0c7	0.07940822
176	0xbed11207	-0.40834066
177	0xbec85645	-0.39128318
178	0xbe6c7291	-0.23090579
179	0xbef89c6e	-0.48556846
180	0x3beed270	0.0072882697
181	0x3d28087d	0.04102372
182	0xbaf2225f	-0.0018473378
183	0x3dbe4c1f	0.09291863
184	0x3caf872a	0.021426756
185	0x3d3d9c22	0.046291478
186	0x3d95e925	0.073198594
187	0x3d8695c4	0.06571534
188	0x3e0c38d9	0.1369356
189	0xbf1e8869	-0.61926895
190	0xbe9a97a3	-0.30193815
191	0xbf0d06db	-0.55088586
192	0xbe3305e0	-0.1748271
193	0x3dd842ea	0.10559638
194	0xbee480cb	-0.4462951
195	0xbed99767	-0.42498323
196	0xbe796ebe	-0.24358651
197	0xbf09e61d	-0.5386675
198	0x3d9cc254	0.07654253
199	0x3d4b2b7e	0.049602024
200	0xbb82bf36	-0.0039900793
201	0xbe36c4ab	-0.1784846
202	0x3d62d076	0.055374585
203	0x3cb5bba1	0.022184195
204	0x3df0c50e	0.11756335
205	0x3deac748	0.11463791
206	0xbc5dcd72	-0.0135377515
207	0xbe089956	-0.13339743
208	0xbd1654c1	-0.03670192
209	0xbeb7982f	-0.35858294
210	0xba904c78	-0.0011009118
211	0x3ec9cef3	0.39415702
212	0xbe32ade3	-0.17449145
213	0xbe1a8ba9	-0.15092339
214	0x3d7d9aea	0.061915316
215	0xbd08a7aa	-0.033363022
216	0x3df5f3b6	0.12009375
217	0x3c262550	0.010140732
218	0x3da7b87c	0.081894845
219	0xbc2a85aa	-0.010407845
220	0xbdfaaaee	-0.122396335
221	0xbd24bd7e	-0.040219776
222	0x3d1a2a81	0.03763819
223	0x3d3e627e	0.04648065
224	0xbd66ecf7	-0.05637833
225	0xbe3c2f8f	-0.18377517
226	0xbea243a2	-0.31692225
227	0xbea0df11	-0.31420186
228	0xbf00546c	-0.5012882
229	0xbe9b6e66	-0.30357665
230	0xbe2373cb	-0.1596214
231	0xbed55d38	-0.41672683
232	0xbe353ff2	-0.17700174
233	0xbe913413	-0.28360042
234	0xbe1189a4	-0.14212662
235	0x3d685c8e	0.056728892
236	0xbe2c452e	-0.16823265
237	0xbe70712e	-0.23480675
238	0xbe1224db	-0.14271872
239	0x3cc206b8	0.023684844
240	0xbe9deee6	-0.30846328
241	0xbe81acf7	-0.25327274
242	0xbe80523a	-0.25062734
243	0x3c9c6a7c	0.019093744
244	0xbcfec400	-0.03109932
245	0xbc98d4ae	-0.018656101
246	0x3d372823	0.04471601
247	0xbd6e2641	-0.05814195
248	0x3df73b4d	0.120718576
249	0x3de14f21	0.11001421
250	0xbdfeb8da	-0.124376014
251	0xbe19d90d	-0.15024205
252	0x3e63f5d4	0.22261745
253	0x3e38f06b	0.18060462
254	0x3c91a11d	0.01777702
255	0x3ddc5402	0.10758211

conv_layers.2.0.conv.bias f4 [32]
0	0xbe78e490	-0.2430594
1	0x3e03a3da	0.12855473
2	0x3b4c2f81	0.0031156244
3	0xbf2f341e	-0.684389
4	0xbeb9a279	-0.3625677
5	0xbd2b6648	-0.04184559
6	0x3e7e5199	0.24835815
7	0x3c6f461c	0.014604118
8	0x3ce2d6b3	0.027690267
9	0xbc6547df	-0.013994186
10	0x3e0e51f5	0.13898452
11	0xbd92abdb	-0.07161685
12	0x3d0d60e0	0.034516215
13	0xbcd1caf9	-0.02560948
14	0xbd9c37a4	-0.076278
15	0x3db23337	0.08701175
16	0xbd592a70	-0.053018987
17	0xbf3953b5	-0.7239335
18	0xbed8cc7d	-0.42343512
19	0xbd669adf	-0.05630004
20	0x3b5b63ed	0.0033476308
21	0xbccedb9a	-0.025251199
22	0x3d17ef90	0.0370937
23	0x3da12b05	0.078695334
24	0x3ae71f2c	0.0017633191
25	0xbd8f92a2	-0.0701039
26	0xbd00b2b4	-0.031420425
27	0x3d2fdddd	0.042936195
28	0xbf048e5a	-0.5177971
29	0xbd992475	-0.07477657
30	0xbd9c0596	-0.07618253
31	0x3e38bbc2	0.18040374

conv_layers.4.0.conv.weight f4 [32, 32, 3, 3]
0	0x3d74e9cc	0.05979328
1	0x3e9be3cc	0.30447233
2	0xbd01e0dd	-0.031708587
3	0x3eb54f7b	0.354122
4	0x3ccceba5	0.025014708
5	0xbd556068	-0.052093893
6	0x3e48a162	0.19592813
7	0x3d2a57ff	0.041587826
8	0xbd234c3e	-0.039867632
9	0xbcbffc04	-0.0234356
10	0xbc848f91	-0.016181739
11	0x3e830494	0.2558943
12	0xbd3dde1d	-0.0463544
13	0xbe21d962	-0.15805581
14	0x3dbc1b95	0.09184948
15	0xbdc06c86	-0.09395699
16	0xbda7fc07	-0.08202367
17	0xbdfe1fa7	-0.12408381
18	0x3ee5ce4b	0.44883952
19	0xbe33fa53	-0.1757596
20	0x3e568fab	0.20953242
21	0x3e26563c	0.16243833
22	0xbe7b92f6	-0.2456778
23	0xbe9dee63	-0.30845937
24	0xbe01ca6b	-0.12674873
25	0xbe68ca56	-0.22733435
26	0xbe93247d	-0.28738776
27	0xbd947459	-0.07248754
28	0xbddb265c	-0.10700676
29	0xbc1c437d	-0.009537575
30	0xbe019a84	-0.126566
31	0xbdf6724c	-0.12033519
32	0xbda14af2	-0.07875623
33	0x3e1513cf	0.14558338
34	0xbbcec47f	-0.0063100453
35	0x3e22ea7f	0.15909766
36	0xbca82a1b	-0.02052789
37	0x3dbbc7e7	0.09168988
38	0x3cf104cc	0.029421233
39	0x3ccb0946	0.024784695
40	0x3d83f058	0.06442326
41	0xbb562f49	-0.0032681993
42	0x3e8c98bc	0.27460277
43	0xbcef8017	-0.029235883
44	0xbdfd3598	-0.12363738
45	0xbdfd71e5	-0.12375239
46	0xbc9a28ed	-0.018818343
47	0xbd9eb9eb	-0.07750305
48	0x3d17c7e7	0.037055876
49	0x3da8918b	0.08230885
50	0x3e698291	0.22803713
51	0x3d375b9e	0.044765107
52	0xbd75f5db	-0.06004892
53	0xbe90faee	-0.28316444
54	0x3e830d08	0.2559588
55	0xbd4fcdd0	-0.050733387
56	0x3c912a1d	0.017720276
57	0xbdde505f	-0.10855173
58	0xbe62ef5b	-0.2216162
59	0x3d9877ef	0.074447505
60	0xbd34493e	-0.04401516
61	0x3d943eb1	0.0723852
62	0xbdb2dc83	-0.087334655
63	0x3e3e6a9b	0.18595354
64	0x3e39702e	0.181092
65	0x3ded2c4e	0.11580716
66	0xbeb44ba1	-0.3521395
67	0xbecec515	-0.40384737
68	0x3cde0976	0.02710412
69	0xbeb99b8c	-0.36251485
70	0xbdbc8444	-0.09204915
71	0x3da6dddd	0.08147786
72	0xbcbc415e	-0.022980388
73	0xbda5838d	-0.08081732
74	0xbda6c61b	-0.08143254
75	0x3d220abc	0.03956102
76	0xbe1fbfa6	-0.15600452
77	0x3dc1ad25	0.09456853
78	0xbe381056	-0.17974982
79	0xbdabc5b0	-0.08387315
80	0xbd1fbb22	-0.038996823
81	0xbf02f9b2	-0.51162255
82	0xbdaebc44	-0.085320026
83	0xbd863108	-0.06552321
84	0xbf8e43f7	-1.1114491
85	0xbd41c517	-0.0473071
86	0x3d4205ab	0.047368687
87	0xbf68ba5e	-0.90909374
88	0x3d210a27	0.039316323
89	0x3e0f8962	0.14017251
90	0x3e99c27d	0.30031195
91	0xbcf9ea65	-0.030507276
92	0xbb7af52f	-0.0038293113
93	0xbe26674b	-0.1625034
94	0xbe54fc2b	-0.2079932
95	0xbd017497	-0.03160533
96	0x3df8f937	0.12156909
97	0x3e225c22	0.15855458
98	0xbd3ef515	-0.046620447
99	0xbe1dced6	-0.15410933
100	0x3d40abe4	0.047038928
101	0x3cb5d3f0	0.022195786
102	0xbd2de183	-0.042451393
103	0x3e0ba2b3	0.13636284
104	0x3e1c4765	0.1526161
105	0xbe929295	-0.28627458
106	0xbd90fed7	-0.07079857
107	0xbd0f3117	-0.034958925
108	0x3e5e0ada	0.21683827
109	0x3ba9c66f	0.005181126
110	0xbda96e0b	-0.08272942
111	0xbef457ff	-0.47723386
112	0xbd718672	-0.058966108
113	0xbe87107f	-0.26379773
114	0xbe0e0357	-0.13868462
115	0x3dc3f41f	0.09568047
116	0x3d96857a	0.073496774
117	0xbef492a3	-0.47768125
118	0xbed1614f	-0.40894553
119	0xbea96604	-0.33085644
120	0xbecddd2f	-0.40207812
121	0x3b97acfc	0.0046287756
122	0x3df6d4b1	0.120522864
123	0xbef3a355	-0.4758555
124	0x3d4291ef	0.047502454
125	0x3c903b55	0.017606417
126	0xbe028b48	-0.12748444
127	0xbdf61f94	-0.12017742
128	0xbeb302b7	-0.3496301
129	0xbe733d07	-0.23753749
130	0x3d8ecb95	0.06972424
131	0x3dca523b	0.098789655
132	0xbe412586	-0.1886197
133	0x3d4acb5e	0.049510352
134	0x3d2818f8	0.041039437
135	0x3f0e0596	0.55477273
136	0x3e9806b4	0.29692614
137	0xbe1b1c32	-0.15147474
138	0xbd62ac31	-0.055339996
139	0xbe4814af	-0.1953914
140	0x3bf9c08e	0.0076218313
141	0xbdcd3e36	-0.100216314
142	0xbe804b36	-0.2505738
143	0xbed87c68	-0.42282414
144	0xbe2c9581	-0.16853906
145	0xbc960b24	-0.01831586
146	0xbeae61a3	-0.34058866
147	0xbf039880	-0.5140457
148	0x3cb9e15b	0.022690466
149	0xbca29786	-0.019847643
150	0xbef3fddc	-0.47654617
151	0xbcaa035e	-0.020753559
152	0x3d927006	0.07150273
153	0xbdfbfc1a	-0.12303944
154	0xbdf7e127	-0.12103491
155	0xbd5a3165	-0.053269763
156	0xbdda2a71	-0.10652626
157	0x3deadf3f	0.11468362
158	0x3dd68ef4	0.10476485
159	0x3e5a1359	0.21296443
160	0x3d8d81ef	0.069095485
161	0xbd1062f9	-0.035250638
162	0x3d147100	0.036240578
163	0xbd759a49	-0.05996159
164	0xbe0ef1c5	-0.13959415
165	0xbd9432a6	-0.07236223
166	0xbdd36ebb	-0.103238545
167	0x3d8389d2	0.064227715
168	0x3d005302	0.031329162
169	0xbda9fe9a	-0.083005145
170	0x3ebd06c5	0.36919227
171	0x3c6d6065	0.014488314
172	0xbd834888	-0.064103186
173	0xbd0bb3cd	-0.03410702
174	0xbe019e69	-0.12658085
175	0xbbfbe68a	-0.0076873945
176	0xbc95901f	-0.018257199
177	0xbe7d3eaf	-0.24730943
178	0x3dbbd9c6	0.09172396
179	0xbe2c63c9	-0.1683494
180	0xbf192db2	-0.5983535
181	0xbea90406	-0.33010882
182	0xbe64ce6e	-0.22344372
183	0xbdb1965a	-0.086712554
184	0x3d94ee66	0.072720334
185	0x3d5b14d1	0.05348665
186	0x3d968c69	0.07351
187	0x3da287ff	0.079360954
188	0xbd6315b9	-0.05544064
189	0x3e3588e5	0.17728002
190	0x3dab3f3b	0.0836167
191	0xbe6cc41d	-0.23121686
192	0xbe00b25e	-0.12568042
193	0x3de00b0e	0.109396085
194	0xbe34c973	-0.17654972
195	0x3d749686	0.059713863
196	0xbc8bf1ad	-0.017083013
197	0xbe9240e2	-0.28565127
198	0x3ed929f6	0.42414826
199	0x3ea13fe3	0.31494054
200	0x3e65f954	0.22458392
201	0xbed54ad3	-0.4165865
202	0xbe1f9a76	-0.15586266
203	0xbccc645e	-0.024950203
204	0xbeb5bcfc	-0.35495746
205	0x3d474cab	0.0486571
206	0xbe1de32b	-0.15418689
207	0x3ea6ee08	0.32603478
208	0x3e0a960a	0.13533798
209	0xbe965545	-0.2936193
210	0x3ce5f3b9	0.028070318
211	0xbe04a756	-0.12954459
212	0x3dc9d837	0.09855693
213	0x3e00e09e	0.12585685
214	0x3d110e43	0.03541399
215	0x3e176bc5	0.14787205
216	0xbd64c24b	-0.055849355
217	0xbe1ed429	-0.1551062
218	0xbed367aa	-0.41290027
219	0xbec24df3	-0.37950096
220	0xbe9d0db7	-0.30674526
221	0xbd432746	-0.047644876
222	0xbeced88b	-0.40399584
223	0xbd55da99	-0.052210424
224	0x3db7677c	0.08955285
225	0xbe85bdb2	-0.2612129
226	0xbe3c1f8e	-0.18371412
227	0xbec4acc2	-0.38413054
228	0xbeb4bd25	-0.35300556
229	0x3b2cfbe2	0.002639525
230	0x3e0f6ad4	0.14005595
231	0xbe53cbf2	-0.20683268
232	0x3d052cc7	0.032513406
233	0x3bf701dc	0.0075380635
234	0x3e8b564d	0.2721428
235	0x3bfdfe09	0.0077512306
236	0x3d8c71be	0.06857632
237	0xbe7a7fe1	-0.24462844
238	0xbd43e700	-0.04782772
239	0x3cfc06b0	0.030764908
240	0xbe13da14	-0.14438659
241	0x3dad775c	0.084700316
242	0xbcc24d81	-0.023718597
243	0x3ea5885d	0.323306
244	0x3d8344be	0.06409596
245	0xbd93026f	-0.071781985
246	0x3e03fd6e	0.12889645
247	0xbe847281	-0.2586861
248	0xbe2ea29e	-0.17054221
249	0x3e5a05c5	0.21291263
250	0xbe570162	-0.20996621
251	0xbe9ca0a1	-0.305913
252	0x3ccd2e1c	0.0250464
253	0xbdd47396	-0.10373609
254	0x3d874ee8	0.06606847
255	0xbd0bc30d	-0.03412156

conv_layers.4.0.conv.bias f4 [32]
0	0xbd8c1bf8	-0.06841272
1	0x3e00a3ba	0.12562457
2	0x3def9667	0.11698609
3	0x3e051d02	0.12999347
4	0xbd114aea	-0.035471834
5	0xbe1818bf	-0.1485319
6	0x3d6b3055	0.05741914
7	0xbce92355	-0.02845923
8	0x3ba02571	0.004887276
9	0x3d93c953	0.07216134
10	0xbddb33ff	-0.10703277
11	0xbd4a03b1	-0.049319927
12	0xbd5a885d	-0.053352702
13	0xbd8b912c	-0.06814799
14	0x3e14dde7	0.14537774
15	0xbd51ba28	-0.051202923
16	0x3de1525d	0.11002038
17	0xbcc9680a	-0.024585743
18	0x3d889098	0.06668204
19	0xbd6eb061	-0.058273677
20	0x3d0d6cb1	0.034527484
21	0xbd957a31	-0.07298697
22	0xbd9085bb	-0.07056757
23	0x3d8dba95	0.06920353
24	0xbdbd2d3d	-0.09237144
25	0xbd56f62c	-0.05248086
26	0x3dbc710d	0.0920125
27	0x3dd95db7	0.10613578
28	0xbddc13ca	-0.10745962
29	0xbdd49669	-0.10380251
30	0xbddd534f	-0.108069055
31	0xbd421c60	-0.04739034

conv_layers.5.0.conv.weight f4 [32, 32, 3, 3]
0	0xbca4de94	-0.020125665
1	0x3cec7e65	0.028868863
2	0x3e34f420	0.17671251
3	0xbe336f94	-0.17523032
4	0xbda7317c	-0.08163735
5	0x3c8ca44d	0.017168188
6	0xbe73f733	-0.23824768
7	0xbd2a652d	-0.041600395
8	0xbd7a701f	-0.061142083
9	0xbcb25484	-0.021768816
10	0x3bf67711	0.007521518
11	0xbd6bb0cf	-0.057541665
12	0x3a3e251e	0.00072534557
13	0x3d2a8c1a	0.041637518
14	0xbd72a190	-0.05923611
15	0x3ddcff66	0.10790901
16	0x3de2772e	0.11057888
17	0xbe14a580	-0.14516258
18	0xbe0f261b	-0.1397938
19	0xbd702a93	-0.058634352
20	0xbe1bc950	-0.15213513
21	0x3d139193	0.036027502
22	0xbccd7146	-0.025078427
23	0xbd676b46	-0.05649879
24	0x3d586142	0.052827127
25	0x3dfa8d0e	0.12233935
26	0x3de19499	0.11014671
27	0xbe4e161c	-0.20125622
28	0xbdb2a706	-0.087232634
29	0xbdf0f173	-0.11764803
30	0x3b47f606	0.0030511632
31	0xbb492e98	-0.0030697938
32	0x3d0a9b98	0.033839792
33	0x3e1ef13a	0.15521708
34	0x3beca8de	0.007222279
35	0x3db83c4a	0.08995874
36	0x3db23e69	0.0870331
37	0x3d859bd3	0.06523862
38	0xbd725f74	-0.059173062
39	0x3db02e26	0.08602552
40	0x3d783a6d	0.060602594
41	0x3d99478a	0.07484348
42	0x3db213f3	0.08695211
43	0x3e7cf00c	0.24700946
44	0x3d2ea69e	0.042639367
45	0xbd14ba9d	-0.03631078
46	0xbde49718	-0.11161631
47	0x3dd6132f	0.10452878
48	0xbe338d32	-0.1753433
49	0x3d0b625e	0.034029357
50	0xbd842f60	-0.064543486
51	0xbc51dda7	-0.012809194
52	0x3f004ec4	0.50120187
53	0x3d161dbb	0.036649447
54	0x3d397fdc	0.04528795
55	0x3d14b405	0.036304493
56	0x3db76183	0.08954146
57	0x3d085cd4	0.033291653
58	0xbc89787d	-0.016781086
59	0xbdb5b09e	-0.08871578
60	0x3e7be34c	0.24598426
61	0x3e4c3d0a	0.1994516
62	0x3dd393ba	0.10330911
63	0x3c3ffb99	0.0117177
64	0x3d6468eb	0.05576412
65	0xbc4af3ff	-0.012387275
66	0xbd57bb35	-0.05266877
67	0xbd66b234	-0.05632229
68	0xbc262fe5	-0.010143255
69	0xbe138705	-0.14406975
70	0xbe2f5af1	-0.17124535
71	0x3cf0d59d	0.029398734
72	0x3d17d4d0	0.03706819
73	0x3cf9bca2	0.030485455
74	0xbd022c6a	-0.031780638
75	0xbd09c9ea	-0.033639826
76	0x3db66d44	0.089075595
77	0x3c8afd52	0.016966496
78	0xbe694662	-0.22780755
79	0xbd635f08	-0.05551055
80	0xbdefdec8	-0.11712414
81	0xbc3df743	-0.011594596
82	0x3c247072	0.010036575
83	0xbd058671	-0.032598916
84	0xbdcd2a92	-0.10017885
85	0x3d8a06b8	0.06739563
86	0xbd4d12ea	-0.050066866
87	0xbdfc5953	-0.12321725
88	0x3d8df337	0.06931155
89	0xbd599630	-0.053121746
90	0x3e25b9c0	0.16184139
91	0x3de6f322	0.11276843
92	0x3d2ce31f	0.042208787
93	0x3e267bb1	0.16258122
94	0x3de1014b	0.10986575
95	0x3db9fe61	0.09081722
96	0x3e84f1aa	0.25965625
97	0x3e29de83	0.16588788
98	0xbcee0a5e	-0.029057678
99	0xbdef67ab	-0.11689695
100	0xbd218c28	-0.039440304
101	0xbdc8026d	-0.09766088
102	0x3d5efd49	0.05444077
103	0x3d4ea839	0.0504534
104	0x3ce1b0cb	0.027550122
105	0xbd3aea58	-0.045633644
106	0xbcfeaf3f	-0.031089423
107	0xbd0a4ecc	-0.033766553
108	0x3d960fab	0.07327207
109	0x3c1b6d7c	0.009486552
110	0xbcab3909	-0.02090122
111	0x3d0dc379	0.034610245
112	0x3d1c21ee	0.038118295
113	0x3d331ed8	0.043730587
114	0x3e0935e0	0.13399458
115	0x3dcb9712	0.09940924
116	0x3d37daed	0.04488652
117	0xbca3ecaa	-0.020010311
118	0x3de493ba	0.11160989
119	0x3e13146c	0.14363259
120	0xbd564db2	-0.05232019
121	0xbd95b79d	-0.07310412
122	0xbc8f1f03	-0.017470842
123	0xbc5e5f97	-0.013572595
124	0x3abe1ee1	0.0014505052
125	0xbc1cff73	-0.009582388
126	0x3e66bfcd	0.22534104
127	0x3e196837	0.14981161
128	0x3dd6e997	0.104937725
129	0xbe585735	-0.21127017
130	0xbd4d70f4	-0.05015655
131	0x39d33b34	0.00040289166
132	0xbed8112b	-0.42200598
133	0xbe40fa2c	-0.18845433
134	0x3ba516c4	0.0050381143
135	0xbd711b3f	-0.058863875
136	0xbb892a1c	-0.004185928
137	0x3dc45f9f	0.09588551
138	0xbdf636f3	-0.120221995
139	0xbc06ab66	-0.0082195755
140	0xbc058efe	-0.008151768
141	0xbdea0d1b	-0.11428281
142	0xbd704e44	-0.05866839
143	0xbd3a01bb	-0.045411807
144	0x3e68f642	0.2275019
145	0x3d393ed6	0.04522594
146	0xbcb94ff9	-0.022621142
147	0xbd002380	-0.031283855
148	0x3cef0ecb	0.029181859
149	0xbcaba783	-0.0209539
150	0xbe9e4c94	-0.309178
151	0xbe091fcf	-0.1339104
152	0xbc34e976	-0.01104199
153	0xbc57222e	-0.013130708
154	0xbca9833c	-0.02069246
155	0x3b9c562d	0.004771015
156	0x3d28c2a4	0.04120125
157	0xbc128a71	-0.00894414
158	0xbd0dedcc	-0.03465061
159	0x3ba68d99	0.0050827977
160	0xba90be3d	-0.0011043024
161	0xbb21d970	-0.0024696253
162	0x3d819fcb	0.06329306
163	0x3dc10034	0.09423867
164	0xbd0a4e94	-0.033766344
165	0xbd262147	-0.04055908
166	0x3d72093f	0.05909085
167	0xbcfbfd76	-0.030760508
168	0xbdfa39db	-0.12218066
169	0x3b8fadd1	0.004384734
170	0xbe61c187	-0.22046481
171	0xbdb58f25	-0.08865193
172	0xbcd2ddbe	-0.0257405
173	0x3d8b7254	0.06808916
174	0x3dab9772	0.08378495
175	0xbe298349	-0.16553988
176	0x3e065ce9	0.1312138
177	0x3de414e0	0.11136794
178	0xbe814041	-0.25244334
179	0x3d6fc8ef	0.058541235
180	0xbdc54536	-0.096323416
181	0xbbf69234	-0.007524753
182	0xbbea4174	-0.007148916
183	0xbdd0bb1a	-0.10191937
184	0xbd962289	-0.07330806
185	0x3ceb62ef	0.028733699
186	0x3e753d7d	0.23949237
187	0x3b994b59	0.0046781716
188	0x3e3bef51	0.1835301
189	0xbbf1ac3b	-0.007375268
190	0xbcd14bcb	-0.025548836
191	0x3dc6b74b	0.09702929
192	0x3def1eb4	0.11675778
193	0xbd471dcd	-0.048612405
194	0x3c94d9fc	0.01817035
195	0x3eaed059	0.34143332
196	0xbcf39c8e	-0.029737737
197	0x3e2c11d1	0.16803671
198	0x3db12fce	0.08651696
199	0x3c0be10d	0.008537543
200	0xbe30a630	-0.17250896
201	0xbdb00137	-0.08593982
202	0x3c3f9edc	0.01169559
203	0x3d1b8d18	0.037976354
204	0x3cbe5739	0.02323495
205	0xbe000433	-0.12501602
206	0x3e106f05	0.1410485
207	0xbde2c4a5	-0.11072663
208	0xbd8a42da	-0.06751032
209	0xbe423c84	-0.18968397
210	0x3bc22d12	0.005925783
211	0x3d19b4d7	0.037525978
212	0x3d848f94	0.06472698
213	0x3e45362b	0.19258945
214	0x3dd198cb	0.10234221
215	0x3c67fb01	0.014158965
216	0x3d34099f	0.043954488
217	0x3d2a63ba	0.041599013
218	0xbdd7d689	-0.10538966
219	0x3cf850fd	0.030312056
220	0xbe0a5801	-0.13510133
221	0x3d1a75d5	0.03771003
222	0xbce673be	-0.028131362
223	0xbe3b1e0b	-0.18273179
224	0x3d00a64e	0.0314086
225	0xbba0ab84	-0.0049032588
226	0xbd5440cc	-0.051819608
227	0x3de8475c	0.11341736
228	0x3e247e29	0.16063751
229	0xbd9030ff	-0.07040595
230	0x3cf6177f	0.0300405
231	0x3e8c6a5b	0.27424893
232	0xbd6d06d3	-0.057867836
233	0x3e0cbbe6	0.13743553
234	0x3e390939	0.18069924
235	0x3e593254	0.21210605
236	0x3e051ef6	0.13000092
237	0xbe866dad	-0.2625555
238	0xbd6aef9c	-0.057357416
239	0xbc99d169	-0.018776612
240	0xbecc28f6	-0.39875
241	0xbe3b71c2	-0.18305114
242	0xbd9c7126	-0.07638769
243	0x3cecbb9b	0.028898051
244	0xbcc16209	-0.023606317
245	0x3db238a8	0.087022126
246	0xbda1d6dc	-0.07902309
247	0xbd99d287	-0.07510858
248	0x3dcc6f79	0.09982199
249	0xbe2159f5	-0.15756972
250	0xbe2e2cf2	-0.17009333
251	0x3cc173c8	0.02361478
252	0xbbe45a96	-0.0069688065
253	0x3cde781a	0.027156878
254	0x3df1e4f9	0.11811251
255	0xbdf6b0fc	-0.12045476

conv_layers.5.0.conv.bias f4 [32]
0	0xbceed567	-0.029154493
1	0xbcff244d	-0.03114524
2	0x3ba6b0b4	0.0050869826
3	0xbdff576c	-0.12467846
4	0xbcdf1408	-0.027231231
5	0xbd8e3f3e	-0.06945656
6	0x3bf64197	0.007515143
7	0x3cf7d6db	0.030253818
8	0xbd15b00c	-0.036544845
9	0x3d3460bc	0.044037566
10	0xbc391968	-0.011297561
11	0xbbee5733	-0.0072735786
12	0xbcfe5402	-0.031045917
13	0x3c9b2f4b	0.01894345
14	0x3c61b8c7	0.0137769645
15	0xbc626999	-0.013819122
16	0x3b730029	0.0037078953
17	0xbe5972e8	-0.2123524
18	0x3c5e6ee9	0.013576248
19	0xbd201e2b	-0.03909127
20	0x3c33e490	0.0109797865
21	0x3d70e52e	0.058812313
22	0x3d66b1fb	0.05632208
23	0xbd5cea88	-0.053934604
24	0x3bcb505a	0.006204647
25	0xbc819846	-0.01581968
26	0xbccdd9e0	-0.025128305
27	0xbb63527d	-0.0034686618
28	0xbe490c08	-0.19633496
29	0xbc9d09f3	-0.019169783
30	0xbb8e41e6	-0.004341352
31	0xbd4784f1	-0.048710767

conv_layers.7.0.conv.weight f4 [16, 32, 3, 3]
0	0x3d508d83	0.050916206
1	0xbcfd662f	-0.030932514
2	0x3ba09d95	0.0049015977
3	0x3d9b3259	0.075779624
4	0x3c9bda66	0.019025039
5	0xbd7eae5c	-0.062178
6	0xbd603d65	-0.05474605
7	0xbddf91db	-0.109164916
8	0xbdc03e79	-0.09386916
9	0x3df46a90	0.11934388
10	0xbc913d20	-0.017729342
11	0xbe347c88	-0.1762563
12	0x3c69cae2	0.014269562
13	0x3c171b32	0.009222792
14	0xbd3026da	-0.0430058
15	0x3d10de98	0.035368532
16	0x3ce3588d	0.027752185
17	0xbd9fd4ae	-0.07804237
18	0xbe89230e	-0.26784557
19	0xbe06d0ce	-0.1316559
20	0x3e2e26a1	0.17006923
21	0xbe12b2c6	-0.14326009
22	0xbe3ba08a	-0.1832296
23	0x3e9186a9	0.2842305
24	0xbeb48986	-0.35261172
25	0xbec820d2	-0.3908754
26	0x3ec9459b	0.39310917
27	0xbdc9cfa4	-0.098540574
28	0xbddbb910	-0.10728657
29	0xbe5d199c	-0.215918
30	0xbdd91772	-0.10600175
31	0xbe913bfc	-0.28366077
32	0xbe9a254f	-0.3010659
33	0x3c4d08a5	0.012514268
34	0x3c9b5a76	0.018964034
35	0xbe66e605	-0.22548683
36	0x3e69e70b	0.22842042
37	0x3ca90f47	0.020637168
38	0xbed373a5	-0.41299167
39	0x3dd584dc	0.104257315
40	0xbdbe108c	-0.092805
41	0xbe788df6	-0.24272904
42	0x3e235064	0.15948635
43	0x3d1183c6	0.03552606
44	0xbdd3fa49	-0.103504725
45	0x3e16aece	0.1471512
46	0x3c5e4e35	0.013568451
47	0xbd9705a0	-0.0737412
48	0x3e0284ea	0.12746015
49	0xbcc70c51	-0.024297865
50	0xbe874da4	-0.26426423
51	0x3e2c4f12	0.16827038
52	0xbe023f12	-0.12719372
53	0xbeadc43b	-0.33938774
54	0xbc13ff5a	-0.0090330485
55	0xbd3a46d2	-0.045477696
56	0xbd6498d1	-0.0558098
57	0xbd379efb	-0.04482935
58	0xbdee8e2c	-0.11648211
59	0x3dff755d	0.12473557
60	0xbd8dc490	-0.06922257
61	0xbe00a480	-0.12562752
62	0x3dfc025d	0.12305138
63	0xbce99ad7	-0.028516216
64	0x3e095c64	0.1341415
65	0x3c0b1f64	0.008491371
66	0xbccb3456	-0.02480523
67	0x3de3c09f	0.11120724
68	0x3c62f01b	0.013851191
69	0xbe08b2a2	-0.13349393
70	0x3cc11325	0.0235687
71	0xbd1e8e06	-0.038709663
72	0x3bb8ac63	0.0056357845
73	0xbcf54015	-0.029937783
74	0xbdee9306	-0.11649136
75	0x3cd62e33	0.026145076
76	0x3d189c75	0.037258584
77	0xbd795d65	-0.060880084
78	0x3d3ea584	0.046544567
79	0x3e45ecbe	0.19328591
80	0xbc8697aa	-0.016429741
81	0xbe5fc45f	-0.21852253
82	0xbdcc56cd	-0.099774934
83	0x3e92e26c	0.2868837
84	0xbce262c1	-0.02763498
85	0x3bdf3ce4	0.0068126787
86	0x3d9695c5	0.07352785
87	0xbdbc41a5	-0.09192208
88	0xbd827d00	-0.06371498
89	0x3e2d860c	0.16945666
90	0xbde09198	-0.1096527
91	0x3e37df45	0.17956264
92	0x3e5fbeb5	0.21850093
93	0xbe32d600	-0.17464447
94	0x3dd9b106	0.10629468
95	0x3dfc2468	0.123116314
96	0xbe980aaa	-0.29695636
97	0x3e6ec372	0.23316744
98	0x3e3c6530	0.18397975
99	0xbe58ae74	-0.21160299
100	0xbde4d8b0	-0.11174142
101	0x3e4e5992	0.20151356
102	0xbe2d1a9b	-0.1690468
103	0xbda98627	-0.08277541
104	0x3e3d021e	0.18457839
105	0xbe407f5e	-0.18798587
106	0x3c1f350a	0.009717235
107	0x3e6ebc6a	0.23314062
108	0xbbfff789	-0.007811491
109	0xbb746ef3	-0.0037297576
110	0x3dc5138a	0.096228674
111	0x3cc318ac	0.023815475
112	0xbc16a165	-0.009193753
113	0x3e001614	0.12508422
114	0x3ca3a919	0.019978093
115	0x3ceb09ff	0.02869129
116	0x3de8a1dc	0.11358997
117	0x3dcf7b8c	0.101309866
118	0xbdb0b265	-0.08627776
119	0xbe193833	-0.14962845
120	0xbcd44062	-0.025909606
121	0xbc21b9b5	-0.009870936
122	0x3d6d62f1	0.057955686
123	0xbca41e05	-0.020033846
124	0xbe2b80c3	-0.16748337
125	0xbd557d1c	-0.052121267
126	0xbec3d4d2	-0.38248307
127	0xbd0f773f	-0.03502583
128	0x3ebc1c51	0.36740354
129	0xbe602791	-0.21890093
130	0xbc8a78b5	-0.01690326
131	0x3e529188	0.20563328
132	0xbe623a5e	-0.22092578
133	0x3d45ec4e	0.04832106
134	0x3eade4a7	0.3396351
135	0x3e8b03c7	0.2715132
136	0xba6e73d5	-0.000909624
137	0xbd827f84	-0.06371978
138	0x3e7e023b	0.24805538
139	0xbe3b76f1	-0.18307091
140	0xbc61e1b6	-0.013786724
141	0x3dd5254b	0.10407504
142	0xbe7050f9	-0.23468389
143	0xbe680152	-0.22656754
144	0x3e32f554	0.17476398
145	0xbd3cad99	-0.046063993
146	0xbe158fce	-0.14605638
147	0x3da0f193	0.078585766
148	0x3c925744	0.017863877
149	0xbdb743fe	-0.08948515
150	0x3db181de	0.08667348
151	0x3dd77b4e	0.105215654
152	0xbdcc5b60	-0.09978366
153	0x3ca53401	0.020166399
154	0xbda3a981	-0.07991315
155	0xbdfe885e	-0.12428354
156	0xbcc181fb	-0.02362155
157	0xbe51e9d6	-0.20499358
158	0xbdc8e860	-0.09809947
159	0x3d52fbc6	0.05150964
160	0xbe9e3be7	-0.30905077
161	0xbe07e5e2	-0.13271287
162	0xbe6460a8	-0.22302496
163	0x3d0ef944	0.034905687
164	0x3e383f9d	0.17993017
165	0xbe0a4972	-0.1350458
166	0x3d925505	0.071451224
167	0xbc28db32	-0.0103061665
168	0xbe2cdbf1	-0.16880776
169	0x3e658927	0.224156
170	0x3e0be299	0.13660659
171	0xbd136ea3	-0.035994183
172	0xbc1c47ae	-0.009538574
173	0x3e1476f9	0.1449851
174	0xbe0c8ead	-0.13726301
175	0x3da33395	0.07968823
176	0x3e25fe10	0.16210198
177	0xbdd7f221	-0.10544229
178	0x3d1036f7	0.03520867
179	0x3e43e62f	0.19130777
180	0xbc769ee4	-0.015052531
181	0x3d21bbdf	0.03948581
182	0xbde8555c	-0.11344406
183	0xbddaaa74	-0.106770426
184	0x3d85ce97	0.065335445
185	0x3d99cd1e	0.07509826
186	0xbe8222e7	-0.25417253
187	0x3d2e72ef	0.042590078
188	0x3de19f3d	0.110167004
189	0xbe91dd66	-0.28489226
190	0x3d514093	0.051086973
191	0x3e9cce93	0.30626354
192	0xbe1fe555	-0.15614827
193	0x3d86bed7	0.065793686
194	0x3d6eaf7d	0.058272827
195	0xbddb5a75	-0.10710613
196	0x3d7a8826	0.061164998
197	0x3da38849	0.07984979
198	0x3d72bd6d	0.05926268
199	0x3d5c8c90	0.05384499
200	0xbd82b5c2	-0.06382324
201	0xbe00b9ca	-0.12570873
202	0xbe0b568a	-0.13607231
203	0x3ddeed62	0.10885121
204	0xbca546a6	-0.02017529
205	0xbe26fd7f	-0.16307639
206	0x3e2917a0	0.16512918
207	0x3ea8146e	0.32828087
208	0x3de9eb55	0.11421839
209	0xbeaf7016	-0.34265202
210	0x3e763dac	0.24046963
211	0xbe8f7a65	-0.28023067
212	0xbe70d340	-0.23518085
213	0x3e6c21e5	0.23059805
214	0xbd807569	-0.06272394
215	0xbd7db9da	-0.06194482
216	0x3cef4753	0.029208815
217	0x3c45e459	0.012078368
218	0x3d8cb102	0.06869699
219	0xbbf7d6fc	-0.00756347
220	0xbb3be66a	-0.0028671273
221	0x3dcab704	0.09898189
222	0xbdfb04fb	-0.12256809
223	0xbbdb667e	-0.0066955676
224	0x3db0ebb7	0.08638709
225	0xbbbddb58	-0.00579397
226	0xbc8e9302	-0.017404083
227	0x3d244b61	0.04011095
228	0x3a82cf31	0.0009979961
229	0x3d388dd8	0.045057148
230	0x3c970322	0.018434111
231	0xbccf9b7e	-0.0253427
232	0x3dd2de83	0.10296347
233	0xbd0752f9	-0.033038113
234	0x3d52e0d7	0.051483955
235	0xbd2ea640	-0.042639017
236	0xbeaf25ef	-0.3420863
237	0x39a0d159	0.00030673554
238	0x3be10eab	0.0068682036
239	0xbeb56bf1	-0.35433915
240	0x3d8bdc52	0.06829132
241	0x3c3d09db	0.011537994
242	0xbee1bbc6	-0.44088572
243	0xbe0fee4a	-0.14055744
244	0x3cb11e59	0.021620916
245	0xbc385f59	-0.011253201
246	0xbd54adcb	-0.051923554
247	0x3e32a608	0.17446148
248	0xbd996114	-0.07489219
249	0xbaf3163d	-0.0018546056
250	0x3e75eeca	0.24016872
251	0xbd22ce60	-0.039747596
252	0x3e1b43d1	0.15162589
253	0x3d6be8fd	0.05759524
254	0xbd86af7f	-0.06576442
255	0x3d53f94a	0.051751412

conv_layers.7.0.conv.bias f4 [16]
0	0x3cfbfe5a	0.030760933
1	0x3d9f9cd2	0.07793583
2	0x3df265ed	0.11835847
3	0x3ba96079	0.005168971
4	0xbbdc602c	-0.006725332
5	0xbc0b9b08	-0.008520849
6	0x3db49620	0.088176966
7	0x3a9f85e6	0.0012170642
8	0xbb018e3a	-0.0019768612
9	0x3d6e1e88	0.058134586
10	0x3b292e81	0.0025815072
11	0xbca09483	-0.019602066
12	0x3d84a038	0.06475872
13	0x3dc6a653	0.096996926
14	0xbc400184	-0.011719111
15	0x3dce6cb8	0.1007933

linear_layers.0.weight f4 [64, 400]
0	0xbdf8eb90	-0.12154305
1	0xbd3d26d5	-0.04617961
2	0xbd1e8df7	-0.038709607
3	0x3d02403e	0.031799547
4	0xbc838b53	-0.016057646
5	0xbdb5620c	-0.088565916
6	0xbe48a5d6	-0.19594511
7	0xbd4dd901	-0.05025578
8	0x3e214796	0.15749964
9	0x3d71c90d	0.059029628
10	0xbe1102c3	-0.1416121
11	0xbe298dc9	-0.16557993
12	0x3d348589	0.04407266
13	0x3d80417f	0.062624924
14	0x3c86cd36	0.016455274
15	0xbe09f424	-0.13472039
16	0xbe230be6	-0.15922508
17	0xbd8187c6	-0.06324725
18	0x3d84e734	0.06489411
19	0x3cb04688	0.021518007
20	0x3d3cd132	0.04609794
21	0xbd7aba3b	-0.06121276
22	0xbab2ac86	-0.0013631738
23	0x3dea6d2d	0.11446605
24	0x3cb8526f	0.022500245
25	0xbdb4d9dd	-0.088306166
26	0xbc28bbf9	-0.010298722
27	0xbbce5ba2	-0.0062975446
28	0x3c8647a1	0.016391577
29	0xbcf00798	-0.029300496
30	0x3ca415ef	0.02002999
31	0xbacdd931	-0.0015704987
32	0x3c8bc457	0.017061396
33	0x3d9638b4	0.07335034
34	0x3d4d0155	0.0500501
35	0xbe170935	-0.14749606
36	0x3d442752	0.04788906
37	0x3dd8a98a	0.10579212
38	0x3d9f7c76	0.07787411
39	0xbdae2d36	-0.08504717
40	0x3ac1fc9f	0.0014800018
41	0x3d52d3ec	0.051471636
42	0x3dbb2d20	0.09139466
43	0x3c7c4663	0.015397641
44	0x3d15d9df	0.03658473
45	0xbc5e87f8	-0.013582222
46	0xbc3d2871	-0.0115452865
47	0xbde23cd6	-0.1104676
48	0xbc478d96	-0.012179753
49	0xbd5dcc37	-0.054149833
50	0xbd6eb990	-0.058282435
51	0x3b2002e7	0.0024415792
52	0x3cc30edb	0.023810795
53	0xbc9a1d15	-0.018812696
54	0xbcfeae5f	-0.031089006
55	0x3bee5368	0.0072731264
56	0xbd997572	-0.07493104
57	0x3c800c26	0.015630793
58	0x3d46f6c8	0.048575193
59	0x3cefe784	0.0292852
60	0x3d9f1319	0.077673145
61	0xbdf24450	-0.11829436
62	0xbdb0f80b	-0.086410604
63	0x3d699d3e	0.057034723
64	0xbc22cfa9	-0.009937205
65	0xbc323f5a	-0.010879362
66	0xbd81e668	-0.06342775
67	0x3cc969ff	0.024586676
68	0x3bfacba0	0.0076536685
69	0x3c9f3b24	0.01943738
70	0x3c932853	0.017963564
71	0xbd49515a	-0.04914985
72	0xbd0c6c8d	-0.03428321
73	0xbd735080	-0.059402943
74	0xbd5979ed	-0.053094793
75	0xbd8da61c	-0.069164485
76	0xbcc2076d	-0.023685182
77	0x3dc8647a	0.097847894
78	0x3d717f46	0.058959268
79	0x3c5c629c	0.013451245
80	0xbd936761	-0.07197452
81	0xbe835147	-0.25647947
82	0xbe4057c0	-0.18783474
83	0x3c574620	0.013139278
84	0xbd914bb6	-0.07094519
85	0xbe94b8f1	-0.2904735
86	0xbe45c2e0	-0.1931262
87	0xbbbf45db	-0.005837185
88	0xbc2b6160	-0.010460228
89	0xbc07aa04	-0.008280281
90	0xbe15979c	-0.14608616
91	0xbe5ea430	-0.2174232
92	0xbd6b478a	-0.05744127
93	0x3d33a5f4	0.043859437
94	0xbc2d32e2	-0.010571213
95	0xbd73131e	-0.059344403
96	0xbdfd7731	-0.123762496
97	0x3d2bb571	0.041921083
98	0xbd32e90f	-0.043679293
99	0xbd5c5d90	-0.053800166
100	0xbe2216ba	-0.15828982
101	0x3caf309d	0.021385485
102	0xbd1d9d62	-0.03848017
103	0xbcc92cb9	-0.024557458
104	0xbd64c787	-0.055854347
105	0xbdd2c022	-0.10290553
106	0x3cb3da9b	0.021954825
107	0x3d618d80	0.055066586
108	0xbd887a18	-0.066639125
109	0xbd6731a6	-0.056443833
110	0xbe4d1ad1	-0.20029761
111	0x3cb47977	0.022030575
112	0xbc1c9a1f	-0.00955823
113	0xbd1f2642	-0.038854845
114	0xbd6d8adb	-0.05799375
115	0xbda2fe6e	-0.07958685
116	0x3d982d38	0.074305
117	0xbe087965	-0.13327558
118	0xbce2cca7	-0.027685476
119	0xbccd56c3	-0.025065785
120	0xbd5387ae	-0.051643066
121	0x3d644e80	0.055738926
122	0xbe0dd777	-0.13851725
123	0xbe5c6469	-0.21522678
124	0xbe01fb2c	-0.1269347
125	0xbd3bb39f	-0.045825597
126	0xbd083832	-0.033256717
127	0xbdab929a	-0.083775714
128	0xbdba5d57	-0.090998344
129	0xbd92f77c	-0.0717611
130	0xbdae74b4	-0.08518353
131	0xbde4bb95	-0.11168591
132	0xbe0b31d4	-0.13593227
133	0xbc802b3f	-0.015645621
134	0xbd353c50	-0.04424697
135	0xbe4e4bba	-0.20146075
136	0xbe96d8ab	-0.2946218
137	0x3d116bbf	0.035503145
138	0xbe40866f	-0.18801282
139	0x3d952c6d	0.07283864
140	0xbdb2e1d5	-0.0873448
141	0xbe8bfd81	-0.27341846
142	0xbdf8f706	-0.12156491
143	0xbe22ce0a	-0.1589891
144	0x3d78f3aa	0.06077925
145	0xbd19f932	-0.037591167
146	0xbe177a5a	-0.14792767
147	0xbd9abb93	-0.07555308
148	0xbdc2b476	-0.095070764
149	0xbd8d76d4	-0.0690743
150	0x3dbfb337	0.093603544
151	0xbda52b23	-0.08064868
152	0xbe07ac93	-0.13249426
153	0x3b82e004	0.00399399
154	0xbd8d17e0	-0.068893194
155	0x3dc833b5	0.09775487
156	0xbbfb0d48	-0.0076614954
157	0xbdf0cca7	-0.11757784
158	0xbcd4b24a	-0.025963921
159	0xbca852ed	-0.020547355
160	0x3d46747c	0.048450932
161	0xbde17384	-0.11008361
162	0xbdef394c	-0.116808504
163	0x3e3ed272	0.18634966
164	0xbd4971d6	-0.049180828
165	0x3d8cf004	0.06881717
166	0xbcf8c789	-0.030368583
167	0xbcc858ca	-0.0244564
168	0xbb1acabe	-0.002361938
169	0xbcde88df	-0.027164875
170	0x3d8bbe00	0.06823349
171	0xbdaaa6cd	-0.08332596
172	0xbcfc3be5	-0.030790279
173	0xbd54ac33	-0.051922034
174	0xbde11666	-0.109906
175	0xbca3e965	-0.020008752
176	0xbba610bd	-0.0050679133
177	0xbd311623	-0.043234
178	0xbd277fe2	-0.040893443
179	0xbd99856d	-0.07496152
180	0xbd731179	-0.059342835
181	0xbd177466	-0.03697624
182	0xbbfb23d7	-0.0076641846
183	0xbd927f8c	-0.07153234
184	0xbe3aef33	-0.1825531
185	0xbe4d9ad1	-0.20078589
186	0xbd3ec66b	-0.046575945
187	0xbd72d8a1	-0.059288625
188	0xbe19c5c5	-0.1501685
189	0xbe592d24	-0.21208626
190	0xbdf877a3	-0.12132194
191	0xbb8ce671	-0.0042999317
192	0xbd693da6	-0.05694356
193	0xbe1b65dc	-0.15175575
194	0xbe3f97fd	-0.18710323
195	0x3e01f181	0.12689783
196	0x3c99e87c	0.018787615
197	0xbbac20ab	-0.0052529178
198	0xbb2384cd	-0.0024950982
199	0xbd9530f0	-0.07284725
200	0x3ddb0a0f	0.10695278
201	0xbdd8c51b	-0.1058447
202	0xbd5ac447	-0.05340984
203	0xbd571f24	-0.052519932
204	0xbd5af8e9	-0.053460035
205	0x3cf20556	0.02954356
206	0xbdcf7a7f	-0.10130786
207	0xbdd6fc92	-0.10497393
208	0xbdb89e1a	-0.090145305
209	0xbe9e6d5c	-0.3094281
210	0x3d50ab15	0.050944407
211	0xbcdb902e	-0.026802149
212	0xbd5971f6	-0.053087197
213	0xbd70a7a5	-0.05875363
214	0xbe97000c	-0.29492223
215	0x3d8d64b9	0.06903977
216	0xbd9ba332	-0.075994864
217	0xbd362761	-0.04447115
218	0xbda8a612	-0.082348004
219	0xbe834d06	-0.25644702
220	0x3dd1f342	0.10251476
221	0xbde8e437	-0.113716535
222	0x3dbe97da	0.09306307
223	0xbd46bb0c	-0.048518226
224	0xbe3f82e0	-0.18702269
225	0x3c42ff88	0.011901744
226	0x3d1dd521	0.038533334
227	0xbc34a4fc	-0.011025663
228	0x3ccfcb3a	0.02536546
229	0x3c28fe56	0.010314545
230	0xbe3ab05e	-0.18231341
231	0x3d1fcf7f	0.039016243
232	0x3d14b466	0.036304854
233	0x3c09c8d8	0.008409701
234	0xbdad57ac	-0.08463988
235	0xbe82e002	-0.2556153
236	0x3d6acf1a	0.057326414
237	0xbd563081	-0.05229235
238	0xbc654e99	-0.01399579
239	0xbe039a77	-0.12851892
240	0xbdfd2f5f	-0.12362551
241	0x3cfc6593	0.030810153
242	0xbdf0de58	-0.11761159
243	0x3df09a52	0.11748184
244	0xbd872233	-0.0659832
245	0x3de7e38d	0.11322699
246	0xba5580d5	-0.00081445026
247	0x3b2a9ee3	0.0026034645
248	0x3931ad2a	0.00016944544
249	0xbcab954a	-0.02094521
250	0xbd9f1b15	-0.07768837
251	0xbcb54d5a	-0.02213161
252	0xbd90d83e	-0.07072495
253	0xbb3fb219	-0.0029250442
254	0x3c690294	0.014221806
255	0xbe0703f9	-0.13185109

linear_layers.0.bias f4 [64]
0	0x3e9bf7a8	0.30462384
1	0xbe9f4b2b	-0.31112036
2	0x3e580c04	0.21098334
3	0x3e3d494c	0.18484992
4	0x3ea0dd3d	0.3141879
5	0xbed2528d	-0.41078606
6	0x3e87a97f	0.26496503
7	0xbe657f39	-0.22411813
8	0x3e999567	0.29996797
9	0x3e8a0f69	0.26964882
10	0x3e85e5cd	0.26151887
11	0x3e9324aa	0.2873891
12	0x3e43510c	0.19073886
13	0x3e94eec6	0.2908842
14	0x3e7f48a3	0.24930052
15	0xbe67cd5e	-0.22636935
16	0x3e5cb3f1	0.21553017
17	0x3e8add57	0.27121994
18	0x3eb1b30b	0.3470691
19	0x3e9ef43b	0.31045708
20	0x3e6a00f3	0.22851925
21	0x3e5920f2	0.21203974
22	0x3edd5e76	0.4323613
23	0x3e9a6a21	0.30159095
24	0x3e7bf0ce	0.24603578
25	0x3e7ae794	0.24502403
26	0x3e86bce3	0.26315984
27	0x3e71002b	0.2353522
28	0x3e5d88de	0.21634242
29	0x3e45068d	0.1924078
30	0x3e538cd3	0.20659189
31	0x3e4e330e	0.20136663
32	0x3e5df601	0.21675874
33	0x3e7ee599	0.24892272
34	0x3e9484c1	0.29007533
35	0x3e850e6b	0.25987563
36	0x3e971f2a	0.29515964
37	0x3e735df0	0.23766303
38	0x3e95b0a5	0.29236332
39	0x3e89cff9	0.26916483
40	0x3ea6894f	0.32526633
41	0x3e5b5bfa	0.21421805
42	0x3e8449cc	0.25837553
43	0x3e6c5bbd	0.2308187
44	0x3e89953b	0.26871666
45	0x3e959e38	0.29222274
46	0x3e3a1b69	0.18174519
47	0x3e8378b6	0.25678033
48	0x3e81af0c	0.25328863
49	0x3e9e9d31	0.30979303
50	0x3e4dad32	0.200856
51	0x3e4bee62	0.19915155
52	0x3e657211	0.22406794
53	0x3e424637	0.18972097
54	0xbe94846e	-0.29007286
55	0x3e6a65c1	0.22890379
56	0x3eaf5b94	0.34249556
57	0x3e9c49bc	0.30525005
58	0x3e92f682	0.28703696
59	0x3e923736	0.28557748
60	0x3eca2864	0.3948394
61	0x3e862db0	0.26206732
62	0x3e8b99fb	0.27265915
63	0x3e9a7235	0.30165258
