models/model_1727963247999/model_1727963247999\model.pth (torch, 275722 bytes, 32 tensors)

conv_layers.0.0.conv.weight f4 [16, 2, 3, 3]
0.22678621 -0.090648435 -0.23776208 0.16961163 -0.082022324 -0.20227969 0.121987626 0.14595218
0.16544798 0.0039966838 -0.56105894 -0.41163567 0.023345573 -0.026735052 -0.31031248 0.117863014
-0.13071185 -0.1294612 0.011234475 0.021254838 0.013230685 -0.009466336 0.03041679 0.036073156
0.019830685 0.041149244 0.0044043753 -0.54986125 0.054217685 -0.5233672 -0.56336194 0.0037737668
-0.37951463 0.08957654 0.15505947 0.12449847 -0.027785072 -0.010831147 0.056821134 0.10420184
0.16079322 0.06717459 -0.05842368 0.028400246 0.0027462717 -0.43607372 -0.0048289085 -0.06576339
0.05547197 0.0028862278 0.21757393 -0.46646866 -0.57679 0.054099366 -0.393192 0.22936538
-0.14702241 -0.18163021 0.2894756 -0.43439192 -0.018728893 0.3029212 -0.5268691 -0.23455863
0.07508966 -0.09008275 -0.038843498 -0.0070643383 0.05362525 0.066989616 -0.0036377 -0.085065246
-0.30466485 0.016891042 0.037116356 -0.6090985 -0.45603317 -0.46827847 0.039023887 -0.44143566
0.13698229 -0.16190982 -0.13789666 -0.18960315 0.08496014 0.057037394 0.05379031 -0.22104856
-0.19807439 -0.06510442 0.59743315 0.24771743 0.12501432 0.16455792 0.06723175 -0.021981249
0.78250694 0.092027 0.056518063 -0.0032545372 -0.015431539 -0.04607405 -0.0093313325 -0.0013525074
-0.0067530675 0.010451812 0.02269382 -0.1874927 -0.055279072 0.004581497 -0.012674372 0.010874881
0.04044213 0.087970644 -0.19169314 -0.059837483 -0.12402987 0.19987786 0.1042076 0.014636859
-0.53507495 0.03863428 0.06598707 0.2172915 -0.33837056 -0.4382098 0.049892083 -0.030216392
-0.011675681 -0.019657558 -0.073771864 0.10215228 0.16893403 0.16962087 0.73597085 0.12421686
0.07032001 -0.06990749 0.024677979 -0.019447016 0.023105463 -0.3578104 0.2172253 0.07286968
0.3644309 0.14608198 0.24317415 -0.16371326 0.004989958 -0.37304178 -0.19200191 -0.36485475
-0.12208727 -0.036092404 0.11283853 0.16690336 -0.023121556 -0.007198062 -0.12771893 -0.38421494
-0.16821976 -0.30581582 -0.21128222 -0.33915928 -0.45687127 0.05445196 -0.45432445 -0.3166317
0.06315712 -0.17920794 -0.042529635 0.08200402 0.043484416 0.023933528 0.20186947 -0.30295044
-0.07231956 0.07449638 -0.3312375 0.16994709 -0.06350811 0.26443535 0.734013 0.1840021
0.19377734 0.24075586 -0.048090912 0.047047447 0.038001142 0.019845475 0.010275516 0.08592104
0.1268317 0.021007696 -0.12127001 0.015730735 -0.08218828 0.0015817102 0.32863763 0.092188224
0.047626335 0.04107501 0.06400867 0.066612475 0.18031427 0.16988495 0.15433812 -0.08446695
0.13396518 0.10270799 0.09246916 0.23818678 0.30645546 0.33834404 0.2357314 0.25458577
0.26738274 0.0909513 0.12964077 -0.0052480297 -0.08223259 0.45980838 -0.27614096 0.086396955
-0.18474069 0.110141456 -0.3397574 0.022387762 -0.34551734 -0.24591687 0.027310861 0.03421572
0.099077895 0.10234825 -0.3865275 -0.3919138 -0.14919202 0.12035107 -0.07842697 -0.51802045
-0.4712414 -0.51435256 -0.59330136 -0.05515356 0.037974257 0.10744148 0.033246517 0.06944792
0.022797773 0.0558859 0.14150356 0.06147652 0.03473378 0.014517554 0.0006975451 -0.22069255
00000000: a53a 683e e3a5 b9bd e777 73be acae 2d3e
00000010: 52fb a7bd 6822 4fbe a6d4 f93d 7d74 153e
00000020: 326b 293e 9df6 823b 8fa1 0fbf e9c1 d2be
00000030: 373f bf3c 7803 dbbc 47e1 9ebe 2a62 f13d
00000040: 54d9 05be 7a91 04be ce10 383c a01e ae3c
00000050: 84c5 583c b118 1bbc a22c f93c 72c1 133d
00000060: f673 a23c 1c8c 283d 9452 903b b5c3 0cbf
00000070: 5d13 5e3d 65fb 05bf 7d38 10bf 4d51 773b
00000080: be4f c2be e873 b73d e9c7 1e3e 0ef9 fe3d
00000090: 859d e3bc 2075 31bc 47bd 683d c667 d53d
000000a0: faa6 243e d592 893d ab4d 6fbd a2a7 e83c
000000b0: cbfa 333b 0e45 dfbe d23b 9ebb f5ae 86bd
000000c0: 9436 633d de26 3d3b b3cb 5e3e fbd4 eebe
000000d0: 82a8 13bf 4c97 5d3d 7650 c9be c2de 6a3e
000000e0: 0b8d 16be 45fd 39be 2536 943e 9e68 debe
000000f0: 566d 99bc 7d18 9b3e e5e0 06bf 2330 70be
00000100: 9cc8 993d 4e7d b8bd 5c1a 1fbd f77b e7bb
00000110: 26a6 5b3d da31 893d 7b66 6ebb b036 aebd
00000120: 08fd 9bbe 155f 8a3c 5207 183d e1ed 1bbf
00000130: 2e7d e9be 32c2 efbe 83d7 1f3d db03 e2be
00000140: 1645 0c3e b0cb 25be c834 0dbe 5427 42be
00000150: 95ff ad3d 0ba0 693d 3a53 5c3d 8e5a 62be
00000160: 03d4 4abe 7755 85bd 61f1 183f a3a9 7d3e
00000170: c103 003e df81 283e cdb0 893d 0512 b4bc
00000180: 6052 483f a778 bc3d 7c7f 673d 134a 55bb
00000190: 91d4 7cbc 25b8 3cbd 72e2 18bc 9e46 b1ba
000001a0: d648 ddbb 143e 2b3c 64e8 b93c 16fe 3fbe
000001b0: 4f6c 62bd 6220 963b 2ba8 4fbc 8f2c 323c
000001c0: a6a6 253d f429 b43d 354b 44be 2618 75bd
000001d0: 5f03 febd c8ac 4c3e cb6a d53d 70cf 6f3c
000001e0: acfa 08bf fb3e 1e3d 3b24 873d aa81 5e3e
000001f0: e83e adbe 095d e0be a45b 4c3d 5e88 f7bc
00000200: 5b4b 3fbc e308 a1bc b415 97bd 3735 d13d
00000210: 0bfd 2c3e 18b1 2d3e 9668 3c3f 6965 fe3d
00000220: f003 903d a82b 8fbd 7929 ca3c 594f 9fbc
00000230: ab47 bd3c ed32 b7be 4f70 5e3e b33c 953d
00000240: b096 ba3e 8496 153e a502 793e 73a4 27be
00000250: cd82 a33b 55ff bebe 269c 44be 3ece babe
00000260: e408 fabd a1d5 13bd e317 e73d b7e8 2a3e
00000270: 6b69 bdbc b8dd ebbb c0c8 02be d2b7 c4be
00000280: cd41 2cbe e493 9cbe 5e5a 58be 49a6 adbe
00000290: 08eb e9be 0509 5f3d 379d e8be 8d1d a2be
000002a0: 8558 813d 4982 37be 8e33 2ebd b9f1 a73d
000002b0: b71c 323d 3f10 c43c dfb6 4e3e 521c 9bbe
000002c0: 471c 94bd 8f91 983d f697 a9be 9c06 2e3e
000002d0: 8a10 82bd 1264 873e 47e8 3b3f 0c6b 3c3e
000002e0: 916d 463e b488 763e fafa 44bd d3b4 403d
000002f0: 16a7 1b3d fa92 a23c a35a 283c 5ff7 af3d
00000300: 2be0 013e 5518 ac3c 695c f8bd bedd 803c
00000310: 5452 a8bd 6351 cf3a 3143 a83e 2ecd bc3d
00000320: d513 433d 453e 283d fa16 833d 1f6c 883d
00000330: 4ea4 383e 52f6 2d3e d00a 1e3e 02fd acbd
00000340: 2b2e 093e 9158 d23d 7960 bd3d 3ce7 733e
00000350: bbe7 9c3e 6e3b ad3e 9263 713e 1159 823e
00000360: 64e6 883e ad44 ba3d 8dc0 043e aaf7 abbb
00000370: 8f69 a8bd 016c eb3e 5962 8dbe e3f0 b03d
00000380: aa2c 3dbe d891 e13d aff4 adbe 8a66 b73c
00000390: a6e7 b0be a2d1 7bbe 07bb df3c c825 0c3d
000003a0: 5ae9 ca3d f69b d13d efe6 c5be eda8 c8be
000003b0: cbc5 18be 9f7a f63d 529e a0bd fd9c 04bf
000003c0: 8e46 f1be 9cac 03bf 99e2 17bf b3e8 61bd
000003d0: e58a 1b3d 470a dc3d 802d 083d b63a 8e3d
000003e0: 65c2 ba3c 9de8 643d 4fe6 103e cece 7b3d
000003f0: 0245 0e3d 09db 6d3c 76db 363a 3afd 61be

conv_layers.0.1.weight f4 [16]
1.1164079 1.2869396 1.1375561 0.8488004 1.2039304 0.6954668 1.0624603 0.58431375
0.95596445 0.9246912 0.5523435 0.6797332 0.6129568 1.1167715 1.0159016 0.8450156
00000000: 74e6 8e3f 70ba a43f 709b 913f fc4a 593f
00000010: 641a 9a3f 1d0a 323f b3fe 873f 9695 153f
00000020: 16ba 743f 90b8 6c3f 6266 0d3f ff02 2e3f
00000030: bdea 1c3f 5ef2 8e3f 1009 823f f152 583f

conv_layers.0.1.bias f4 [16]
-0.1709898 -0.02223844 -0.16214405 -0.21176505 0.07081072 0.10492573 -0.097601645 0.11557053
-0.10506988 -0.12548675 -0.030340089 -0.110101596 -0.2514389 -0.06931705 -0.23208752 -0.65731376
00000000: f317 2fbe 642d b6bc 1709 26be f0d8 58be
00000010: 3605 913d 4de3 d63d 5fe3 c7bd 3eb0 ec3d
00000020: e12e d7bd 997f 00be c78b f8bc f27c e1bd
00000030: 99bc 80be 19f6 8dbd 5aa8 6dbe b745 28bf

conv_layers.0.1.running_mean f4 [16]
-0.0013066196 -0.0015016488 -0.0010369289 -0.000697182 -0.0018254076 0.000839058 -0.00080382294 0.00063762546
-0.0010016514 -0.001084901 0.00090001913 0.002189613 -0.00028847653 -0.0010588274 -0.00081416714 -0.00037803105
00000000: e142 abba f9d2 c4ba 8fe9 87ba 18c3 36ba
00000010: 8442 efba 3bf4 5b3a a5b7 52ba 5226 273a
00000020: d849 83ba 3d33 8eba 43ef 6b3a 9c7f 0f3b
00000030: aa3e 97b9 5ac8 8aba d56d 55ba 7832 c6b9

conv_layers.0.1.running_var f4 [16]
0.00017816905 0.00023988035 0.00017186468 8.3311286e-05 0.00014647268 8.528726e-05 0.00014697539 8.6056105e-05
0.00013523443 0.00012400944 6.681265e-05 0.00016024921 9.34133e-05 0.00010332404 0.000121474106 0.00012273222
00000000: e4d2 3a39 6488 7b39 9336 3439 68b7 ae38
00000010: 7696 1939 40dc b238 681d 1a39 0579 b438
00000020: b7cd 0d39 8808 0239 c51d 8c38 9208 2839
00000030: e2e6 c338 acaf d838 eabf fe38 aeb1 0039

conv_layers.2.0.conv.weight f4 [32, 16, 3, 3]
0.03395569 0.21087559 -0.00030303374 0.18682857 0.022212014 -0.004754388 0.060291603 -0.040173244
-0.10126506 -0.0045737014 -0.018082587 0.07151104 0.09622402 0.05035625 -0.15513961 -0.0535461
-0.0064706923 -0.29193115 -0.025281023 -0.099701755 -0.15489677 0.12108971 0.17053373 -0.026937017
-0.07989916 0.057546467 -0.05762745 0.0076172864 -0.021522151 0.0076055583 -0.04973369 -0.12386022
0.11497164 -0.11536599 -0.21690261 -0.0437945 -0.008507594 0.06515928 0.27710563 -0.043984666
-0.082772695 -0.0923636 -0.10080367 0.10756794 0.044402137 0.13183479 -0.08682684 -0.3726634
0.0064802244 -0.0943317 -0.3093708 0.116956905 -0.24680454 -0.31908473 -0.06257168 0.0658166
-0.009089026 0.04552878 0.10384525 -0.014583641 0.11516396 0.11244058 -0.05048733 0.0009998376
-0.15346721 -0.028083537 -0.06868558 -0.060269307 -0.038983885 -0.12034001 -0.14551555 0.06952593
0.14302327 0.06473157 0.008625255 0.12040238 -0.106785275 0.14091179 0.027140332 0.030275824
-0.019473331 0.1539317 0.035335995 0.08688772 -0.02953538 -0.021101573 -0.015208738 0.2141825
0.051681276 -0.09551743 0.14259246 -0.37956893 -0.1449905 -0.2907154 -0.37268907 0.05762065
-0.15066533 -0.35958043 0.03949744 -0.0625662 -0.006497892 -0.033089064 -0.1198392 -0.011781249
-0.00017271575 0.03725522 0.0026677279 0.087828055 -0.05083518 -0.078831606 -0.15934563 0.10951208
-0.14884838 0.21189688 -0.19871703 -0.18801077 0.058205042 0.10051931 0.29204914 0.033947438
0.10592166 0.3398065 -0.084241286 -0.09278354 0.2873573 0.018380756 -0.017144158 -0.088780575
0.08601187 -0.24919052 -0.16514447 0.006168611 0.008599855 -0.014785726 -0.100683935 0.060456853
0.10073935 0.06454111 -0.0073710703 0.06930479 -0.08655973 0.0070369407 -0.069429584 -0.26753935
-0.02582719 -0.20031981 0.05321799 -0.037310176 -0.11875209 -0.10376418 -0.06773763 -0.058612708
-0.10325907 -0.11762306 0.0010491902 -0.14605057 -0.17889977 -0.09509317 0.007849062 -0.10388127
-0.16196476 -0.2039989 0.014393522 0.032384716 0.06086155 0.011293244 -0.03237679 -0.10334351
-0.087279335 -0.2460463 -0.038272798 0.07345452 0.0042639626 -0.050123967 0.09218254 -0.02755515
-0.13027836 0.04788472 -0.16018291 -0.08342584 -0.18305248 -0.41557816 -0.22483829 -0.109546125
-0.63879585 -0.38419583 -0.23771428 -0.49472916 -0.30220333 0.027615469 -0.07521187 0.09327538
0.062289488 0.32055432 -0.018259756 0.074806556 0.26446554 0.105661124 -0.030935591 0.15627861
0.10190888 -0.09310564 -0.10169288 0.046158135 -0.16741139 -0.026342876 0.04062799 0.013027468
-0.078486085 0.054698702 0.050586514 0.046632297 0.11229052 0.026839893 0.08301623 0.071960896
-0.17355865 0.019412898 -0.03675241 -0.21422611 -0.13007271 -0.065079026 -0.036202446 0.036808804
-0.06179848 0.028631253 -0.034713294 -0.02492161 -0.115504876 0.076145686 -0.026390249 -0.054378655
-0.10887828 0.028265323 0.19190352 0.017029528 0.090264626 0.019659942 -0.020962212 0.16382469
0.27156577 0.09740412 -0.024803413 -0.007813755 0.017709078 0.073094405 0.03542791 0.11741874
0.12817082 0.16430447 0.077466525 0.08444392 0.07242885 -0.14697765 -0.051197913 0.05393804
00000000: 1f15 0b3d c5ef 573e 80e0 9eb9 fd4f 3f3e
00000010: f8f5 b53c b2ca 9bbb 54f4 763d b38c 24bd
00000020: 0e64 cfbd fdde 95bb ef21 94bc 6174 923d
00000030: 1911 c53d 5b42 4e3d ebdc 1ebe 2853 5bbd
00000040: 1a08 d4bb 0078 95be 261a cfbc 6f30 ccbd
00000050: 429d 1ebe e2fd f73d 65a0 2e3e 05ab dcbc
00000060: 2ca2 a3bd d8b5 6b3d c30a 6cbd 6e9a f93b
00000070: 394f b0bc 0c38 f93b 8eb5 4bbd 6daa fdbd
00000080: 4076 eb3d 0145 ecbd b81b 5ebe dd61 33bd
00000090: 6f63 0bbc 3b72 853d cae0 8d3e 4429 34bd
000000a0: bb84 a9bd 2129 bdbd 2872 cebd 954c dc3d
000000b0: 04df 353d b3ff 063e 45d2 b1bd bdcd bebe
000000c0: 1058 d43b fa30 c1bd d965 9ebe 1a87 ef3d
000000d0: 54ba 7cbe 135f a3be 9525 80bd dbca 863d
000000e0: 23ea 14bc 637c 3a3d d2ac d43d 39f0 6ebc
000000f0: 15db eb3d 3f47 e63d cdcb 4ebd fc0c 833a
00000100: 8226 1dbe 720f e6bc 06ab 8cbd f3dc 76bd
00000110: 91ad 1fbd d374 f6bd 0702 15be 9c63 8e3d
00000120: b174 123e fc91 843d f150 0d3c 8695 f63d
00000130: 3db2 dabd 2e4b 103e 6755 de3c 0105 f83c
00000140: 8986 9fbc 46a0 1d3e 7abc 103d 30f2 b13d
00000150: 2ef4 f1bc 35dd acbc 122e 79bc a852 5b3e
00000160: bfaf 533d a49e c3bd c203 123e dc56 c2be
00000170: 6478 14be a6d8 94be 1ad1 bebe a103 6c3d
00000180: 0348 1abe ed1a b8be 11c8 213d b522 80bd
00000190: 45ec d4bb 6688 07bd 416e f5bd 2406 41bc
000001a0: 081b 35b9 ee98 183d 0cd5 2e3b 32df b33d
000001b0: 8d38 50bd 7772 a1bd 802b 23be df47 e03d
000001c0: b66b 18be 7ffb 583e 7a7c 4bbe e585 40be
000001d0: 6968 6e3d 11dd cd3d 7787 953e 780c 0b3d
000001e0: 75ed d83d 1efb ad3e b286 acbd 4c05 bebd
000001f0: 7f20 933e 3d93 963c e871 8cbc 97d2 b5bd
00000200: fe26 b03d cd2b 7fbe a21b 29be 0f22 ca3b
00000210: 68e6 0c3c d43f 72bc 6133 cebd 9ba1 773d
00000220: 6f50 ce3d 212e 843d 0589 f1bb abef 8d3d
00000230: 3a46 b1bd 2396 e63b 1931 8ebd ebfa 88be
00000240: 8b93 d3bc a320 4dbe 1bfb 593d 8ed2 18bd
00000250: 4c34 f3bd 5082 d4bd 07ba 8abd e113 70bd
00000260: 7e79 d3bd 5ce4 f0bd fb84 893a 488e 15be
00000270: 8031 37be 35c0 c2bd 5a99 003c b4bf d4bd
00000280: 17da 25be 16e5 50be cfd2 6b3c d6a5 043d
00000290: f649 793d 4c07 393c 869d 04bd c3a5 d3bd
000002a0: 82bf b2bd 90f3 7bbe f0c3 1cbd 536f 963d
000002b0: b6b8 8b3b ca4e 4dbd 33ca bc3d 57bb e1bc
000002c0: b167 05be c522 443d fd06 24be 2bdb aabd
000002d0: 1c72 3bbe a9c6 d4be 023c 66be b859 e0bd
000002e0: 2088 23bf 51b5 c4be 5f6b 73be 244d fdbe
000002f0: 65ba 9abe d639 e23c ae08 9abd 2a07 bf3d
00000300: 4323 7f3d b21f a43e 7c95 95bc 2e34 993d
00000310: 0768 873e dc64 d83d a36c fdbc 8007 203e
00000320: 9ab5 d03d 2bae bebd 5b44 d0bd 5010 3d3d
00000330: e46d 2bbe 04cd d7bc 8969 263d 2971 553c
00000340: 50bd a0bd bf0b 603d ce33 4f3d 8201 3f3d
00000350: 92f8 e53d 56df db3c 6a04 aa3d 3c60 933d
00000360: 5cb9 31be cc07 9f3c b289 16bd 175e 5bbe
00000370: c831 05be 2748 85bd 0449 14bd d4c4 163d
00000380: 6720 7dbd 178c ea3c 872f 0ebd 6728 ccbc
00000390: d28d ecbd 45f2 9b3d 5d30 d8bc 27bc 5ebd
000003a0: 93fb debd ae8c e73c 5b82 443e 8281 8b3c
000003b0: a9dc b83d e30d a13c f2b8 abbc a9c1 273e
000003c0: ab0a 8b3e d07b c73d 8730 cbbc 4405 00bc
000003d0: a112 913c 85b2 953d db1c 113d 3d79 f03d
000003e0: 363f 033e 6e3f 283e c5a6 9e3d eff0 ac3d
000003f0: 9455 943d 4f81 16be e7b4 51bd 22ee 5c3d

conv_layers.2.1.weight f4 [32]
0.9482423 0.6719696 1.0880136 0.8599456 1.1439044 0.9465638 0.84714437 0.84274465
0.87278634 0.8482578 0.6461383 0.7420436 0.98251307 1.3098805 1.2364473 1.3568596
0.67554045 1.2985401 1.0761333 1.196094 0.7951094 0.9136045 0.7445486 0.57550365
1.0737464 0.6923899 1.065532 1.056191 0.7177064 0.8005041 1.129811 0.7131192
00000000: 02c0 723f 3306 2c3f 0844 8b3f 6525 5c3f
00000010: 766b 923f 0152 723f 74de 583f 1dbe 573f
00000020: ed6e 5f3f 6c27 593f 5269 253f 92f6 3d3f
00000030: fa85 7b3f 2aaa a73f e843 9e3f 93ad ad3f
00000040: 38f0 2c3f 9036 a63f bcbe 893f 9c19 993f
00000050: 4a8c 4b3f fce1 693f bd9a 3e3f 3554 133f
00000060: 8670 893f 7740 313f 5a63 883f 4431 873f
00000070: 9bbb 373f d6ed 4c3f a69d 903f fb8e 363f

conv_layers.2.1.bias f4 [32]
0.14512277 -0.1895213 -0.08305661 -0.13742746 -0.043741886 0.114684135 -0.16691947 0.26316735
-0.21311682 -0.14014804 -0.15587871 -0.076977715 -0.094713114 0.067459024 0.32867992 0.09074256
-0.014449631 0.13084392 0.04011704 0.23409584 -0.18399727 0.10927206 -0.051713824 -0.11944902
-0.03882148 -0.16937059 0.013594965 0.09297868 -0.13412127 -0.24640156 -0.062263105 0.073052414
00000000: 109b 143e df11 42be 9519 aabd c9b9 0cbe
00000010: b12a 33bd 84df ea3d f0ec 2abe dfbd 863e
00000020: 4c3b 5abe f882 0fbe ab9e 1fbe 7ea6 9dbd
00000030: f3f8 c1bd f527 8a3d bc48 a83e 3cd7 b93d
00000040: 25be 6cbc f3fb 053e c451 243d d2b6 6f3e
00000050: c869 3cbe 08ca df3d e0d1 53bd b0a1 f4bd
00000060: 4603 1fbd 7c6f 2dbe 6bbd 5e3c 9b6b be3d
00000070: 1657 09be b150 7cbe 9907 7fbd 819c 953d

conv_layers.2.1.running_mean f4 [32]
-0.16166897 -0.3918596 -0.29572344 -0.12558764 -0.14058486 -0.10429282 -0.119301036 -0.023887178
-0.09009055 -0.06733752 0.0602749 -0.07887197 -0.11137005 -0.1527909 -0.031476323 -0.11313978
-0.016962875 -0.15681814 -0.16097426 -0.040783618 -0.08725842 -0.16034055 -0.19090518 -0.08741598
-0.1637769 -0.21535255 -0.15294057 -0.1577274 -0.09887748 -0.09745392 -0.24150704 -0.087269776
00000000: 8d8c 25be d2a1 c8be 1069 97be 0c9a 00be
00000010: 7af5 0fbe 7997 d5bd 1a54 f4bd 0baf c3bc
00000020: 6581 b8bd 41e8 89bd d0e2 763d a187 a1bd
00000030: fb15 e4bd 3875 1cbe 51ed 00bd d4b5 e7bd
00000040: baf5 8abc ef94 20be 70d6 24be b90c 27bd
00000050: 8bb4 b2bd 5030 24be a67c 43be 2607 b3bd
00000060: 22b5 27be 6185 5cbe 749c 1cbe 4b83 21be
00000070: 4780 cabd ec95 c7bd 9f4d 77be 7fba b2bd

conv_layers.2.1.running_var f4 [32]
0.96037203 0.6445281 1.2644515 0.50055236 0.9509297 0.5306835 0.4494581 0.6217955
0.26046008 0.6188981 0.1457267 0.7618455 0.4634993 1.212131 0.74145645 0.6280448
0.48364803 0.98615634 0.85433227 1.1426241 0.09975964 0.92575836 0.36112818 0.42301947
0.92356294 0.37305033 0.7992585 0.63691586 0.39055482 0.24174462 1.2209617 0.4202117
00000000: f1da 753f cbff 243f 8cd9 a13f 3324 003f
00000010: 2170 733f e0da 073f 5f1f e63e fd2d 1f3f
00000020: 065b 853e 1b70 1e3f 6139 153e 4f08 433f
00000030: c84f ed3e 1c27 9b3f 17d0 3d3f 8bc7 203f
00000040: b7a0 f73e be74 7c3f 85b5 5a3f 8241 923f
00000050: c84e cc3d 80fe 6c3f cbe5 b83e 0296 d83e
00000060: 9f6e 6c3f 7400 bf3e 349c 4c3f eb0c 233f
00000070: cdf6 c73e e78b 773e 7948 9c3f fd25 d73e

conv_layers.3.conv1d.weight f4 [1, 1, 3]
-1.5007912 -1.6747828 -1.1537238
00000000: ed19 c0bf 485f d6bf 39ad 93bf

conv_layers.5.0.conv.weight f4 [32, 32, 3, 3]
0.109118804 0.13814762 0.02589917 0.19382381 0.073829554 0.1841846 0.08968476 -0.0068856785
0.09122555 0.09936374 0.017573178 -0.21269566 0.099464335 0.045553293 -0.13294609 0.0013605648
0.041904286 0.08955156 -0.14658207 -0.015473249 0.06437604 0.08296997 0.15981333 0.17186582
0.09832599 0.12910107 0.093800105 0.016889777 0.0123908585 0.0018773698 0.07685513 -0.36199325
0.12741612 -0.020130381 -0.30843574 0.055960044 0.15119821 0.17523502 0.0066633546 0.044020526
0.015338519 -0.042073056 -0.12741728 -0.16287597 0.06146499 -4.1783434e-05 0.041155152 0.113258265
0.35455438 0.04763842 0.05324784 0.13501546 -0.007627229 0.18423788 0.02517228 0.05724456
-0.16928904 0.023543779 0.014957034 0.12165259 -0.19201742 -0.13620158 0.00018137322 0.06887112
0.1615494 0.1283392 0.041465964 0.12374392 0.07768613 -0.081463 -0.123924516 0.04835443
0.06105552 0.13101274 0.067550644 -0.0018182555 -0.0981995 0.013717329 -0.5386557 -0.28176075
0.0016995564 0.10216254 0.20064971 0.100903034 0.13986222 0.0017238164 0.13828371 -0.078371026
-0.34326547 0.08158378 0.19858848 0.113236785 -0.28784946 0.04233789 -0.20446205 0.029852353
-0.042427152 -0.13545603 -0.116240926 0.10697225 0.012287073 -0.39607963 0.02855921 -0.1516431
-0.22004774 -0.032515366 -0.1236053 -0.007335046 -0.0087903105 -0.120121986 0.11167223 0.010225016
-0.26561874 0.08768211 -0.2481069 -0.2006949 -0.080700554 -0.110777386 -0.07993473 -0.011130434
-0.014479803 0.10971296 -0.038565267 0.022817459 -0.059789214 -0.06713297 0.047136776 0.114526555
-0.0025940954 -0.0034948823 0.3424738 0.11747665 0.15983316 0.027820462 0.089256264 -0.06871072
0.033837058 -0.03787737 -0.099720344 -0.044681195 -0.13640419 -0.086500555 0.04645256 0.12844244
0.11880667 0.04043257 -0.0572373 -0.10105064 0.0031845102 -0.13368972 -0.11567983 -0.1826108
-0.21920063 0.14445037 -0.031400915 -0.020302042 -0.116923064 -0.09401064 0.043048266 0.013860361
-0.15991694 0.107802354 0.012262212 0.0089689465 0.116396196 0.14431107 0.051461685 0.23986213
-0.23430388 -0.47617713 0.09407257 0.08666812 0.050521187 -0.113031134 -0.020957598 -0.05811563
0.09989784 0.08779373 -0.017181683 0.085531585 0.06964736 0.038844302 -0.20649634 0.058712456
-0.0096618375 -0.20307772 -0.021711938 -0.2642909 -0.032032046 0.004570207 0.015285933 0.02678759
-0.026600135 -0.022746082 0.16797769 -0.066788286 -0.036119 -0.015475863 -0.22748178 0.09894793
-0.067054525 0.013116325 0.08542887 0.094511665 0.01262189 0.0723904 0.0040845354 -0.012101987
-0.014649 -0.08368692 0.014246178 -0.20028594 -0.100225136 -0.31340554 0.12521356 -0.26826924
0.016032185 0.021691654 -0.09425103 0.022128688 0.078721575 -0.17596233 0.076364726 -0.12982051
0.03218397 -0.0315366 0.009899246 -0.07954383 0.011914061 -0.10757916 -0.08235343 -0.15356827
-0.020117968 0.042677417 0.009864672 -0.14203648 -0.022744905 -0.19842961 -0.106785215 -0.16082278
-0.09922996 -0.27065718 0.118241616 0.0920578 -0.015270425 0.028366772 0.043776385 -0.11079697
0.23622946 -0.009191106 0.04431165 0.20488828 0.008893786 -0.17161344 -0.17514491 0.009992231
00000000: ae79 df3d 9276 0d3e 7f2a d43c c079 463e
00000010: f333 973d e39a 3c3e a5ac b73d 42a1 e1bb
00000020: 76d4 ba3d 377f cb3d a0f5 8f3c e4cc 59be
00000030: f5b3 cb3d 1796 3a3d 0523 08be fb54 b23a
00000040: d4a3 2b3d cf66 b73d 9c19 16be 8383 7dbc
00000050: 96d7 833d 29ec a93d 1ba6 233e 98fd 2f3e
00000060: 235f c93d 1233 043e 451a c03d 6e5c 8a3c
00000070: 0703 4b3c 1412 f63a 3966 9d3d 2e57 b9be
00000080: 5f79 023e 78e8 a4bc 4aeb 9dbe 5c36 653d
00000090: b4d3 1a3e cf70 333e 4558 da3b de4e 343d
000000a0: 694e 7b3c cc54 2cbd ad79 02be f5c8 26be
000000b0: b7c2 7b3d 9f40 2fb8 4e92 283d f3f3 e73d
000000c0: 2788 b53e 8120 433d 681a 5a3d 7e41 0a3e
000000d0: d6ed f9bb dba8 3c3e 1936 ce3c 4679 6a3d
000000e0: 1b5a 2dbe e2de c03c 590e 753c fe24 f93d
000000f0: 37a0 44be 6d78 0bbe 012f 3e39 4d0c 8d3d
00000100: 356d 253e 5a6b 033e 37d8 293d 746d fd3d
00000110: e819 9f3d 13d6 a6bd 23cc fdbd 4b0f 463d
00000120: 5a15 7a3d 3428 063e fe57 8a3d 8852 eeba
00000130: d21c c9bd a6be 603c 57e5 09bf f242 90be
00000140: a6c3 de3a 983a d13d 1e77 4d3e 40a6 ce3d
00000150: 0b38 0f3e aef1 e13a 3f9a 0d3e fd80 a0bd
00000160: 7ec0 afbe 6615 a73d c75a 4b3e b0e8 e73d
00000170: 0161 93be 7f6a 2d3d 805e 51be ec8c f43c
00000180: 18c8 2dbd fcb4 0abe b90f eebd 4414 db3d
00000190: b84f 493c f3ca cabe 01f5 e93c 5448 1bbe
000001a0: 3254 61be d52e 05bd c724 fdbd d35a f0bb
000001b0: 3c05 10bc 8402 f6bd 69b4 e43d d386 273c
000001c0: 2eff 87be ae92 b33d bc0f 7ebe f782 4dbe
000001d0: 5546 a5bd 41df e2bd d2b4 a3bd 6d5c 36bc
000001e0: b23c 6dbc 30b1 e03d 9df6 1dbd aeeb ba3c
000001f0: 89e5 74bd 037d 89bd 7e12 413d e68c ea3d
00000200: b301 2abb 650a 65bb ba58 af3e 9997 f03d
00000210: 4eab 233e bde7 e33c fdcb b63d 35b8 8cbd
00000220: ba98 0a3d 4d25 1bbd 2e3a ccbd a103 37bd
00000230: 8aad 0bbe 3427 b1bd 0a45 3e3d 6a86 033e
00000240: e950 f33d 9f9c 253d a971 6abd a3f3 cebd
00000250: 37b3 503b f5e5 08be 8ce9 ecbd 53fe 3abe
00000260: 2176 60be ccea 133e 3f9e 00bd 7850 a6bc
00000270: 5c75 efbd a788 c0bd 6153 303d 9116 633c
00000280: 44c1 23be 7bc7 dc3d 72e7 483c 7df2 123c
00000290: 2161 ee3d 48c6 133e 7dc9 523d 6b9e 753e
000002a0: 5bed 6fbe 7dcd f3be 1fa9 c03d 0e7f b13d
000002b0: 4eef 4e3d de7c e7bd 45af abbc a80a 6ebd
000002c0: 3d97 cc3d 33cd b33d 9ac0 8cbc 2f2b af3d
000002d0: 46a3 8e3d 341b 1f3d c773 53be 797c 703d
000002e0: af4c 1ebc 9bf3 4fbe 3cdd b1bc 2351 87be
000002f0: 0934 03bd adc1 953b da71 7a3c a671 db3c
00000300: 87e8 d9bc fe55 babc 5802 2c3e 4cc8 88bd
00000310: 84f1 13bd 798e 7dbc fcf0 68be 36a5 ca3d
00000320: e253 89bd dbe5 563c 55f5 ae3d 558f c13d
00000330: 0bcc 4e3c 6b41 943d 91d7 853b 6a47 46bc
00000340: 5c02 70bc 0c64 abbd cd68 693c c217 4dbe
00000350: d642 cdbd b176 a0be fc37 003e 965a 89be
00000360: ee55 833c b2b2 b13c af06 c1bd 3947 b53c
00000370: c738 a13d 782f 34be 1c65 9c3d abef 04be
00000380: 57d3 033d 862c 01bd 7230 223c e0e7 a2bd
00000390: 3233 433c 7652 dcbd eaa8 a8bd 0041 1dbe
000003a0: 70ce a4bc 84ce 2e3d 6f9f 213c 0372 11be
000003b0: 8653 babc 2231 4bbe 35b2 dabd baae 24be
000003c0: 1439 cbbd 9493 8abe a928 f23d cd88 bc3d
000003d0: ce30 7abc 6f61 e83c de4e 333d 86e9 e2bd
000003e0: 23e6 713e 4b96 16bc 2280 353d 3cce 513e
000003f0: 3eb7 113c 6fbb 2fbe 3059 33be 74b6 233c

conv_layers.5.1.weight f4 [32]
0.99573284 0.99386203 1.0772619 1.1114453 0.8571816 0.9050829 0.97638965 0.5406291
0.8581327 1.1098065 0.8236681 0.9677743 0.7412839 0.82450825 0.6041194 0.7210364
0.9348453 0.4645472 0.9255218 1.0879163 0.47148085 0.9755422 0.8557804 1.0318977
0.7893224 0.92074835 0.8031417 0.68135566 0.4938561 1.0532353 0.99558026 0.7037244
00000000: 59e8 7e3f be6d 7e3f b8e3 893f d743 8e3f
00000010: 4170 5b3f 83b3 673f acf4 793f ab66 0a3f
00000020: 96ae 5b3f 240e 8e3f eadb 523f 0ec0 773f
00000030: c8c4 3d3f f912 533f 92a7 1a3f d795 383f
00000040: 0652 6f3f 21d9 ed3e ffee 6c3f d740 8b3f
00000050: f065 f13e 22bd 793f 6d14 5b3f 3915 843f
00000060: 0811 4a3f 2ab6 6b3f b29a 4d3f 536d 2e3f
00000070: b5da fc3e 6ad0 863f 59de 7e3f 4827 343f

conv_layers.5.1.bias f4 [32]
0.029135833 0.12618427 -0.1827362 -0.08089505 0.030440005 0.7184406 -0.0876394 -0.28886455
0.064097285 -0.3440303 -0.022826683 -0.01958229 -0.16784456 -0.07445447 -0.020068077 -0.106583916
-0.067978226 -0.07315178 0.037394468 -0.24844156 -0.1514737 0.042242005 -0.16072015 -0.044547256
-0.27863967 0.6235658 -0.006649372 -0.17448191 -0.04950375 -0.024622299 -0.17716436 -0.48340127
00000000: 45ae ee3c 7336 013e 331f 3bbe 4eac a5bd
00000010: 515d f93c b9eb 373f 497c b3bd 0ee6 93be
00000020: 7045 833d bd24 b0be 06ff babc 0a6b a0bc
00000030: 72df 2bbe 967b 98bd cf65 a4bc ab48 dabd
00000040: 2b38 8bbd 9ad0 95bd f12a 193d 7767 7ebe
00000050: ec1b 1bbe f405 2d3d d393 24be 2f77 36bd
00000060: dca9 8ebe 02a2 1f3f fae2 d9bb 63ab 32be
00000070: 72c4 4abd b4b4 c9bc 936a 35be 5f80 f7be

conv_layers.5.1.running_mean f4 [32]
0.071503334 -0.18129636 -0.063063845 -0.20436302 -0.1463403 -0.4376646 -0.23847872 -0.004805693
-0.17183925 0.17497537 0.0854056 -0.18253265 -0.24874562 -0.1397527 0.08416151 -0.08102799
-0.34693882 -0.069810234 -0.13191977 0.22510557 0.23546433 0.02536701 -0.35737512 0.0062818145
-0.16909161 -0.086483546 -0.1441024 -0.89549524 0.63481474 -0.07269184 -0.18676634 -0.713326
00000000: 5770 923d c1a5 39be 9e27 81bd 8a44 51be
00000010: 3bda 15be 9315 e0be c433 74be 1379 9dbb
00000020: a1f6 2fbe be2c 333e 22e9 ae3d d7e9 3abe
00000030: 2cb7 7ebe 551b 0fbe df5c ac3d 01f2 a5bd
00000040: f7a1 b1be abf8 8ebd fa15 07be 1382 663e
00000050: 901d 713e 7ace cf3c dff9 b6be aed7 cd3b
00000060: 5a26 2dbe 491e b1bd 948f 13be 2d3f 65bf
00000070: 3883 223f 76df 94bd ad3f 3fbe 889c 36bf

conv_layers.5.1.running_var f4 [32]
0.09398678 0.0850502 0.106141426 0.13362625 0.066286616 0.0850092 0.06378636 0.023084877
0.08617392 0.10099333 0.044790454 0.055064812 0.03896798 0.033068147 0.04806327 0.055989664
0.064772695 0.030791152 0.06933804 0.10106635 0.053305626 0.07836549 0.040791616 0.06293762
0.036400925 0.08753498 0.055929728 0.04523234 0.043911375 0.097724505 0.09563833 0.061942156
00000000: 247c c03d cd2e ae3d ad60 d93d 52d5 083e
00000010: 47c1 873d 4e19 ae3d 6ca2 823d 7f1c bd3c
00000020: f47b b03d 97d5 ce3d 3276 373d a48b 613d
00000030: e39c 1f3d 7772 073d fedd 443d 6b55 653d
00000040: 8ca7 843d ba3d fc3c 1a01 8e3d e0fb ce3d
00000050: 0057 5a3d 167e a03d 1c15 273d 70e5 803d
00000060: 2319 153d 8a45 b33d 9216 653d 8c45 393d
00000070: 6adc 333d c923 c83d 07de c33d 0fb7 7d3d

conv_layers.6.0.conv.weight f4 [32, 32, 3, 3]
-0.06937714 -0.17372714 0.075827554 0.21183945 0.07400251 0.016503984 0.09040098 -0.09286203
-0.012591808 -0.13813455 -0.040345114 0.025638249 -0.35939503 -0.14611661 -0.118164 -0.26239207
0.044934236 -0.090637 -0.39187822 -0.14067985 -0.09168859 -0.37035728 -0.052657723 -0.086187005
0.15820009 0.06651405 0.0034532398 -0.16213912 -0.028648518 -0.28750384 -0.14073975 -0.016112406
-0.13115154 -0.08877822 -0.08138478 -0.2065462 0.11477662 0.0014504339 0.14029029 -0.07501983
-0.035548773 -0.03946708 0.12648778 -0.03308362 0.0969708 -0.011039901 -0.18475808 -0.18258405
-0.16423339 -0.21986295 -0.19252557 -0.14317673 -0.09957846 0.04284286 -0.057659484 -0.010432875
0.1104544 0.10195551 0.021267798 0.05984223 0.3493907 0.05029794 -0.050778102 -0.017908042
-0.054752555 0.034228157 0.08055272 0.20736723 0.09233582 0.18964988 0.15598893 0.120245814
0.0008153184 0.027118102 0.22446784 0.013290622 0.117671974 0.13869983 0.08064333 0.25919774
-0.019361587 -0.27311185 -0.09081848 -0.104430094 -0.08290534 0.0027321626 -0.062377192 -0.050564393
-0.00019087429 -0.24025665 0.23594776 -0.12382151 -0.03435596 -0.112225585 -0.07773935 0.08611543
0.13278063 -0.21214333 0.023907458 -0.054302827 -0.21169555 -0.21774878 0.16320567 0.09350476
-0.22991702 -0.30924135 -0.08402549 0.20004587 -0.038524322 -0.025436627 0.1706647 -0.08500465
0.103216216 0.078146785 0.09987716 0.22984684 0.02611068 0.09757909 -0.2040002 -0.054077037
-0.103322245 -0.11342009 -0.055038497 0.11709819 0.0899328 0.17417853 0.21109754 0.10762077
0.111569785 0.233914 -0.067762285 0.08185944 0.0531067 0.027490886 0.09269493 0.15501815
0.03478927 0.057441283 0.1499936 0.019585604 0.17258091 0.19504173 0.09653116 -0.057464827
-0.3637154 0.0016244355 0.010998095 -0.27921113 -0.06562651 -0.20905086 -0.09317594 0.12162871
-0.268922 -0.14528929 0.047456656 -0.06741995 -0.035666868 -0.035523817 -0.11322968 -0.14174664
0.009238585 0.05056456 -0.2159989 -0.0103235245 0.13205634 -0.1621385 -0.08660239 -0.025669698
-0.22044316 -0.2613478 -0.19414563 0.108560786 -0.067180455 0.2839223 0.024548795 0.0036211207
0.09682969 -0.14029528 -0.15188551 -0.0052724574 0.0841928 0.06440078 0.008115622 0.05009055
-0.0084638465 0.20399767 -0.0002893341 -0.06600036 0.08791556 -0.01850127 0.022819174 0.10590839
0.12079497 -0.03465557 0.019263899 0.048663273 0.039497312 -0.23264593 0.051350355 0.004658
0.06271073 -0.14374274 -0.10827664 0.06398877 -0.01412086 -0.036741424 0.085374415 -0.18596068
0.11221469 -0.038741358 -0.14070496 -0.060185414 -0.07223256 -0.1301625 -0.05806013 -0.21495138
-0.16517797 -0.16754295 -0.121282466 0.1246324 -0.0541935 -0.120148696 -0.06732278 0.016718375
-0.006470848 -0.022220396 0.054197043 0.011886834 -0.16482295 0.04231818 0.10433742 0.015409962
-0.021141104 -0.025825176 0.20095713 -0.03984078 0.17149323 -0.116175964 -0.00018952304 0.104655914
0.17768322 -0.074936286 0.009080971 -0.18274574 -0.12672335 -6.0115566e-05 -0.0047985273 -0.043449577
0.035188556 -0.11553569 -0.07537028 -0.026155623 0.21455681 0.01424334 0.107348606 0.107785724
00000000: 9a15 8ebd 87e5 31be 7a4b 9b3d 71ec 583e
00000010: a18e 973d 5d33 873c 2624 b93d 732e bebd
00000020: df4d 4ebc 2573 0dbe eb40 25bd 4e07 d23c
00000030: a002 b8be 989f 15be f8ff f1bd 4158 86be
00000040: f60c 383d e49f b9bd 43a4 c8be 610e 10be
00000050: 3ac7 bbbd 789f bdbe a0af 57bd d082 b0bd
00000060: 34ff 213e 8538 883d c04f 623b cc07 26be
00000070: 4cb0 eabc b433 93be 151e 10be 2afe 83bc
00000080: 974c 06be 5bd1 b5bd 10ad a6bd d980 53be
00000090: 0110 eb3d 7c1c be3a 42a8 0f3e ffa3 99bd
000000a0: 979b 11bd 3ca8 21bd 0386 013e b182 07bd
000000b0: a098 c63d b3e0 34bc 3931 3dbe 50f7 3abe
000000c0: cc2c 28be c123 61be 6c25 45be ec9c 12be
000000d0: cbef cbbd ff7b 2f3d 5a2c 6cbd a6ee 2abc
000000e0: eb35 e23d 0dce d03d ce39 ae3c 201d 753d
000000f0: 56e3 b23e 3605 4e3d b3fc 4fbd e3b3 92bc
00000100: 3744 60bd d332 0c3d d3f8 a43d 1358 543e
00000110: 901a bd3d 9433 423e 90bb 1f3e 7043 f63d
00000120: 17bb 553a c826 de3c e6da 653e e9c0 593c
00000130: 01fe f03d 5407 0e3e 5528 a53d 91b5 843e
00000140: 319c 9ebc 51d5 8bbe 0aff b9bd 72df d5bd
00000150: 46ca a9bd 150e 333b 3a7f 7fbd 9c1c 4fbd
00000160: 6d25 48b9 d705 76be 4a9c 713e 2296 fdbd
00000170: d6b8 0cbd 87d6 e5bd cf35 9fbd 495d b03d
00000180: a5f7 073e 1a3c 59be 93d9 c33c a46c 5ebd
00000190: b8c6 58be 89f9 5ebe 631f 273e 6c7f bf3d
000001a0: 5e6f 6bbe e254 9ebe 8e15 acbd d3d8 4c3e
000001b0: aecb 1dbd 7960 d0bc bac2 2e3e eb16 aebd
000001c0: 0663 d33d 6c0b a03d 658c cc3d f85c 6b3e
000001d0: 11e6 d53c 8cd7 c73d 6ee5 50be e27f 5dbd
000001e0: 9d9a d3bd cb48 e8bd 0c70 61bd 2dd1 ef3d
000001f0: b02e b83d db5b 323e f429 583e 4768 dc3d
00000200: b37e e43d 2787 6f3e f4c6 8abd eca5 a73d
00000210: 6986 593d 9134 e13c d7d6 bd3d 14bd 1e3e
00000220: 327f 0e3d 8d47 6b3d ec97 193e fd71 a03c
00000230: 0db9 303e 05b9 473e 21b2 c53d 3d60 6bbd
00000240: e838 babe 03eb d43a 5b31 343c c3f4 8ebe
00000250: 3167 86bd 6e11 56be 07d3 bebd 7918 f93d
00000260: 25b0 89be b7c6 14be e961 423d 7913 8abd
00000270: 6c17 12bd 6c81 11bd f6e4 e7bd 0826 11be
00000280: 6f5d 173c c91c 4f3d d12e 5dbe 0024 29bc
00000290: c739 073e a307 26be 985c b1bd 4249 d2bc
000002a0: dabb 61be 61cf 85be 1dce 46be 1e55 de3d
000002b0: e895 89bd 445e 913e 8e1a c93c 5350 6d3b
000002c0: a54e c63d 91a9 0fbe e087 1bbe 94c4 acbb
000002d0: 466d ac3d 8ee4 833d 63f7 043c c02b 4d3d
000002e0: f2ab 0abc c4e4 503e c4b1 97b9 322b 87bd
000002f0: 130d b43d fa8f 97bc 47ef ba3c 7fe6 d83d
00000300: 5a63 f73d 00f3 0dbd 53cf 9d3c 2453 473d
00000310: efc7 213d bc3a 6ebe c054 523d 23a2 983b
00000320: 7c6e 803d 4c31 13be 25c0 ddbd 8b0c 833d
00000330: 2e5b 67bc 2d7e 16bd c8d8 ae3d 7a6c 3ebe
00000340: d1d0 e53d 42af 1ebd f614 10be fb84 76bd
00000350: aaee 93bd 5249 05be 75d0 6dbd 371c 5cbe
00000360: 6a24 29be 6190 2bbe f162 f8bd 463f ff3d
00000370: 01fa 5dbd 8510 f6bd 87e0 89bd f9f4 883c
00000380: 6809 d4bb 8c07 b6bc b8fd 5d3d ffc0 423c
00000390: 59c7 28be d455 2d3d dbae d53d 117a 7c3c
000003a0: 1c30 adbc 528f d3bc b5c7 4d3e 1630 23bd
000003b0: ec9b 2f3e aaed edbd b4ba 46b9 d755 d63d
000003c0: 97f2 353e 3278 99bd 5ac8 143c b321 3bbe
000003d0: c4c3 01be 9924 7cb8 f73c 9dbb 2ff8 31bd
000003e0: e021 103d fa9d ecbd bc5b 9abd 5144 d6bc
000003f0: c8b4 5b3e e65c 693c 96d9 db3d c3be dc3d

conv_layers.6.1.weight f4 [32]
0.66353476 1.2573713 1.68602 1.507862 0.7716208 0.77239263 0.89888984 0.8797127
1.0268815 1.3225784 0.81095093 0.8176977 0.9437088 0.91649556 0.8847643 0.7310424
0.8788753 1.4671737 1.3153443 0.8901157 0.93645716 0.68330663 0.81268966 1.0978739
0.6520307 0.8215375 0.73429203 0.73211783 0.7791366 0.7601257 1.091181 0.8414448
00000000: 6add 293f 8bf1 a03f 81cf d73f 9f01 c13f
00000010: f188 453f 86bb 453f a51d 663f da34 613f
00000020: da70 833f 404a a93f 7b9a 4f3f a354 513f
00000030: e696 713f 749f 6a3f ea7f 623f 9825 3b3f
00000040: f9fd 603f 59cc bb3f 345d a83f 9fde 633f
00000050: a8bb 6f3f 2fed 2e3f 6e0c 503f 2287 8c3f
00000060: 7ceb 263f 4850 523f 90fa 3b3f 136c 3b3f
00000070: 7f75 473f 9997 423f d2ab 8b3f ed68 573f

conv_layers.6.1.bias f4 [32]
-0.8728249 -0.8356687 -0.2723878 -0.5915082 -0.36837342 -0.57283235 -0.19276662 -0.5553463
-0.25381586 -0.61078984 -0.46671674 -0.073461816 -0.27850044 -0.73428005 -0.06368947 0.107454486
-0.5550794 -0.18141133 -0.71498966 -0.47807285 -0.040393844 -0.5406052 -0.21158847 -0.45199084
-0.46315694 -0.38837066 -0.010006918 -0.282618 -0.3243761 -0.0034343123 -0.0741279 -0.49356046
00000000: 7471 5fbf 62ee 55bf 6a76 8bbe 156d 17bf
00000010: 719b bcbe 24a5 12bf 9d64 45be 2d2b 0ebf
00000020: 27f4 81be b95c 1cbf 7ff5 eebe 2673 96bd
00000030: 9c97 8ebe c7f9 3bbf a06f 82bd 1911 dc3d
00000040: af19 0ebf e4c3 39be 9009 37bf f7c5 f4be
00000050: 0474 25bd 1a65 0abf a6aa 58be 586b e7be
00000060: e822 edbe 85d8 c6be 0ef4 23bc 4eb3 90be
00000070: a014 a6be 3312 61bb 5ed0 97bd f5b3 fcbe

conv_layers.6.1.running_mean f4 [32]
-2.0171127 -2.25194 -2.5417519 -2.0088346 -1.8934543 -2.067215 -2.4517372 0.12275048
-0.922137 -1.5897505 -0.8542155 -0.10313807 -2.2389538 1.344082 -1.6793191 0.5118713
-1.240456 -0.86583614 0.022363346 -1.386325 1.1135663 -0.83820957 0.16703689 -2.129442
-0.80201066 -1.0922027 -0.8878723 -0.7952285 -1.9544723 -1.1190933 -2.004945 -0.6977847
00000000: 6018 01c0 c91f 10c0 10ac 22c0 bf90 00c0
00000010: b65c f2bf 404d 04c0 43e9 1cc0 9b64 fb3d
00000020: 2c11 6cbf f27c cbbf dead 5abf 0d3a d3bd
00000030: 054b 0fc0 e10a ac3f eef3 d6bf ff09 033f
00000040: 43c7 9ebf 70a7 5dbf 5633 b73c 1973 b1bf
00000050: 5789 8e3f e794 56bf b80b 2b3e c748 08c0
00000060: 9250 4dbf 4ccd 8bbf 994b 63bf 1894 4bbf
00000070: 262c fabf 733e 8fbf 0551 00c0 05a2 32bf

conv_layers.6.1.running_var f4 [32]
0.39781743 0.4551532 0.39991638 0.32865557 0.42968187 0.49483666 0.5895599 0.54316825
0.58751005 0.61110544 0.37063476 0.527061 0.49893448 0.5678771 0.603312 0.5790448
0.37297562 0.48846745 0.6501476 0.36925972 0.5887793 0.48067084 0.52543145 0.5522086
0.41403842 0.56967956 0.8192001 0.4500637 0.5213253 0.6707467 0.44762242 0.46693474
00000000: baae cb3e d709 e93e d7c1 cc3e 8b45 a83e
00000010: 43ff db3e 3b5b fd3e 66ed 163f 130d 0b3f
00000020: 0f67 163f 6871 1c3f d7c3 bd3e 78ed 063f
00000030: 5774 ff3e 6560 113f a872 1a3f 483c 143f
00000040: a9f6 be3e 6818 fa3e 1370 263f 9c0f bd3e
00000050: 3dba 163f 7d1a f63e ad82 063f 8b5d 0d3f
00000060: d8fc d33e 85d6 113f 19b7 513f c06e e63e
00000070: 9375 053f 0eb6 2b3f c42e e53e 1212 ef3e

conv_layers.7.conv1d.weight f4 [1, 1, 3]
-2.229121 -3.5265913 -0.38694564
00000000: eba9 0ec0 acb3 61c0 bd1d c6be

conv_layers.9.0.conv.weight f4 [16, 32, 3, 3]
-0.04443373 -0.1384956 -0.043768317 -0.06877077 -0.09297853 -0.029240161 -0.08578048 -0.18127684
-0.1971868 -0.08826253 -0.09318959 -0.1760379 -0.05028984 -0.08165181 -0.030303419 -0.10168526
-0.06156447 -0.13406429 -0.19564305 -0.025488263 -0.089606754 -0.038076248 -0.09482786 -0.14914767
-0.19717129 -0.07676625 -0.14038923 0.0064154305 -0.15077522 -0.042299654 -0.1522439 -0.24218805
-0.04829907 -0.02814814 -0.062459685 -0.029676896 0.015250552 -0.031693872 0.11385084 -0.037868172
0.040334977 0.14411117 0.17688859 0.10240206 0.0705506 -0.05458197 -0.13503024 -0.023394829
0.008949845 -0.030480495 -0.27075192 -0.13184579 -0.08122675 -0.049073197 0.14013495 -0.03850462
-0.13534415 -0.142612 0.23053107 0.128689 0.049979594 -0.12890348 0.040120117 0.14548993
0.23821421 0.07225245 0.10105936 -0.010270953 -0.0918204 0.05804095 0.11607669 0.08868295
-0.014592902 -0.06132677 -0.18575564 -0.17703845 -0.19478774 -0.10490641 -0.12810646 -0.15118977
-0.045611102 -0.2686686 -0.15379277 -0.16154839 -0.11275479 -0.2664777 -0.19505006 0.014667871
-0.11895634 -0.13892923 -0.06190272 0.051865425 0.12520339 0.07199217 0.2898977 0.2976237
0.03975541 0.024073761 -0.020014722 0.051268503 -0.025521997 -0.0060018823 0.03684807 0.10192032
0.16431507 -0.08185404 0.14797467 -0.110343754 0.0657865 -0.17354226 0.0040254532 0.07796003
0.17337081 -0.056764342 0.108973145 0.04909897 0.036708687 0.1568259 0.13741235 0.16945322
0.23938634 0.12651612 0.21736877 0.1548605 0.15684967 0.14750437 -0.047676627 0.17628428
0.18091765 -0.089738876 0.09165379 0.22051504 0.019731954 0.12443365 0.09843309 0.05633139
0.070899226 0.11129029 0.10521428 -0.14347781 -0.17848195 0.05913342 0.07328959 -0.04245558
-0.22845456 -0.03067648 -0.1316046 -0.10241729 -0.044771757 -0.08670076 -0.026273124 -0.009192617
-0.10833612 -0.048078224 0.108746596 -0.034510884 0.026261343 -0.07860281 -0.06881822 -0.0683103
-0.085999236 0.059972785 0.17994522 0.28436252 0.28504103 0.16162461 0.14208984 0.27209902
0.178691 0.2619658 0.24474773 -0.038981862 -0.04100931 0.15871495 -0.025790725 0.009450584
-0.24988975 -0.2797744 -0.12552845 -0.016089832 0.016260218 -0.110568054 0.0024067624 0.0642368
0.23790455 0.37962812 -0.07778019 -0.031246183 0.28607 0.1504884 0.15428302 0.0418761
0.06749078 0.12577473 0.07514242 0.0058444305 0.16470069 -0.038346577 -0.08962899 0.108423576
0.17203933 -0.2894673 0.10570375 0.074095614 0.059859086 -0.03680651 0.1943057 -0.036054984
-0.04221776 -0.077242404 -0.0016423288 0.06523253 0.12522237 0.06721531 -0.005776234 -0.01487285
0.13419077 -0.04740567 -0.124213405 0.037627272 -0.15213487 -0.03282668 -0.14487031 -0.17194903
0.010520578 -0.08057368 0.13069302 -0.04246612 0.043997224 0.24599558 0.07385866 -0.0010871165
0.20465006 0.3120237 -0.103717595 0.063698426 0.04818699 -0.061366916 -0.17739353 -0.17549585
-0.023623237 -0.0891208 -0.09334493 0.11512939 0.14847006 0.13859841 0.10463913 0.4134591
0.14585148 0.05257883 0.20208655 -0.0038192663 0.09920373 0.17023654 0.002359882 0.09993812
00000000: 2500 36bd cad1 0dbe 6846 33bd b1d7 8cbd
00000010: 876b bebd 1089 efbc adad afbd a3a0 39be
00000020: 56eb 49be fcc2 b4bd 2fda bebd 4743 34be
00000030: b8fc 4dbd 1039 a7bd e03e f8bc 5d40 d0bd
00000040: 072b 7cbd 2648 09be a756 48be c3cc d0bc
00000050: bf83 b7bd d7f5 1bbd 1c35 c2bd 2bba 18be
00000060: 45e7 49be a037 9dbd 32c2 0fbe 8838 d23b
00000070: d264 1abe 6742 2dbd d3e5 1bbe 2500 78be
00000080: 3fd5 45bd ee96 e6bc bad5 7fbd f61c f3bc
00000090: 74dd 793c 6fd1 01bd a12a e93d a81b 1bbd
000000a0: 4a36 253d e191 133e 4822 353e 2cb8 d13d
000000b0: d57c 903d 5891 5fbd 5e45 0abe 83a6 bfbc
000000c0: 5fa2 123c 3bb2 f9bc ff9f 8abe 9502 07be
000000d0: 365a a6bd fa00 49bd 897f 0f3e 05b7 1dbd
000000e0: a897 0abe e108 12be 5610 6c3e 0dc7 033e
000000f0: 67b7 4c3d 46ff 03be fe54 243d 50fb 143e
00000100: 6dee 733e 18f9 933d 36f8 ce3d 8047 28bc
00000110: 550c bcbd 59bc 6d3d 9eb9 ed3d 689f b53d
00000120: 1117 6fbc c731 7bbd ba36 3ebe 9149 35be
00000130: 7076 47be 2cd9 d6bd 572e 03be 7ed1 1abe
00000140: b5d2 3abd ee8e 89be da7b 1dbe f16c 25be
00000150: fceb e6bd c46f 88be 34bb 47be 8351 703c
00000160: 629f f3bd 7743 0ebe b58d 7dbd d770 543d
00000170: 5135 003e a170 933d 796d 943e 2262 983e
00000180: 92d6 223d 5636 c53c eaf5 a3bc ecfe 513d
00000190: 8213 d1bc 70ab c4bb 00ee 163d 9abb d03d
000001a0: 3642 283e 17a3 a7bd ac86 173e e8fb e1bd
000001b0: 13bb 863d 10b5 31be f3e7 833b 82a9 9f3d
000001c0: 1e88 313e ba81 68bd 502d df3d 001c 493d
000001d0: d95b 163d f896 203e d3b5 0c3e 2585 2d3e
000001e0: b121 753e 718d 013e eb95 5e3e c093 1e3e
000001f0: 339d 203e 630b 173e 9148 43bd de83 343e
00000200: 7a42 393e 04c9 b7bd fbb4 bb3d b2ce 613e
00000210: e8a4 a13c 12d7 fe3d 4a97 c93d bebb 663d
00000220: 9d33 913d 2aec e33d 967a d73d d9eb 12be
00000230: f9c3 36be e335 723d da18 963d e7e5 2dbd
00000240: feef 69be 3e4d fbbc 5bc3 06be 28c0 d1bd
00000250: 9762 37bd 2b90 b1bd bc3a d7bc a19c 16bc
00000260: 54df ddbd aced 44bd 89b6 de3d 495b 0dbd
00000270: 0722 d73c 83fa a0bd 91f0 8cbd 45e6 8bbd
00000280: 5e20 b0bd 06a6 753d 8f43 383e f797 913e
00000290: e6f0 913e ec80 253e 0080 113e 9050 8b3e
000002a0: c6fa 363e 6220 863e 269f 7a3e 72ab 1fbd
000002b0: 61f9 27bd 2c86 223e 1247 d3bc 9fd6 1a3c
000002c0: 19e3 7fbe 973e 8fbe 888a 00be d3ce 83bc
000002d0: 2634 853c 8171 e2bd c6ba 1d3b 958e 833d
000002e0: 409d 733e 9e5e c23e 384b 9fbd fff7 ffbc
000002f0: c477 923e a219 1a3e 5efc 1d3e 4686 2b3d
00000300: 9b38 8a3d 17cb 003e 45e4 993d a382 bf3b
00000310: 4ca7 283e 4d11 1dbd 678f b7bd 2e0d de3d
00000320: 142b 303e 0f35 94be 357b d83d 71bf 973d
00000330: cd2e 753d 6cc2 16bd 13f8 463e 64ae 13bd
00000340: 88ec 2cbd 4431 9ebd 6943 d7ba a298 853d
00000350: 4b3a 003e 2ea8 893d 9046 bdbb 41ad 73bc
00000360: 4e69 093e 732c 42bd 9963 febd 0e1f 1a3d
00000370: 3ec9 1bbe 4575 06bd e258 14be 6813 30be
00000380: 815e 2c3c d003 a5bd 64d4 053e f4f0 2dbd
00000390: 6f36 343d 44e6 7b3e 3643 973d 947d 8eba
000003a0: c98f 513e 92c1 9f3e e469 d4bd 5274 823d
000003b0: b95f 453d e05b 7bbd a6a6 35be 2fb5 33be
000003c0: 8585 c1bc f784 b6bd a02b bfbd f5c8 eb3d
000003d0: 8908 183e beec 0d3e 0a4d d63d e9b0 d33e
000003e0: 175a 153e e65c 573d c7ef 4e3e a84c 7abb
000003f0: 532b cb3d 7d52 2e3e 40a8 1a3b 5bac cc3d

conv_layers.9.1.weight f4 [16]
1.7501497 2.2644565 1.6422117 1.062363 3.1705906 1.579687 1.5626668 1.5434474
1.127182 1.8743579 1.2304761 1.3629618 1.5056887 1.3294829 1.7539333 1.4057924
00000000: e804 e03f dbec 1040 fe33 d23f 83fb 873f
00000010: f5ea 4a40 2f33 ca3f 7705 c83f af8f c53f
00000020: 8047 903f f6ea ef3f 3e80 9d3f 8875 ae3f
00000030: 68ba c03f 7f2c aa3f e380 e03f 01f1 b33f

conv_layers.9.1.bias f4 [16]
-0.39675945 -0.8514181 -0.35365522 -0.30351847 -1.3372353 -0.061918043 -0.8733696 -0.53617626
-0.3373813 -0.39643276 -0.4493289 -0.6967264 -0.279679 -0.5189669 -0.51874256 -0.34915
00000000: 0e24 cbbe 89f6 59bf 4c12 b5be c666 9bbe
00000010: 872a abbf c69d 7dbd 2695 5fbf d942 09bf
00000020: 3ebd acbe 3cf9 cabe 700e e6be a95c 32bf
00000030: 1632 8fbe 04db 04bf 50cc 04bf cac3 b2be

conv_layers.9.1.running_mean f4 [16]
0.058267314 -0.03476191 -0.047143128 -0.061296627 -0.05611634 -0.1369665 -0.031751063 0.0407168
-0.07744781 -0.02889404 0.08511023 -0.032819927 -0.060718704 -0.0043447926 0.023333464 0.024557743
00000000: b5a9 6e3d 8162 0ebd 2719 41bd 2c12 7bbd
00000010: 3fda 65bd f240 0cbe 670d 02bd a9c6 263d
00000020: f59c 9ebd 32b3 ecbc 464e ae3d 306e 06bd
00000030: 2db4 78bd c35e 8ebb d225 bf3c 522d c93c

conv_layers.9.1.running_var f4 [16]
0.005451283 0.004659419 0.0038690695 0.003177949 0.0057752714 0.0054132165 0.003448416 0.0059149126
0.0035864762 0.0042664395 0.004313258 0.003716163 0.004472123 0.003539282 0.0038946224 0.0034815075
00000000: ada0 b23b 0aae 983b 3790 7d3b 2345 503b
00000010: 7d3e bd3b 5a61 b13b d2fe 613b e2d1 c13b
00000020: 160b 6b3b 7dcd 8b3b 3b56 8d3b df8a 733b
00000030: e38a 923b 4cf3 673b ec3c 7f3b 012a 643b

conv_layers.10.conv1d.weight f4 [1, 1, 3]
-1.2373929 -1.6496954 -0.12966739
00000000: e462 9ebf 3829 d3bf 87c7 04be

linear_layers.0.weight f4 [64, 576]
0.0075119506 0.028175239 0.017315794 -0.017995821 -0.0073336675 -0.035456657 -0.038260102 -0.060789745
-0.0059367423 0.0044400627 0.019209765 0.004949924 0.0020126223 -0.030888423 -0.027280996 0.05228538
0.029750599 0.018898085 -0.005325498 -0.042523537 0.030049242 0.040481728 -0.0022476541 -0.014310146
-0.013022815 -0.0069610253 -0.01022599 0.018168198 0.005818621 0.0143453 0.0072852178 -0.00211984
-0.020330569 0.0020126423 0.004275535 0.012607143 0.00011023071 0.062815666 0.018435955 0.015534382
-0.024533583 0.050029613 0.015269418 0.027116438 0.029960353 0.016055947 0.0039130095 -0.045289047
-0.019112717 0.049380127 0.012787646 -0.020050691 -0.050376266 -0.02621415 -0.022261344 0.015807819
0.030945912 -0.011552789 0.0011889457 -0.017585052 -0.093373895 0.0091541875 -0.011925299 0.013455491
-0.024616117 -0.10788054 -0.014284198 -0.010582801 -0.01384808 -0.020317622 -0.020219266 0.022122156
-0.010580482 0.0035588723 -0.027045198 -0.025189815 -0.0026932864 -0.030959012 -0.02843514 0.014926086
0.037590716 0.0010629524 0.030465983 -0.011195384 0.010084968 -0.008420318 -0.049044944 -0.03662568
0.0011497099 0.049439266 0.012382768 -0.060645714 0.0136946365 0.031573247 -0.0076055485 0.0037476772
0.0029769975 0.011488594 -0.01235128 0.011280769 0.029295204 0.0003050703 -0.021662833 0.0005198782
-0.044161532 0.040900733 0.0062607764 0.026606442 0.011495193 0.045416668 0.038786102 0.05033985
0.00083959714 0.041657988 0.00340426 0.06931992 0.008349899 0.09029008 0.027127676 0.04916667
0.01772532 -0.006551036 0.0145938555 -0.033902016 0.05115126 -0.020312877 0.015839394 0.043873325
0.024439244 0.00022733212 -0.0016050156 -0.027436463 0.047748182 -0.0313634 0.0016699936 -0.033668745
-0.037838392 0.007098724 0.055816088 -0.0219543 -0.014234605 0.037964307 0.061537366 0.054237448
0.10421255 0.1962385 0.15357387 0.11975437 0.10392899 0.09272447 0.025133044 0.10918818
0.058481574 0.07466318 0.031058028 -0.045375217 -0.016464556 0.007729712 0.029129045 -0.010781655
-0.042380556 -0.13625906 -0.08791931 -0.03483961 -0.08626697 -0.12919854 -0.046597015 -0.20986657
-0.19001664 -0.14453952 -0.16035527 -0.14213695 -0.114548065 -0.27645093 -0.22067674 -0.16993943
-0.16866966 -0.20557044 -0.13291422 -0.23883554 0.09212267 0.08313736 0.05271006 -0.016983889
0.01488515 -0.010086524 -0.018283544 0.010695861 -0.020830387 -0.011609138 -0.034738105 -0.02867366
-0.0021074687 -0.047892235 -0.010245078 -0.019298509 0.02064586 0.031164909 0.063472755 0.03430472
0.024448765 0.03104937 0.06137888 0.076193556 0.00026372756 0.05503476 0.02133024 0.011659808
0.009425451 0.008184188 0.015944552 0.045436688 0.022497412 0.03570774 -0.005226019 0.015488276
0.028353205 0.003034944 0.02516821 0.055090804 0.096792154 0.042109396 0.008564089 0.05196995
0.04742592 0.010506482 0.005963674 0.011326018 -0.0016145913 0.015271055 0.013432368 0.005508468
-0.054761313 0.011345394 -0.00966185 0.005295421 0.017325617 0.0028009003 -0.028011788 0.025048649
-0.045194685 -0.055380423 -0.0021759176 -0.030130642 0.035706535 0.0113563575 0.008977601 -0.026431717
-0.019475764 -0.01972949 -0.019496754 -0.028220698 0.10832692 0.10086409 0.041389767 0.05848984
00000000: cf26 f63b c2cf e63c dad9 8d3c f96b 93bc
00000010: 434f f0bb 003b 11bd a0b6 1cbd abfe 78bd
00000020: 0189 c2bb f27d 913b cc5d 9d3c f932 a23b
00000030: 33e6 033b b809 fdbc 657c dfbc 3229 563d
00000040: 87b7 f33c 28d0 9a3c 8481 aebb 292d 2ebd
00000050: d429 f63c 2bd0 253d 614d 13bb 1a75 6abc
00000060: a55d 55bc 5019 e4bb e98a 27bc 79d5 943c
00000070: 21aa be3b 8d08 6b3c d6b8 ee3b 03ed 0abb
00000080: 4b8c a6bc 89e6 033b c919 8c3b 318e 4e3c
00000090: a92b e738 80a5 803d 0007 973c ec83 7e3c
000000a0: a7fa c8bc daeb 4c3d 952c 7a3c 4b23 de3c
000000b0: 6a6f f53c c387 833c b438 803b 0281 39bd
000000c0: 4692 9cbc d142 4a3d 4683 513c 5941 a4bc
000000d0: 5857 4ebd 0fbf d6bc 6c5d b6bc 667f 813c
000000e0: 4882 fd3c e947 3dbc 66d6 9b3a 870e 90bc
000000f0: d03a bfbd 72fb 153c 5462 43bc 6b74 5c3c
00000100: bda7 c9bc 79f0 dcbd 4508 6abc 7c63 2dbc
00000110: 0fe3 62bc 2471 a6bc e0a2 a5bc 8639 b53c
00000120: c259 2dbc f83b 693b e48d ddbc df5a cebc
00000130: d981 30bb c19d fdbc d0f0 e8bc 8b8c 743c
00000140: b9f8 193d c452 8b3a cc93 f93c d86c 37bc
00000150: 6c3b 253c 60f5 09bc 5ae3 48bd cf04 16bd
00000160: ddb1 963a d480 4a3d 18e1 4a3c a467 78bd
00000170: 785f 603c f352 013d f737 f9bb 979b 753b
00000180: bb19 433b a83a 3c3c 065d 4abc f9d2 383c
00000190: 7ffc ef3c d8f1 9f39 4176 b1bc 6f48 083a
000001a0: b9e2 34bd 8787 273d 3327 cd3b c1f5 d93c
000001b0: 5556 3c3c d406 3a3d 2dde 1e3d 2931 4e3d
000001c0: 6918 5c3a 91a1 2a3d 011a 5f3b 9af7 8d3d
000001d0: 04ce 083c 01ea b83d dc3a de3c fd62 493d
000001e0: b134 913c 13aa d6bb 111b 6f3c d7dc 0abd
000001f0: fc83 513d 3167 a6bc 9ec1 813c 84b4 333d
00000200: cf34 c83c 0060 6e39 635f d2ba 6fc2 e0bc
00000210: 9993 433d e976 00bd b0e3 da3a 3de8 09bd
00000220: 6efc 1abd 6a9c e83b 699f 643d 81d9 b3bc
00000230: 4338 69bc 7680 1b3d 9b0e 7c3d 1628 5e3d
00000240: 646d d53d bff2 483e 7842 1d3e c741 f53d
00000250: b9d8 d43d 54e6 bd3d d0e3 cd3c 0d9e df3d
00000260: 608a 6f3d 02e9 983d 686d fe3c 5ddb 39bd
00000270: ade0 86bc 8649 fd3b 09a0 ee3c 8aa5 30bc
00000280: 3c97 2dbd 7f87 0bbe 0a0f b4bd fbb3 0ebd
00000290: bdac b0bd 9f4c 04be 83dc 3ebd 43e7 56be
000002a0: b993 42be 2b02 14be 2c34 24be 598c 11be
000002b0: 2d98 eabd fa8a 8dbe 15f9 61be 9a04 2ebe
000002c0: bdb7 2cbe 0f81 52be aa1a 08be 4e91 74be
000002d0: cfaa bc3d ec43 aa3d 81e6 573d cc21 8bbc
000002e0: d8e0 733c f341 25bc 5fc7 95bc b13d 2f3c
000002f0: 7da4 aabc 4134 3ebc 8b49 0ebd 06e5 eabc
00000300: 751d 0abb a62a 44bd f9da 27bc e817 9ebc
00000310: 8221 a93c 8d4d ff3c 01fe 813d 1b83 0c3d
00000320: c748 c83c 405b fe3c 6c68 7b3d 5e0b 9c3d
00000330: ea44 8a39 216c 613d c1bc ae3c c808 3f3c
00000340: 356d 1a3c f916 063c 269e 823c d21b 3a3d
00000350: 7e4c b83c 4742 123d 063f abbb 8ac2 7d3c
00000360: fb44 e83c e9e5 463b 902d ce3c e5a6 613d
00000370: f73a c63d e77a 2c3d 6550 0c3c 71de 543d
00000380: ae41 423d 6123 2c3c ec6a c33b c390 393c
00000390: b2a0 d3ba 7233 7a3c 6f13 5c3c 6180 b43b
000003a0: 664d 60bd 08e2 393c bc4c 1ebc 3685 ad3b
000003b0: 74ee 8d3c 4f8f 373b fa78 e5bc d332 cd3c
000003c0: 101e 39bd 95d6 62bd d799 0ebb 89d4 f6bc
000003d0: 0441 123d 0410 3a3c ca16 133c 5487 d8bc
000003e0: a38b 9fbc bd9f a1bc a8b7 9fbc 182f e7bc
000003f0: 81da dd3d d591 ce3d 5188 293d 0b93 6f3d
