models/model_1726664786034/model_1726664786034\model.pth (torch, 226941 bytes, 14 tensors)

conv_layers.0.0.conv.weight f4 [16, 10, 3, 3]
000000 97 cd f5 c1 4d 42 f5 c1 b3 0a ec c1 d6 42 f5 c1
       -30.725386 -30.657373 -29.505224 -30.657635
000010 fa bd f4 c1 ed 50 f5 c1 a2 93 f5 c1 6a de f4 c1
       -30.592762 -30.664515 -30.697086 -30.6086
000020 3b b3 f5 c1 ae 70 29 41 38 0a 29 41 d7 33 40 c1
       -30.712515 10.59001 10.564995 -12.012656
000030 2a 62 2d 41 5f d9 2c 41 93 09 2c 41 2b 6c 2d 41
       10.836466 10.803069 10.752337 10.838908
000040 ca a6 2c 41 e0 74 2d 41 ae 01 44 41 da f2 43 41
       10.79072 10.841034 12.25041 12.24679
000050 a6 18 54 41 3d 71 43 41 9f ef 43 41 bd 0a 44 41
       13.256018 12.215146 12.246001 12.252622
000060 7c 3b 44 41 51 de 43 41 16 df 43 41 75 e4 56 41
       12.264523 12.241776 12.241964 13.430776
000070 ea 56 58 41 7f b8 58 41 1d f3 56 41 7b 72 56 41
       13.521219 13.545043 13.434354 13.402949
000080 d2 7d 58 41 7a e3 56 41 5e d8 56 41 01 0c 57 41
       13.530718 13.430536 13.427824 13.440431
000090 89 a4 4b 41 fb c9 50 41 d2 d5 56 41 73 b5 4b 41
       12.72767 13.049312 13.427202 12.731799
0000a0 c6 94 50 41 28 d9 4b 41 18 80 4b 41 92 e5 4a 41
       13.036322 12.740517 12.718773 12.681047
0000b0 d3 b0 4b 41 a9 eb e1 c1 a9 8f df c1 2d 0a e3 c1
       12.73067 -28.240068 -27.945147 -28.379969
0000c0 bd c3 df c1 22 15 de c1 d1 b7 de c1 85 2d e2 c1
       -27.970575 -27.760319 -27.839754 -28.272226
0000d0 cb d9 df c1 80 5b e0 c1 86 b8 3d c1 2c 56 3d c1
       -27.981344 -28.044678 -11.85755 -11.833538
0000e0 5c f3 3d c1 1f e6 3d c1 29 ac 3c c1 5a cb 3d c1
       -11.871914 -11.868682 -11.792031 -11.862146
0000f0 6e bd 3d c1 a1 86 3d c1 01 e6 3d c1 9e 76 49 c1
       -11.8587475 -11.845368 -11.868653 -12.591459
000100 58 3c 49 c1 70 55 3e c1 ee 3a 49 c1 2f 17 3e c1
       -12.577232 -11.895859 -12.576887 -11.88066
000110 c1 14 49 c1 f0 c2 3d c1 02 7f 3e c1 e6 48 48 c1
       -12.567567 -11.860092 -11.906008 -12.517797
000120 96 46 37 41 a4 95 37 41 de a4 39 41 1a b0 37 41
       11.454733 11.474033 11.602751 11.480494
000130 a2 47 37 41 32 46 37 41 95 d6 3a 41 5c 32 37 41
       11.4549885 11.454638 11.677388 11.449795
000140 80 64 37 41 7a 43 31 c1 ad 22 34 c1 1e e7 2e 41
       11.462036 -11.078974 -11.258466 10.931425
000150 ca f1 35 c1 17 ca 2f 41 df b4 2f c1 57 66 2b 41
       -11.371531 10.986838 -10.981658 10.712485
000160 a6 53 2b 41 a3 ba 34 c1 50 8e eb c1 67 d8 f4 c1
       10.707922 -11.295566 -29.444489 -30.605665
000170 3a 71 f5 c1 7b b0 f4 c1 44 3a f4 c1 7d e5 f4 c1
       -30.680286 -30.586172 -30.52845 -30.612055
000180 19 f3 f4 c1 48 43 f4 c1 fc ff f4 c1 b2 de 40 c1
       -30.6187 -30.532852 -30.624992 -12.054369
000190 6e 2f 2a 41 e6 37 2a 41 1b a1 2c 41 a3 b8 2c 41
       10.6365795 10.638647 10.789332 10.795077
0001a0 10 e7 2c 41 7c 64 2d 41 d4 15 2d 41 7c f5 2c 41
       10.806412 10.837032 10.817829 10.809933
0001b0 20 bd 53 41 ed cf 40 41 70 e9 40 41 ef c4 40 41
       13.233673 12.050763 12.056992 12.0480795
0001c0 74 c5 40 41 b4 f0 40 41 45 a0 40 41 1e 17 41 41
       12.048206 12.058765 12.039128 12.068144
0001d0 37 36 40 41 7b 49 57 41 8a 81 57 41 14 83 57 41
       12.013236 13.45544 13.469126 13.4695015
0001e0 db 8b 57 41 e1 b7 57 41 2e 82 57 41 64 95 57 41
       13.471644 13.482392 13.469282 13.473972
0001f0 b2 d6 57 41 01 3a 57 41 cb ed 55 41 60 b5 47 41
       13.489916 13.451661 13.370555 12.481781
000200 8a 3c 48 41 0d b3 47 41 e0 18 48 41 18 f8 47 41
       12.51478 12.481214 12.506073 12.49807
000210 4c 2d 48 41 16 b1 4a 41 14 e5 4a 41 d4 52 e1 c1
       12.511059 12.668234 12.680927 -28.165443
000220 34 9e e0 c1 70 94 e1 c1 a5 07 df c1 d7 8a dd c1
       -28.077248 -28.19748 -27.878733 -27.692793
000230 73 4d e0 c1 cd 66 e0 c1 7b a2 df c1 0c e5 e1 c1
       -28.037817 -28.050196 -27.954336 -28.23684
000240 91 b9 3c c1 c7 c7 3c c1 d4 06 3d c1 09 f2 3c c1
       -11.795304 -11.798774 -11.814167 -11.809091
000250 f8 0f 3d c1 17 bb 3c c1 f2 d9 3c c1 2a 5a 3c c1
       -11.816399 -11.795676 -11.803209 -11.772013
000260 6a 0a 3d c1 de 73 48 c1 ab 3d 3d c1 c8 5d 48 c1
       -11.8150425 -12.528288 -11.827556 -12.522896
000270 b0 4f 48 c1 5f 14 3d c1 9e 89 3c c1 da 3c 48 c1
       -12.519455 -11.817473 -11.783598 -12.514856
000280 41 93 3c c1 81 5d 3d c1 55 46 38 41 e2 4b 38 41
       -11.785951 -11.835328 11.517171 11.518526
000290 69 65 37 41 c0 75 38 41 47 64 38 41 3b 17 38 41
       11.462258 11.528748 11.524482 11.5056715
0002a0 0c 88 38 41 72 00 38 41 26 2e 38 41 a7 0a 36 c1
       11.533215 11.500109 11.511267 -11.377601
0002b0 ad 4a 30 41 70 20 36 c1 57 9b 35 c1 68 2d 32 41
       11.018231 -11.382919 -11.350425 11.1360855
0002c0 fb 00 30 41 b2 08 35 c1 6b 23 32 41 a8 4f 30 41
       11.000239 -11.314623 11.133647 11.019447
0002d0 ab 81 f5 c1 73 ac f4 c1 7d 43 f5 c1 7b a1 f4 c1
       -30.688314 -30.584204 -30.657953 -30.578848
0002e0 f3 44 f4 c1 f5 fa f4 c1 58 5a f5 c1 15 77 f4 c1
       -30.533667 -30.622538 -30.669113 -30.558146
0002f0 6a 41 f5 c1 08 90 28 41 49 14 26 41 92 cd 26 41
       -30.65694 10.535164 10.379952 10.425188
000300 ca 6d 29 41 d2 5f 2a 41 51 7f 2a 41 9f b0 2a 41
       10.589304 10.648394 10.656083 10.66812
000310 26 9b 2a 41 93 15 2a 41 cd aa 42 41 ea c0 42 41
       10.662878 10.630267 12.166699 12.172098
000320 24 1c 42 41 9d c4 42 41 77 6a 42 41 b9 ca 42 41
       12.13187 12.173001 12.150992 12.174493
000330 a7 62 42 41 c4 c2 42 41 11 b9 42 41 33 15 59 41
       12.149085 12.17255 12.170182 13.567676
000340 8a 13 59 41 ec c0 58 41 61 77 58 41 ce b9 58 41
       13.56727 13.5471 13.529145 13.545362
000350 40 dc 58 41 db 45 58 41 58 54 59 41 68 08 59 41
       13.553772 13.517055 13.583092 13.564552
000360 29 a9 48 41 f5 83 48 41 a3 36 48 41 fb f5 47 41
       12.541299 12.532216 12.513339 12.497554
000370 fe 9a 48 41 91 c2 48 41 c5 63 48 41 27 65 48 41
       12.53784 12.547502 12.524358 12.524695
000380 b5 76 48 41 2a e5 e2 c1 f2 ac e1 c1 fa b5 e2 c1
       12.528981 -28.361897 -28.209446 -28.338856
000390 49 09 e1 c1 9d 34 df c1 bd d9 e1 c1 a8 f0 e2 c1
       -28.129534 -27.90069 -28.231318 -28.367508
0003a0 9a 5c e1 c1 69 18 e3 c1 3b 83 3d c1 e2 fe 40 c1
       -28.170216 -28.386919 -11.844539 -12.062227
0003b0 a8 4c 3d c1 cc 28 3d c1 8c 8f 3d c1 a3 37 3d c1
       -11.831215 -11.82246 -11.847546 -11.826083
0003c0 f4 df 3c c1 60 c0 40 c1 65 20 41 c1 6c 90 49 c1
       -11.804676 -12.046967 -12.070409 -12.597759
0003d0 88 bf 3e c1 e8 73 49 c1 71 68 49 c1 ab d8 3d c1
       -11.921761 -12.590797 -12.587998 -11.865397
0003e0 f8 f5 3d c1 8b fc 3c c1 c1 be 3d c1 65 d1 3d c1
       -11.872551 -11.811656 -11.859071 -11.863622
0003f0 59 b1 38 41 d7 4a 38 41 32 ec 37 41 b4 9a 38 41
       11.543298 11.518271 11.495165 11.537769

conv_layers.0.0.conv.bias f4 [16]
000000 19 5f fa 40 31 b5 fc 40 c1 f6 fa 40 78 c5 f1 40
       7.8241086 7.897118 7.8426213 7.555355
000010 4c b1 fc 40 4d 86 f9 40 fd 33 fe 40 ac ae f7 40
       7.8966427 7.797644 7.943846 7.7400723
000020 4f 9d 8d c0 a3 c3 ef 40 30 83 fe 40 e2 e4 8e c0
       -4.4254527 7.4926314 7.953514 -4.46544
000030 e4 68 8a c0 a4 d0 fc 40 0f 43 e6 40 0e 6e c8 40
       -4.325304 7.900469 7.195686 6.2634344

conv_layers.2.0.conv.weight f4 [32, 16, 3, 3]
000000 69 35 68 c1 f8 5d 68 c1 98 96 68 c1 48 8b 68 c1
       -14.51304 -14.522942 -14.536766 -14.534004
000010 cc d8 68 c1 b1 d5 68 c1 7e f2 68 c1 3e 00 69 c1
       -14.552929 -14.552171 -14.559202 -14.562559
000020 b8 ec 68 c1 7a 39 68 c1 36 75 68 c1 bc 8d 68 c1
       -14.557793 -14.514032 -14.528616 -14.534603
000030 ee 86 68 c1 09 7a 68 c1 c6 af 68 c1 a1 9e 68 c1
       -14.532942 -14.529794 -14.542913 -14.538728
000040 06 87 68 c1 18 80 68 c1 9b 04 75 c1 c3 b7 73 c1
       -14.532965 -14.531273 -15.313624 -15.232364
000050 7b 90 73 c1 8e a2 73 c1 70 b5 74 c1 1e 89 74 c1
       -15.222774 -15.227186 -15.294296 -15.283476
000060 05 96 74 c1 09 43 74 c1 22 e4 73 c1 83 29 77 c1
       -15.286626 -15.266366 -15.2431965 -15.447635
000070 5a 37 77 c1 3d 0d 77 c1 71 6b 76 c1 65 df 75 c1
       -15.451014 -15.440732 -15.401231 -15.36704
000080 ca fb 75 c1 a8 22 76 c1 7c 47 76 c1 29 f7 75 c1
       -15.373972 -15.383461 -15.392452 -15.372842
000090 dc 3b 68 c1 b0 4d 68 c1 e4 4a 68 c1 5f a8 68 c1
       -14.514614 -14.518967 -14.518284 -14.541106
0000a0 b5 da 68 c1 a7 8d 68 c1 72 83 68 c1 ee 96 68 c1
       -14.553395 -14.534583 -14.532091 -14.536848
0000b0 3d 63 68 c1 51 ed 73 c1 96 f1 73 c1 0e 3d 74 c1
       -14.524228 -15.245439 -15.246481 -15.264906
0000c0 a5 62 72 c1 f4 8f 72 c1 c3 9e 72 c1 b6 e7 73 c1
       -15.149083 -15.160145 -15.16376 -15.24407
0000d0 54 e1 73 c1 ad e6 73 c1 31 76 6e c1 df e6 6d c1
       -15.242512 -15.243817 -14.903855 -14.868865
0000e0 48 39 6f c1 b1 04 6e c1 e6 e8 6d c1 01 be 6e c1
       -14.951485 -14.876145 -14.86936 -14.921388
0000f0 db f1 6e c1 4d c7 6d c1 34 1c 6e c1 c6 d9 77 c1
       -14.934047 -14.861157 -14.881886 -15.490667
000100 18 56 78 c1 df 94 76 c1 e3 4e 70 c1 4f 73 71 c1
       -15.521019 -15.4113455 -15.019259 -15.0906515
000110 a1 56 70 c1 8c 19 71 c1 3d 9e 70 c1 8d 41 71 c1
       -15.02115 -15.068737 -15.038632 -15.078504
000120 e9 1d 46 c1 69 f0 45 c1 7f 47 46 c1 98 05 45 c1
       -12.382302 -12.371194 -12.392455 -12.313866
000130 29 d6 44 c1 41 e2 44 c1 8e 71 45 c1 16 0e 46 c1
       -12.302285 -12.305238 -12.340223 -12.378439
000140 e8 6d 45 c1 a8 98 6e c1 4d fd 6e c1 f0 00 6f c1
       -12.339333 -14.91227 -14.936841 -14.937729
000150 06 6b 6e c1 d6 29 6e c1 cf da 6e c1 32 db 6d c1
       -14.901129 -14.885214 -14.92842 -14.8660145
000160 07 60 6e c1 15 c5 6e c1 07 9d 77 c1 cb 78 76 c1
       -14.898444 -14.923116 -15.475837 -15.40449
000170 4a d8 77 c1 df 9d 67 c1 ab 05 68 c1 40 c3 67 c1
       -15.490305 -14.476043 -14.501384 -14.485168
000180 79 97 68 c1 65 46 69 c1 88 bd 68 c1 70 cc 45 c1
       -14.536981 -14.579686 -14.546272 -12.3624115
000190 b2 a0 46 c1 91 0e 47 c1 25 a8 47 c1 3c ec 47 c1
       -12.414232 -12.441056 -12.478551 -12.495174
0001a0 94 43 46 c1 d1 0f 47 c1 d3 f4 46 c1 f1 25 46 c1
       -12.391499 -12.441361 -12.434772 -12.384263
0001b0 cf 8e 4b c1 2a 61 4b c1 e4 4d 4c c1 28 42 4d c1
       -12.722365 -12.711222 -12.769016 -12.828651
0001c0 e9 9f 4d c1 26 6d 4d c1 82 7a 4d c1 c4 08 4d c1
       -12.851541 -12.839148 -12.842409 -12.81464
0001d0 2e cd 4b c1 69 a6 76 c1 9c 64 75 c1 45 b2 75 c1
       -12.737593 -15.4156275 -15.337063 -15.356023
0001e0 50 26 76 c1 80 c6 75 c1 0d af 75 c1 de 2e 75 c1
       -15.384354 -15.360962 -15.355237 -15.323942
0001f0 15 ea 75 c1 a0 30 76 c1 f9 8b 59 c1 5a 12 59 c1
       -15.369649 -15.386871 -13.596673 -13.56698
000200 f1 4d 5a c1 7d f3 56 c1 9a 34 59 c1 82 a0 57 c1
       -13.644029 -13.434445 -13.575342 -13.4766865
000210 f4 32 58 c1 6e 10 57 c1 9c e4 57 c1 29 82 63 c1
       -13.51244 -13.441511 -13.493313 -14.219277
000220 87 0d 63 c1 cd 65 63 c1 e0 67 62 c1 a7 02 62 c1
       -14.190803 -14.212354 -14.15036 -14.125648
000230 7a 64 63 c1 98 36 63 c1 26 3a 63 c1 62 d4 61 c1
       -14.21203 -14.200829 -14.201696 -14.114351
000240 ce 9e bb 41 5a b3 bb 41 e0 a6 bb 41 de a1 bb 41
       23.452541 23.462574 23.456482 23.454037
000250 77 c5 bb 41 0b cf bb 41 a1 8c bb 41 97 bc bb 41
       23.471418 23.476095 23.443666 23.467085
000260 6d 9c bb 41 61 71 bb 41 56 87 bb 41 29 7f bb 41
       23.45138 23.43036 23.441082 23.43709
000270 f7 8c bb 41 5b 84 bb 41 8f 95 bb 41 ec 8d bb 41
       23.44383 23.439627 23.448027 23.444298
000280 df 96 bb 41 b1 97 bb 41 fa 45 bb 41 71 7c bb 41
       23.448668 23.449068 23.409168 23.435762
000290 ee a7 bb 41 3e 53 bb 41 14 83 bb 41 c9 51 bb 41
       23.456997 23.415646 23.439003 23.414934
0002a0 6b 52 bb 41 62 61 bb 41 fa be bb 41 ae aa c6 41
       23.415243 23.42255 23.46825 24.83334
0002b0 08 8d c6 41 4f b9 c6 41 83 b7 c6 41 d2 d9 c6 41
       24.818863 24.840483 24.839605 24.856358
0002c0 02 c6 c6 41 40 b4 c6 41 b1 a6 c6 41 16 eb c6 41
       24.846684 24.838013 24.831392 24.864788
0002d0 c3 6f c4 41 2c 84 c4 41 a6 77 c4 41 89 76 c4 41
       24.554571 24.564537 24.558422 24.557878
0002e0 2b 7c c4 41 5d 80 c4 41 1f 79 c4 41 1c 7d c4 41
       24.560629 24.562677 24.559141 24.561089
0002f0 19 83 c4 41 88 a0 c4 41 57 a8 c4 41 7a 9f c4 41
       24.564013 24.578384 24.582197 24.57787
000300 61 a2 c4 41 b1 a9 c4 41 07 aa c4 41 00 a6 c4 41
       24.579287 24.582857 24.583021 24.581055
000310 f5 ab c4 41 a4 ac c4 41 71 a1 c3 41 2c b4 c3 41
       24.583963 24.584297 24.453829 24.462975
000320 3a ae c3 41 2a b4 c3 41 98 04 c4 41 cd 0c c4 41
       24.460072 24.46297 24.502243 24.50625
000330 f2 0c c4 41 99 4d c4 41 29 a5 c3 41 8d ee c3 41
       24.50632 24.53789 24.455645 24.49148
000340 30 0a c4 41 83 52 c4 41 e6 18 c4 41 25 7c c4 41
       24.504974 24.540289 24.512157 24.560617
000350 7a aa c4 41 a8 8c c4 41 e7 1a c4 41 af 5d c4 41
       24.58324 24.56868 24.513136 24.545744
000360 b8 76 9f 41 15 81 9f 41 80 5b 9f 41 7f 71 9f 41
       19.932968 19.938028 19.919678 19.930418
000370 87 5d 9f 41 e4 70 9f 41 b8 61 9f 41 45 50 9f 41
       19.920668 19.930122 19.922714 19.914194
000380 1c 70 9f 41 ea 4a c4 41 be 65 c4 41 50 53 c4 41
       19.92974 24.53658 24.549679 24.54068
000390 7f 71 c4 41 1c 7d c4 41 9a 6f c4 41 5c 68 c4 41
       24.555418 24.561089 24.554493 24.550957
0003a0 bd 56 c4 41 c8 76 c4 41 dc 24 c4 41 51 90 c4 41
       24.542353 24.557999 24.517998 24.570467
0003b0 5b 28 c4 41 a4 15 c4 41 1f 48 c4 41 3b ed c3 41
       24.519705 24.510567 24.535215 24.490835
0003c0 17 f7 c3 41 87 8a c4 41 f6 2a c4 41 57 94 9d 41
       24.49565 24.56764 24.520977 19.697432
0003d0 1b 4b 9d 41 35 05 9e 41 30 7f 9d 41 ca 6e 9d 41
       19.661673 19.752542 19.687103 19.679096
0003e0 9d d6 9d 41 52 27 9e 41 4c 69 9d 41 e6 79 9d 41
       19.729792 19.7692 19.676414 19.68452
0003f0 7f 51 a4 41 4e 6f a4 41 8b 4c a4 41 ad aa a3 41
       20.539793 20.554348 20.537374 20.458338

conv_layers.2.0.conv.bias f4 [32]
000000 02 9c 0b c2 3f d4 0c 42 67 bf 0b c2 7b 98 0b c2
       -34.90235 35.20727 -34.936916 -34.898907
000010 91 cd 0c 42 4d 5a 0b c2 f9 24 0c c2 03 bd 0b c2
       35.20075 -34.838184 -35.036106 -34.93458
000020 5b ea 0c 42 bb a9 0c 42 42 b4 0c 42 f1 d1 0c 42
       35.228863 35.165752 35.176033 35.20502
000030 97 e3 0c 42 d9 b6 0c 42 5a 80 0b c2 a8 8e 0b c2
       35.222256 35.178562 -34.875343 -34.889313
000040 e7 ad 0c 42 ba 70 0b c2 84 d9 0b c2 74 6d 0b c2
       35.169827 -34.860085 -34.962418 -34.856888
000050 9e 9a 0b c2 81 f4 0c 42 c5 f9 0c 42 ca 95 0c 42
       -34.900993 35.238773 35.243916 35.14628
000060 6f eb 0c 42 ee 9f 0c 42 b4 8f 0b c2 d6 4b 0b c2
       35.229916 35.15618 -34.890335 -34.82406
000070 a3 98 0c 42 ea 4d 0b c2 56 4c 0b c2 a0 5d 0b c2
       35.14906 -34.826088 -34.824547 -34.84143

conv_layers.4.0.conv.weight f4 [32, 32, 3, 3]
000000 d1 fb 84 41 fd bb 84 41 63 a6 84 41 29 1c 85 41
       16.622957 16.591791 16.581244 16.63875
000010 a5 d3 84 41 05 d1 84 41 86 1c 85 41 14 be 84 41
       16.603342 16.60206 16.638927 16.592812
000020 9b ea 84 41 11 b3 df c1 de bf df c1 2c bb df c1
       16.614553 -27.962435 -27.968685 -27.966393
000030 d9 c1 df c1 5f c8 df c1 7f c2 df c1 7b d0 df c1
       -27.969652 -27.972837 -27.969969 -27.976797
000040 e3 d4 df c1 cf d1 df c1 06 c2 84 41 01 b8 84 41
       -27.978949 -27.977446 16.594738 16.589846
000050 cb b8 84 41 00 a2 84 41 11 c4 84 41 ed bc 84 41
       16.59023 16.579102 16.595736 16.592249
000060 f4 c6 84 41 21 dd 84 41 ea c2 84 41 cd 51 88 41
       16.597145 16.607973 16.595173 17.039942
000070 81 4e 88 41 c4 62 88 41 1c ed 84 41 c8 b7 84 41
       17.038332 17.048225 16.615776 16.589737
000080 c5 b9 84 41 86 2d 88 41 99 0f 88 41 ed 66 88 41
       16.590708 17.022228 17.007616 17.050257
000090 28 7c df c1 03 db df c1 7e a7 df c1 41 e8 de c1
       -27.935623 -27.98194 -27.956783 -27.863405
0000a0 03 bc de c1 4e 05 df c1 22 f5 df c1 21 ae df c1
       -27.841803 -27.87759 -27.994694 -27.960024
0000b0 a5 e1 df c1 e0 91 84 41 7f a5 84 41 e0 a7 84 41
       -27.985178 16.571228 16.580809 16.58197
0000c0 9e b0 84 41 17 a5 84 41 ad a3 84 41 85 b1 84 41
       16.586239 16.58061 16.57992 16.58668
0000d0 19 bd 84 41 1a ae 84 41 45 b4 84 41 e3 b0 84 41
       16.592333 16.58501 16.588022 16.58637
0000e0 a3 b1 84 41 ac 69 80 41 8b 67 80 41 d4 6e 80 41
       16.586737 16.051598 16.050558 16.054115
0000f0 00 c7 84 41 a9 c5 84 41 6b c4 84 41 2b 19 8a 41
       16.597168 16.596514 16.595907 17.26229
000100 b2 f5 89 41 04 17 8a 41 90 ea 87 41 99 0e 88 41
       17.244968 17.261238 16.989532 17.007128
000110 c3 19 88 41 17 24 8a 41 53 13 8a 41 60 26 8a 41
       17.012579 17.267622 17.259436 17.268738
000120 01 52 df c1 1b ec df c1 35 ff df c1 2e 88 df c1
       -27.915041 -27.990286 -27.999613 -27.941494
000130 ae ce df c1 81 a3 df c1 6a c9 df c1 34 e7 df c1
       -27.975918 -27.954836 -27.973347 -27.987892
000140 15 74 df c1 bc b7 df c1 70 c7 df c1 54 9e df c1
       -27.93168 -27.964714 -27.972382 -27.952309
000150 96 ad df c1 6c b2 df c1 36 a2 df c1 3d d4 df c1
       -27.959759 -27.96212 -27.954205 -27.978632
000160 86 d3 df c1 c5 bc df c1 bd 3f df c1 43 9e df c1
       -27.978283 -27.967173 -27.906122 -27.952276
000170 ca 60 df c1 fa 7f dd c1 ba 8a dd c1 0a 80 dd c1
       -27.92226 -27.687489 -27.692738 -27.68752
000180 22 86 dd c1 a9 a3 dd c1 3a 92 dd c1 aa ae df c1
       -27.690495 -27.704912 -27.6964 -27.960285
000190 da ab df c1 8f 9e df c1 39 b2 df c1 d8 ba df c1
       -27.958912 -27.952421 -27.962023 -27.966232
0001a0 db a7 df c1 34 c7 df c1 4e d8 df c1 35 bf df c1
       -27.95696 -27.972267 -27.980618 -27.968363
0001b0 06 93 df c1 66 6a df c1 cc a8 df c1 43 78 df c1
       -27.946789 -27.926952 -27.95742 -27.933722
0001c0 b5 fb df c1 79 66 df c1 99 aa df c1 19 75 df c1
       -27.997904 -27.925035 -27.9583 -27.932177
0001d0 7c 1e e0 c1 36 c5 dd c1 5e 83 dd c1 e6 94 dd c1
       -28.014885 -27.721294 -27.689144 -27.697704
0001e0 6a c0 dd c1 c0 bf dd c1 0f d3 dd c1 07 b5 dd c1
       -27.718952 -27.718628 -27.728056 -27.713392
0001f0 3a e0 dd c1 04 ab dd c1 75 ab 84 41 ab cc 84 41
       -27.734486 -27.708504 16.58372 16.599936
000200 a5 f2 84 41 b7 8f 84 41 50 bf 84 41 73 f2 84 41
       16.618479 16.570173 16.593414 16.618383
000210 74 0a 85 41 00 ff 84 41 f0 a0 84 41 1f a2 84 41
       16.630104 16.624512 16.578583 16.57916
000220 6b 77 84 41 96 e2 84 41 88 a8 84 41 09 92 84 41
       16.55831 16.610638 16.58229 16.571306
000230 67 9f 84 41 58 30 85 41 71 e8 84 41 4f ac 84 41
       16.577833 16.648605 16.613497 16.584135
000240 77 64 df c1 68 81 df c1 4f 59 df c1 dc a3 df c1
       -27.924055 -27.938187 -27.918608 -27.95501
000250 c1 e0 df c1 78 71 df c1 6f 87 df c1 73 dc df c1
       -27.984743 -27.930405 -27.94113 -27.982641
000260 42 7e df c1 e0 ce 80 41 fa 18 80 41 5a a2 80 41
       -27.93665 16.101013 16.012196 16.079273
000270 ce cc 80 41 ef 5d 80 41 2c a7 80 41 37 d2 80 41
       16.100002 16.045866 16.081627 16.102644
000280 6b 9f 80 41 ba a6 80 41 5b e6 87 41 e0 92 87 41
       16.07784 16.08141 16.987478 16.946716
000290 6a 17 88 41 ff 79 7c 41 43 e2 7b 41 6b e7 7b 41
       17.011433 15.779784 15.74274 15.743999
0002a0 db 38 88 41 da e0 87 41 72 eb 87 41 f6 3d 87 41
       17.027761 16.98479 16.989964 16.905254
0002b0 64 de 86 41 96 21 87 41 7a 88 87 41 5c 6a 87 41
       16.85859 16.8914 16.941639 16.926933
0002c0 f0 81 87 41 a6 12 87 41 cf 72 87 41 23 0f 87 41
       16.938446 16.884106 16.931059 16.882391
0002d0 04 d2 7a 41 6a 0b 7b 41 6a c2 7a 41 74 15 7b 41
       15.676273 15.690287 15.672464 15.692738
0002e0 6e ec 7a 41 c1 c9 7a 41 d6 02 7b 41 66 28 7b 41
       15.682722 15.674256 15.688192 15.697363
0002f0 d9 d4 7a 41 53 a2 df c1 fa bd df c1 1a b9 df c1
       15.676965 -27.95426 -27.967762 -27.965382
000300 79 ab df c1 11 c1 df c1 20 c9 df c1 3a c4 df c1
       -27.958727 -27.96927 -27.973206 -27.970814
000310 c7 d5 df c1 25 c3 df c1 be de de c1 00 c0 de c1
       -27.979383 -27.970285 -27.85876 -27.84375
000320 d9 eb de c1 d9 1e df c1 50 e1 de c1 30 9c de c1
       -27.86516 -27.890062 -27.860016 -27.826263
000330 f6 13 df c1 37 fa de c1 ee a1 de c1 3b ac df c1
       -27.884747 -27.872175 -27.829067 -27.959097
000340 a1 ae df c1 b9 a0 df c1 9a b8 df c1 55 b8 df c1
       -27.960268 -27.953478 -27.965137 -27.965006
000350 97 cd df c1 f5 c3 df c1 c8 d5 df c1 9f dd df c1
       -27.975386 -27.970682 -27.979385 -27.983213
000360 98 fb df c1 fb 1a e0 c1 ed fc df c1 0a ff df c1
       -27.997849 -28.013174 -27.998499 -27.99953
000370 e7 92 df c1 73 f1 df c1 a8 d3 df c1 75 06 e0 c1
       -27.94673 -27.992895 -27.978348 -28.003153
000380 1d cf df c1 f1 76 df c1 17 a1 df c1 9a 95 df c1
       -27.97613 -27.933077 -27.953657 -27.948048
000390 55 e1 df c1 df a7 df c1 72 d9 df c1 25 d4 df c1
       -27.985025 -27.956968 -27.981174 -27.978586
0003a0 fa c1 df c1 f3 c6 df c1 1e dc 84 41 e2 e8 84 41
       -27.969715 -27.972143 16.60748 16.613712
0003b0 b8 af 84 41 02 d6 84 41 22 dd 84 41 52 b3 84 41
       16.5858 16.604496 16.607975 16.587559
0003c0 01 d0 84 41 04 e4 84 41 bd b0 84 41 df c8 84 41
       16.601564 16.611336 16.586298 16.598082
0003d0 bd 10 85 41 a6 de 84 41 ab f7 77 41 0f 3c 78 41
       16.633173 16.608715 15.497966 15.514663
0003e0 f6 dd 78 41 56 12 85 41 3c eb 84 41 ed e4 84 41
       15.55419 16.633953 16.61486 16.61178
0003f0 4b 90 dd c1 58 9f dd c1 8e 9e dd c1 41 90 dd c1
       -27.695456 -27.702805 -27.70242 -27.695436

conv_layers.4.0.conv.bias f4 [32]
000000 0a 59 06 c2 1d d2 05 c2 2e f3 05 c2 a1 9d 07 42
       -33.586952 -33.45519 -33.48748 33.903934
000010 d2 b6 07 42 25 ae 07 42 b2 00 06 c2 36 dd 07 42
       33.928535 33.920063 -33.50068 33.966026
000020 28 c5 07 42 a3 d7 05 c2 ae df 05 c2 bc 29 06 c2
       33.942535 -33.460583 -33.468437 -33.540756
000030 e6 aa 07 42 19 05 06 c2 c0 15 06 c2 11 94 07 42
       33.916893 -33.50498 -33.52124 33.894596
000040 2b b5 07 42 6d a6 07 42 be fc 05 c2 68 f5 05 c2
       33.92692 33.912525 -33.49682 -33.489655
000050 75 c8 07 42 2a 35 06 c2 3d cc 07 42 4c e4 05 c2
       33.94576 -33.551918 33.94945 -33.472946
000060 70 18 06 c2 e2 8d 07 42 29 98 07 42 71 aa 07 42
       -33.523865 33.888557 33.898594 33.916447
000070 4d 01 06 c2 9d fa 05 c2 8e d0 07 42 35 ab 07 42
       -33.50127 -33.49474 33.953667 33.917194

conv_layers.5.0.conv.weight f4 [32, 32, 3, 3]
000000 7b f2 de c1 95 13 df c1 19 01 df c1 c1 06 df c1
       -27.868399 -27.884562 -27.875536 -27.878298
000010 4b 26 df c1 63 0a df c1 7f 02 df c1 cd 16 df c1
       -27.893698 -27.880072 -27.876219 -27.886133
000020 6c 33 df c1 91 85 d9 c1 39 12 da c1 f9 8e d9 c1
       -27.900108 -27.190218 -27.258898 -27.19481
000030 48 c6 d9 c1 8d 21 da c1 4d 24 da c1 45 4b da c1
       -27.221817 -27.266382 -27.267725 -27.286753
000040 db 48 da c1 f2 2b da c1 a7 bf f6 c1 a4 84 f6 c1
       -27.285574 -27.271458 -30.84358 -30.814766
000050 a5 a7 f6 c1 ed 0a e5 c1 d8 27 e5 c1 a1 f6 e4 c1
       -30.831858 -28.630335 -28.644455 -28.620424
000060 3b c7 f6 c1 14 f8 f6 c1 e8 d5 f6 c1 b6 81 0f 42
       -30.84728 -30.871132 -30.854446 35.87667
000070 fc 3a 0f 42 0f 74 0f 42 5f 42 0f 42 2b 58 0f 42
       35.807602 35.86334 35.814816 35.8361
000080 0c 51 0f 42 30 7b 0f 42 d7 a7 0f 42 03 99 0f 42
       35.829147 35.8703 35.913906 35.899426
000090 97 76 0f 42 1d 6d 0f 42 92 6d 0f 42 8e 44 0f 42
       35.86581 35.856556 35.857002 35.816948
0000a0 23 78 0f 42 cf 46 0f 42 4d 55 0f 42 ee 8d 0f 42
       35.86732 35.81915 35.8333 35.888603
0000b0 58 60 0f 42 bd 6e 0f 42 8e 61 0f 42 a4 72 0f 42
       35.844086 35.858143 35.84527 35.861954
0000c0 d0 75 0f 42 5b 64 0f 42 d4 57 0f 42 c2 67 0f 42
       35.86505 35.848003 35.83577 35.851326
0000d0 92 46 0f 42 11 53 0f 42 81 3e dd c1 cd 89 dd c1
       35.818916 35.83112 -27.65552 -27.692286
0000e0 b0 30 dd c1 dd 83 dd c1 9c a2 dd c1 d5 f7 dd c1
       -27.648773 -27.689386 -27.7044 -27.746012
0000f0 27 54 dd c1 66 77 dd c1 e6 4f dd c1 2d 7f 0f 42
       -27.66609 -27.6833 -27.664013 35.874195
000100 a2 5e 0f 42 27 42 0f 42 ad 85 0f 42 35 85 0f 42
       35.842415 35.8146 35.880543 35.880085
000110 82 4e 0f 42 7e 6f 0f 42 1f 37 0f 42 f2 4c 0f 42
       35.826668 35.85888 35.80383 35.82514
000120 67 61 0f 42 15 5d 0f 42 47 79 0f 42 68 85 0f 42
       35.84512 35.8409 35.868435 35.88028
000130 41 56 0f 42 40 39 0f 42 60 6b 0f 42 a0 26 0f 42
       35.834232 35.80591 35.85486 35.78772
000140 a9 65 0f 42 b4 bb d9 c1 30 a3 d9 c1 eb 0d da c1
       35.849277 -27.216652 -27.204681 -27.256796
000150 d3 eb d9 c1 b5 00 da c1 15 20 da c1 9a 9f d9 c1
       -27.240149 -27.250345 -27.265665 -27.20293
000160 ff 03 da c1 27 0d da c1 d5 a5 de c1 c9 4f df c1
       -27.251951 -27.256422 -27.830973 -27.913958
000170 d1 c8 de c1 aa 30 df c1 4b 7d df c1 bc 14 df c1
       -27.848055 -27.898762 -27.936178 -27.885124
000180 dd 77 df c1 90 0f df c1 63 13 df c1 4f 27 df c1
       -27.933527 -27.882599 -27.884466 -27.894194
000190 9d 7f df c1 fe ed de c1 d1 8b df c1 24 9e df c1
       -27.937311 -27.866207 -27.94327 -27.952217
0001a0 af 09 df c1 f8 04 df c1 e9 13 df c1 e5 a5 df c1
       -27.879728 -27.877426 -27.884722 -27.956003
0001b0 b8 60 0f 42 51 6c 0f 42 b0 63 0f 42 ef 5f 0f 42
       35.84445 35.855778 35.84735 35.843685
0001c0 60 44 0f 42 78 7d 0f 42 fe 83 0f 42 2a 7c 0f 42
       35.816772 35.872528 35.8789 35.871254
0001d0 b4 6e 0f 42 33 61 f4 c1 52 a6 f4 c1 1e f5 f3 c1
       35.85811 -30.54746 -30.581211 -30.494686
0001e0 e4 9c f4 c1 fd 77 f4 c1 14 4e f4 c1 e5 37 f4 c1
       -30.576607 -30.558588 -30.538124 -30.527292
0001f0 9d 37 f4 c1 c4 2b f4 c1 85 ff de c1 62 2f df c1
       -30.527155 -30.52137 -27.874765 -27.898136
000200 ac 2c df c1 94 5b df c1 4c 10 df c1 3d 4a df c1
       -27.896812 -27.919716 -27.882957 -27.91125
000210 34 3e df c1 0e 03 df c1 3d 53 df c1 66 2a 0f 42
       -27.905373 -27.876492 -27.915644 35.791405
000220 ae 40 0f 42 38 4a 0f 42 de 28 0f 42 51 38 0f 42
       35.813164 35.82248 35.78991 35.804996
000230 c9 58 0f 42 b5 38 0f 42 cb 36 0f 42 af 47 0f 42
       35.836704 35.805378 35.80351 35.820004
000240 11 8c 0f 42 e4 55 0f 42 98 62 0f 42 48 8d 0f 42
       35.886784 35.833878 35.846283 35.88797
000250 5f 69 0f 42 75 60 0f 42 56 7e 0f 42 9c 66 0f 42
       35.8529 35.844196 35.873375 35.850204
000260 c7 92 0f 42 9e 8c 0f 42 1c 62 0f 42 a3 8c 0f 42
       35.893337 35.88732 35.84581 35.88734
000270 50 59 0f 42 16 50 0f 42 e4 82 0f 42 91 9d 0f 42
       35.83722 35.82821 35.877823 35.903873
000280 9c 4e 0f 42 30 47 0f 42 7c 35 f7 c1 98 6a f7 c1
       35.826767 35.81952 -30.901115 -30.927048
000290 2b 7b f7 c1 5c 40 df c1 d0 71 df c1 96 f7 de c1
       -30.93514 -27.906425 -27.930573 -27.870892
0002a0 5f ce e4 c1 98 f7 e4 c1 f1 ec e4 c1 1a fb e4 c1
       -28.600767 -28.620895 -28.615694 -28.622608
0002b0 b1 2c e5 c1 4c 3d e5 c1 55 00 e0 c1 fa c1 df c1
       -28.646822 -28.65493 -28.000162 -27.969715
0002c0 dd 44 e0 c1 17 63 e5 c1 3a d1 e4 c1 be 3f e5 c1
       -28.033625 -28.673384 -28.602161 -28.656124
0002d0 2d 21 0f 42 e0 3c 0f 42 5a 82 0f 42 ef 56 0f 42
       35.7824 35.80945 35.877296 35.834896
0002e0 5f 4f 0f 42 1d 3a 0f 42 51 54 0f 42 e7 82 0f 42
       35.82751 35.80675 35.83234 35.877834
0002f0 ae 34 0f 42 18 a2 f9 c1 c7 af f9 c1 70 f6 f9 c1
       35.801445 -31.204147 -31.210829 -31.24533
000300 45 46 e6 c1 cd 2f e6 c1 2c ad e6 c1 b7 fd f9 c1
       -28.784311 -28.77334 -28.834557 -31.248884
000310 7c 38 fa c1 85 75 fa c1 3e 39 0f 42 4c 67 0f 42
       -31.27758 -31.307383 35.8059 35.850876
000320 cb 2d 0f 42 b0 42 0f 42 3b 1c 0f 42 e4 77 0f 42
       35.79472 35.815125 35.77757 35.86708
000330 8e 4e 0f 42 62 46 0f 42 f5 6d 0f 42 13 41 e5 c1
       35.826714 35.818733 35.85738 -28.656775
000340 ac f9 e4 c1 5d 7c e4 c1 bb bc e4 c1 bd c5 e4 c1
       -28.62191 -28.560724 -28.592154 -28.596552
000350 23 8b e4 c1 f4 75 e4 c1 bc b9 e4 c1 5d b2 e4 c1
       -28.567938 -28.557594 -28.59069 -28.587091
000360 44 ac e4 c1 99 b9 e4 c1 a4 23 e5 c1 f9 e2 e4 c1
       -28.584114 -28.590624 -28.642403 -28.610826
000370 9b f7 e4 c1 49 b8 e4 c1 82 8b e4 c1 33 ad e4 c1
       -28.620901 -28.589983 -28.56812 -28.58457
000380 f1 e9 e4 c1 42 2e 0f 42 78 5c 0f 42 8c 7c 0f 42
       -28.61423 35.795174 35.8403 35.871628
000390 c2 83 0f 42 8c 5b 0f 42 57 5f 0f 42 f4 7b 0f 42
       35.87867 35.8394 35.843105 35.871048
0003a0 d6 7c 0f 42 fb 86 0f 42 c4 39 0f 42 af 90 0f 42
       35.87191 35.881817 35.80641 35.891293
0003b0 5d 57 0f 42 eb 7a 0f 42 4d 84 0f 42 1e 4c 0f 42
       35.835316 35.870037 35.8792 35.824333
0003c0 7f 9c 0f 42 3e 63 0f 42 1e 8d 0f 42 bc 20 0f 42
       35.90283 35.846916 35.88781 35.781967
0003d0 4b 38 0f 42 d5 63 0f 42 b2 3a 0f 42 cb 3c 0f 42
       35.804974 35.847492 35.80732 35.80937
0003e0 ce 61 0f 42 e7 86 0f 42 73 66 0f 42 48 53 0f 42
       35.845512 35.88174 35.850048 35.83133
0003f0 22 98 e4 c1 53 64 e4 c1 2c f8 e4 c1 07 d8 de c1
       -28.574284 -28.548986 -28.621178 -27.855482

conv_layers.5.0.conv.bias f4 [32]
000000 70 cf 01 42 3b 1c 00 c2 b4 1c 00 c2 5d 36 00 c2
       32.452576 -32.02757 -32.02803 -32.05309
000010 56 6c 00 c2 77 d9 01 42 f6 e5 01 42 43 d4 01 42
       -32.105797 32.462368 32.47457 32.457287
000020 b8 33 00 c2 47 62 00 c2 ff c2 01 42 b4 e9 00 c2
       -32.050507 -32.095974 32.440426 -32.228226
000030 81 d1 01 42 b8 eb 01 42 c9 1d 00 c2 b3 f6 01 42
       32.454594 32.480194 -32.029087 32.490917
000040 3a 19 00 c2 cc fa 00 c2 22 21 02 42 d6 fa 01 42
       -32.024635 -32.24492 32.532356 32.494957
000050 73 1c 00 c2 04 22 00 c2 0a 1a 02 42 3c 60 00 c2
       -32.027782 -32.03322 32.52543 -32.09398
000060 a9 2b 00 c2 a1 29 00 c2 5c f7 01 42 e8 f7 00 c2
       -32.042637 -32.040653 32.49156 -32.242096
000070 f1 0b 02 42 85 e9 01 42 bc ee 01 42 16 79 00 c2
       32.51166 32.478046 32.48314 -32.118248

conv_layers.7.0.conv.weight f4 [16, 32, 3, 3]
000000 6b f1 0d 42 4e 22 0e 42 f4 b8 0d 42 c4 64 fb 41
       35.48576 35.5335 35.43062 31.424202
000010 e1 98 fb 41 91 a7 fb 41 62 15 0f 42 dd 66 0f 42
       31.449648 31.45682 35.77088 35.850452
000020 69 13 0f 42 0f f1 a2 c1 c5 9c a3 c1 32 aa a3 c1
       35.768955 -20.367704 -20.451548 -20.458103
000030 f3 ae 98 c1 91 48 99 c1 d4 04 99 c1 3c 21 a6 c1
       -19.085424 -19.160433 -19.127357 -20.766228
000040 cc 4e a6 c1 25 f5 a5 c1 37 fc a5 c1 da a3 a6 c1
       -20.788475 -20.7447 -20.748152 -20.830006
000050 f0 0d a6 c1 30 6e 93 c1 44 97 93 c1 91 fe 92 c1
       -20.756805 -18.428802 -18.44886 -18.3743
000060 2b 3a a9 c1 7e 15 a9 c1 d8 aa a8 c1 53 1e a5 c1
       -21.153402 -21.135494 -21.08342 -20.639807
000070 7e 32 a5 c1 49 7a a5 c1 92 1f 93 c1 06 e2 93 c1
       -20.649654 -20.68471 -18.390415 -18.485363
000080 7f 17 94 c1 aa 8a a7 c1 a4 13 a8 c1 b8 89 a7 c1
       -18.511473 -20.942707 -21.00959 -20.942245
000090 9f 96 a6 c1 fb 20 a6 c1 cf b6 a6 c1 4d 1c 99 c1
       -20.823545 -20.766104 -20.839262 -19.138819
0000a0 63 e0 98 c1 27 38 99 c1 48 10 a9 c1 22 cc a8 c1
       -19.109564 -19.152418 -21.13295 -21.099674
0000b0 21 d8 a8 c1 40 4f 0e 42 5e 62 0e 42 e7 07 0e 42
       -21.105532 35.577393 35.59606 35.507717
0000c0 6d e3 fc 41 0c dc fc 41 56 ae fc 41 5c 46 08 42
       31.611048 31.607445 31.585125 34.06871
0000d0 0d 22 08 42 88 74 08 42 df 04 0e 42 2e 0f 0e 42
       34.033253 34.1138 35.504757 35.514824
0000e0 b7 0c 0e 42 a8 8e 00 42 e6 4e 00 42 22 90 00 42
       35.512417 32.139313 32.07705 32.140755
0000f0 23 46 0f 42 5f 89 0f 42 d8 44 0f 42 6e f6 0d 42
       35.818493 35.88415 35.81723 35.490654
000100 95 19 0e 42 69 d1 0d 42 1d 3a fc 41 f9 3c fc 41
       35.524982 35.454502 31.528376 31.529772
000110 a4 a8 fc 41 13 34 0f 42 7e 3a 0f 42 70 87 0f 42
       31.582344 35.800854 35.80712 35.882263
000120 06 89 a6 c1 9f e3 a6 c1 b5 b4 a6 c1 a7 0b 9b c1
       -20.816906 -20.861143 -20.838236 -19.38069
000130 6b 54 9b c1 9d bf 9a c1 71 ad a8 c1 ac 7f a9 c1
       -19.41622 -19.343561 -21.084688 -21.18734
000140 a4 74 a9 c1 ea e0 a7 c1 1e 8a a7 c1 f3 09 a8 c1
       -21.181953 -20.984821 -20.94244 -21.004858
000150 d9 f3 9a c1 dd 15 9b c1 fe d8 9a c1 59 6b aa c1
       -19.369066 -19.385675 -19.355953 -21.302416
000160 6d 47 aa c1 51 88 aa c1 c3 94 0d 42 b9 03 0e 42
       -21.284876 -21.31656 35.395275 35.503635
000170 40 da 0d 42 15 59 00 42 5c 57 00 42 1b 47 00 42
       35.463135 32.086994 32.08531 32.06944
000180 e1 50 0f 42 3e 35 0f 42 d5 7d 0f 42 76 72 a8 c1
       35.828983 35.801994 35.872883 -21.05589
000190 de ec a7 c1 85 9f a8 c1 2e 8d 96 c1 96 fc 96 c1
       -20.990658 -21.07789 -18.818935 -18.873333
0001a0 76 84 96 c1 31 e8 aa c1 c0 f3 aa c1 40 c2 aa c1
       -18.814678 -21.363375 -21.369019 -21.344849
0001b0 c1 e4 0d 42 a9 1d 0e 42 8a 00 0e 42 cb 0c fe 41
       35.473392 35.528965 35.500526 31.756247
0001c0 27 a4 fe 41 d9 04 fe 41 f9 66 0f 42 e9 3d 0f 42
       31.830153 31.752367 35.85056 35.81046
0001d0 b8 3b 0f 42 22 b8 0d 42 cd 09 0e 42 de 0d 0e 42
       35.80832 35.429817 35.50957 35.513542
0001e0 66 a8 02 42 b4 d4 02 42 81 d2 02 42 f1 62 0f 42
       32.66445 32.707718 32.70557 35.846622
0001f0 20 58 0f 42 81 2b 0f 42 ab c0 a7 c1 3c b1 a7 c1
       35.83606 35.792484 -20.969076 -20.96154
000200 84 fd a7 c1 88 e8 92 c1 e0 6a 93 c1 a9 37 93 c1
       -20.998787 -18.36354 -18.427185 -18.402178
000210 5d 4e aa c1 80 2b aa c1 35 64 aa c1 93 ec 0d 42
       -21.288263 -21.27124 -21.29893 35.48103
000220 f8 d4 0d 42 e0 03 0e 42 68 14 fc 41 08 1b fc 41
       35.457977 35.503784 31.509964 31.513199
000230 59 f4 fb 41 ea 69 0f 42 1c 4a 0f 42 7f 3a 0f 42
       31.49431 35.85343 35.822372 35.807125
000240 65 f5 a7 c1 90 4a a8 c1 24 5a a8 c1 51 a9 9a c1
       -20.994822 -21.036407 -21.044014 -19.332674
000250 cb 07 9b c1 5d dc 9a c1 3a 5c ab c1 a0 10 ab c1
       -19.378805 -19.3576 -21.420033 -21.383118
000260 e1 06 ab c1 b0 81 ab c1 3a 5b ab c1 42 fd aa c1
       -21.378359 -21.438324 -21.419544 -21.373661
000270 64 4c 9b c1 7d cb 9a c1 c2 4b 9b c1 27 a1 aa c1
       -19.4123 -19.34936 -19.411991 -21.328688
000280 dd cc aa c1 a2 21 ab c1 08 dd 0b 42 c9 08 0c 42
       -21.35003 -21.391422 34.96585 35.00858
000290 83 ed 0b 42 fa d8 fc 41 85 7b fc 41 9c d0 fc 41
       34.981945 31.605946 31.560312 31.60186
0002a0 01 c6 0c 42 3b d0 0c 42 26 dc 0c 42 4b 17 0e 42
       35.193363 35.20335 35.21499 35.522747
0002b0 d5 26 0e 42 2c fd 0d 42 21 25 00 42 cb 7c 00 42
       35.53792 35.49724 32.03626 32.12187
0002c0 9e 2c 00 42 c7 48 0f 42 b7 7e 0f 42 61 48 0f 42
       32.04357 35.82107 35.873745 35.820683
0002d0 f2 84 a8 c1 e1 29 a8 c1 91 b1 a8 c1 e7 9c 98 c1
       -21.064915 -21.020449 -21.086702 -19.076612
0002e0 d0 76 98 c1 4c 5d 98 c1 08 e8 aa c1 b4 f5 aa c1
       -19.058014 -19.045555 -21.363297 -21.369972
0002f0 b8 d6 aa c1 a2 fe a5 c1 fc a6 a6 c1 f9 19 a6 c1
       -21.354843 -20.749332 -20.831535 -20.762682
000300 36 ab 9b c1 8e 59 9b c1 e0 b3 9b c1 4f 52 a9 c1
       -19.4586 -19.418728 -19.46283 -21.16519
000310 cd 13 a9 c1 64 10 a9 c1 3d 11 0e 42 9d 09 0e 42
       -21.134668 -21.133003 35.516834 35.509388
000320 e6 ff 0d 42 43 9a f1 41 24 05 f2 41 6a e0 f1 41
       35.4999 30.200323 30.25251 30.234577
000330 3d 57 0f 42 4f 5c 0f 42 fb 80 0f 42 2d e3 a2 c1
       35.835194 35.840145 35.875957 -20.360926
000340 d2 2f a3 c1 4e e3 a2 c1 72 e1 93 c1 e9 6b 93 c1
       -20.39835 -20.360989 -18.48508 -18.42769
000350 49 9d 93 c1 e0 a0 a5 c1 9a e5 a5 c1 15 c0 a5 c1
       -18.4518 -20.703552 -20.73711 -20.71879
000360 5b ca aa c1 06 bf aa c1 a1 c1 aa c1 4b fe 98 c1
       -21.348806 -21.343273 -21.344545 -19.124166
000370 ff 03 99 c1 d2 6a 99 c1 a2 d0 ad c1 42 4a ad c1
       -19.126951 -19.177158 -21.726871 -21.661259
000380 4c f0 ad c1 f9 ae a6 c1 98 aa a6 c1 e2 56 a6 c1
       -21.742332 -20.835436 -20.833298 -20.792423
000390 16 fa 98 c1 02 62 99 c1 ed 27 99 c1 28 cd a8 c1
       -19.122112 -19.172855 -19.144495 -21.100174
0003a0 cb 54 a9 c1 fc 2e a9 c1 aa 27 0b 42 6a 2e 0b 42
       -21.166403 -21.147942 34.788734 34.795326
0003b0 2f 32 0b 42 31 a8 fc 41 f7 d3 fc 41 2f b4 fc 41
       34.799007 31.582125 31.603498 31.58798
0003c0 42 52 0c 42 af 22 0c 42 67 4b 0c 42 b8 bb a8 c1
       35.08033 35.03387 35.073635 -21.09166
0003d0 42 d3 a8 c1 dd 9a a8 c1 58 4a 9b c1 07 43 9b c1
       -21.103153 -21.075617 -19.4113 -19.407728
0003e0 62 c7 9b c1 88 d3 aa c1 15 72 aa c1 09 2c aa c1
       -19.472355 -21.353287 -21.305704 -21.271502
0003f0 01 a5 0b 42 6e 97 0b 42 37 67 0b 42 91 89 fc 41
       34.911137 34.89788 34.850796 31.567171

conv_layers.7.0.conv.bias f4 [16]
000000 94 7e f6 41 63 b8 f6 41 75 aa f6 41 53 da f5 41
       30.811806 30.840033 30.833231 30.731604
000010 42 a0 f6 c1 a2 e0 f4 c1 b0 ed f5 c1 1a b2 f6 c1
       -30.82825 -30.609684 -30.741058 -30.836964
000020 c5 b2 f6 41 08 36 f6 41 13 c8 f6 c1 fa 8a f6 41
       30.83729 30.776382 -30.847692 30.81786
000030 4e fd f5 c1 74 27 f6 c1 ea 6c f6 41 d0 ec f5 41
       -30.748684 -30.769264 30.80318 30.740631

linear_layers.0.weight f4 [64, 400]
000000 6f 03 0b c2 cf 0d 0b c2 d6 1f 0b c2 01 04 0b c2
       -34.753353 -34.763485 -34.78109 -34.75391
000010 f2 2e 0b c2 86 c5 0b c2 ec d0 0b c2 6b fd 0b c2
       -34.795845 -34.942894 -34.954025 -34.99748
000020 9d e6 0b c2 3d e7 0b c2 3c d5 0c c2 ce da 0c c2
       -34.97521 -34.97582 -35.208237 -35.213676
000030 d7 b8 0c c2 50 81 0c c2 42 72 0c c2 8c 07 0d c2
       -35.180508 -35.12628 -35.11158 -35.25737
000040 1e af 0c c2 d4 d6 0c c2 d9 fc 0c c2 d8 06 0d c2
       -35.171013 -35.209793 -35.24692 -35.256683
000050 44 f2 0c c2 e4 c1 0c c2 8b ca 0c c2 02 b4 0c c2
       -35.236588 -35.189346 -35.197796 -35.17579
000060 8e e1 0c c2 6f 11 0b c2 a5 46 0b c2 e6 17 0b c2
       -35.22027 -34.767025 -34.81899 -34.77334
000070 d2 25 0b c2 8e 2f 0b c2 b0 76 0b c2 75 9c 0b c2
       -34.786934 -34.79644 -34.865906 -34.90279
000080 d3 66 0b c2 b5 3b 0b c2 a2 86 0b c2 5b ca 0b c2
       -34.850414 -34.808308 -34.881477 -34.947613
000090 40 1b 0c c2 d6 15 0c c2 03 ff 0b c2 45 45 0c c2
       -35.02661 -35.021324 -34.999035 -35.067646
0000a0 72 9a 0c c2 1d ed 0c c2 87 9b 0c c2 44 ac 0c c2
       -35.150826 -35.231556 -35.151882 -35.16823
0000b0 53 cb 0c c2 5d c4 0c c2 70 ee 0c c2 03 cf 0c c2
       -35.19856 -35.19176 -35.23285 -35.20216
0000c0 aa e3 0c c2 13 1e 0d c2 2c fb 0a c2 f7 13 0b c2
       -35.22233 -35.27937 -34.745285 -34.769497
0000d0 2c e1 0a c2 a1 30 0b c2 0b f7 0a c2 90 58 0b c2
       -34.719894 -34.79749 -34.741253 -34.836487
0000e0 c6 84 0b c2 22 17 0b c2 04 9a 0b c2 fe 9c 0b c2
       -34.87966 -34.77259 -34.900406 -34.903313
0000f0 4e c0 0b c2 aa 38 0c c2 d0 d3 0b c2 26 ee 0b c2
       -34.937798 -35.055336 -34.95685 -34.982567
000100 16 dd 0b c2 17 6d 0c c2 e4 b3 0c c2 86 4b 0c c2
       -34.965904 -35.106533 -35.175674 -35.073753
000110 8d a7 0c c2 8c 80 0c c2 bc bf 0c c2 da eb 0c c2
       -35.163624 -35.125534 -35.18724 -35.230324
000120 08 7c 0c c2 0b c2 0c c2 f1 95 0c c2 d7 44 0b c2
       -35.121124 -35.189495 -35.146427 -34.817226
000130 85 43 0b c2 57 10 0b c2 fa 61 0b c2 c1 ff 0a c2
       -34.815937 -34.765957 -34.84568 -34.74976
000140 24 aa 0b c2 b1 9a 0b c2 eb 90 0b c2 74 93 0b c2
       -34.916153 -34.901066 -34.89152 -34.893997
000150 25 82 0b c2 7d 3d 0c c2 01 ea 0b c2 a6 df 0b c2
       -34.877094 -35.060047 -34.97852 -34.968407
000160 fc 1f 0c c2 d2 bb 0b c2 45 f3 0c c2 4e c3 0c c2
       -35.031235 -34.93342 -35.237568 -35.190727
000170 ff 77 0c c2 2b 94 0c c2 a6 4e 0c c2 af b1 0c c2
       -35.117184 -35.144695 -35.076805 -35.17352
000180 91 d3 0c c2 dc a7 0c c2 f2 b7 0c c2 e3 83 0c c2
       -35.206608 -35.163925 -35.179634 -35.128796
000190 2c a6 09 42 e9 98 09 42 39 a3 09 42 93 9a 09 42
       34.412277 34.399326 34.409397 34.40095
0001a0 3d b9 09 42 77 db 09 42 62 fa 09 42 f1 e9 09 42
       34.430897 34.46432 34.494514 34.47846
0001b0 ab dd 09 42 1d 1d 0a 42 68 3c f6 41 22 64 f6 41
       34.466473 34.52843 30.779495 30.798893
0001c0 47 91 f6 41 2d f2 f5 41 c3 90 f6 41 7a 9f f7 41
       30.820936 30.74325 30.820684 30.95287
0001d0 e5 97 f7 41 4d ed f7 41 ff 38 f7 41 de f5 f7 41
       30.949167 30.99087 30.90283 30.995052
0001e0 3f 95 0b 42 00 b4 0b 42 d7 9d 0b 42 6d 49 0b 42
       34.89575 34.92578 34.90414 34.821705
0001f0 3a 9e 0b 42 c1 c5 07 42 e4 1e 08 42 c0 1b 08 42
       34.90452 33.94312 34.030167 34.0271
000200 7a ba 07 42 61 ea 07 42 03 11 0a 42 a7 37 0a 42
       33.932106 33.978886 34.516613 34.554348
000210 55 2b 0a 42 f7 ef 09 42 a4 4b 0a 42 50 29 f6 41
       34.542316 34.48434 34.573868 30.770172
000220 46 02 f6 41 d8 d2 f5 41 3b 86 f5 41 ff 0d f6 41
       30.75111 30.727951 30.690542 30.756834
000230 c9 66 f7 41 31 6b f8 41 28 04 f8 41 fe 7e f7 41
       30.925188 31.05234 31.00203 30.937008
000240 db c4 f7 41 ad 76 0b 42 30 88 0b 42 16 a0 0b 42
       30.97112 34.865894 34.882996 34.906334
000250 4a 6a 0b 42 c3 92 0b 42 43 b1 09 42 e3 f2 09 42
       34.853798 34.893322 34.423107 34.487194
000260 9e 9e 09 42 09 e6 09 42 7d c0 09 42 7e 53 0a 42
       34.4049 34.474644 34.437977 34.581535
000270 31 6a 0a 42 a6 71 0a 42 bb 0d 0a 42 7c 78 0a 42
       34.603703 34.610985 34.51341 34.61766
000280 8c ad f6 41 9a 4e f7 41 1d 04 f7 41 80 f8 f6 41
       30.83474 30.91338 30.877008 30.871338
000290 57 bb f7 41 87 04 f8 41 5e 0e f8 41 e6 57 f8 41
       30.966475 31.00221 31.007015 31.04292
0002a0 c9 9b f7 41 3a ff f7 41 a8 b0 0b 42 b9 a4 0b 42
       30.951067 30.999622 34.922516 34.910862
0002b0 d2 7f 0b 42 a0 9d 0b 42 83 a5 0b 42 b9 ea 09 42
       34.874825 34.90393 34.911633 34.47922
0002c0 46 ec 09 42 fc b9 09 42 95 b1 09 42 fb c6 09 42
       34.480736 34.431625 34.42342 34.444317
0002d0 26 40 0a 42 4f 16 0a 42 8b 0b 0a 42 2d 01 0a 42
       34.562645 34.521786 34.511272 34.50115
0002e0 0c 23 0a 42 b6 e1 f3 41 79 b4 08 42 db cc 08 42
       34.534225 30.48521 34.176243 34.200054
0002f0 55 79 f3 41 80 9d f3 41 ad 55 0b 42 7c 8a 0b 42
       30.434244 30.451904 34.833668 34.88524
000300 ff 3f 0b 42 a2 2f 0b 42 3a 59 0b 42 41 6e 0b 42
       34.812496 34.796516 34.837135 34.85767
000310 95 a8 0b 42 48 57 0b 42 d4 57 0b 42 32 a0 0b 42
       34.91463 34.835236 34.83577 34.90644
000320 44 0f 0b c2 5d 02 0b c2 9f 31 0b c2 f7 06 0b c2
       -34.764908 -34.752308 -34.79846 -34.7568
000330 6e 21 0b c2 d6 a3 0b c2 fd a7 0b c2 af 6c 0b c2
       -34.782646 -34.909996 -34.91405 -34.856136
000340 49 5f 0b c2 59 87 0b c2 6e 00 0c c2 1e f6 0b c2
       -34.843052 -34.882175 -35.00042 -34.99035
000350 5f 07 0c c2 44 fb 0b c2 a8 fe 0b c2 e6 7c 0c c2
       -35.0072 -34.995377 -34.998688 -35.12197
000360 ac cd 0c c2 44 93 0c c2 9b 98 0c c2 65 a9 0c c2
       -35.20085 -35.143814 -35.14903 -35.165424
000370 e2 f1 0c c2 74 f3 0c c2 80 e4 0c c2 99 b6 0c c2
       -35.236214 -35.237747 -35.223145 -35.178318
000380 1b b6 0c c2 85 0e 0b c2 06 33 0b c2 2e 0b 0b c2
       -35.177837 -34.76418 -34.799828 -34.760918
000390 78 28 0b c2 e9 ea 0a c2 6a 64 0b c2 e0 9e 0b c2
       -34.78952 -34.729404 -34.84806 -34.90515
0003a0 8e 8e 0b c2 20 a0 0b c2 66 96 0b c2 d4 fa 0b c2
       -34.889214 -34.906372 -34.896873 -34.99495
0003b0 98 40 0c c2 b6 07 0c c2 9f 1c 0c c2 87 eb 0b c2
       -35.06308 -35.00753 -35.02795 -34.980007
0003c0 97 c7 0c c2 ef c0 0c c2 57 79 0c c2 28 c0 0c c2
       -35.194912 -35.18841 -35.118496 -35.187653
0003d0 5b a9 0c c2 78 e1 0c c2 8e 9c 0c c2 2e eb 0c c2
       -35.165386 -35.220184 -35.152885 -35.229668
0003e0 5f eb 0c c2 31 d2 0c c2 c1 91 09 42 90 9e 09 42
       -35.229855 -35.205265 34.392338 34.404846
0003f0 67 cf 09 42 00 9b 09 42 5a dd 09 42 c5 17 0a 42
       34.45254 34.401367 34.466164 34.523212

linear_layers.0.bias f4 [64]
000000 d9 97 e2 c1 9c 27 e2 41 73 7f e2 41 ef bf e2 c1
       -28.324144 28.26934 28.312231 -28.343718
000010 e1 81 e3 c1 10 a8 e2 41 2a 37 e2 41 40 99 e2 c1
       -28.438417 28.332062 28.276936 -28.32483
000020 1b ad e2 41 8d a6 e2 c1 30 6f e2 41 b9 c9 e2 41
       28.334524 -28.331324 28.30429 28.348497
000030 67 45 e3 c1 f0 ad e2 c1 b8 e3 e1 41 d6 5b e2 c1
       -28.408888 -28.33493 28.23619 -28.294842
000040 0e 66 e2 41 d9 14 e3 c1 97 ba e2 41 31 d4 e2 c1
       28.299831 -28.38518 28.341108 -28.35361
000050 3d 87 e3 c1 07 78 e2 c1 d7 99 e2 c1 e7 f8 e2 c1
       -28.441034 -28.308607 -28.325117 -28.371534
000060 ab f4 e1 41 69 39 e2 c1 7b a3 e2 41 b9 b9 e2 c1
       28.244467 -28.278032 28.329824 -28.340685
000070 53 8a e3 c1 fb 67 e2 41 5f bf e2 c1 4f 4c e3 c1
       -28.442541 28.300772 -28.343443 -28.41226
000080 9e 28 e3 c1 b8 52 e3 c1 7a 4e e3 c1 dd e1 e2 41
       -28.394833 -28.41539 -28.413319 28.360285
000090 7a 6a e2 41 a6 74 e2 41 57 69 e2 41 54 72 e2 c1
       28.30199 28.306957 28.301435 -28.305824
0000a0 79 74 e2 c1 6c 61 e3 c1 ef 3c e2 41 79 6f e3 c1
       -28.306871 -28.42257 28.279753 -28.42943
0000b0 a3 03 e3 c1 16 7a e3 c1 ea 9e e2 41 cd 42 e2 41
       -28.376776 -28.434612 28.327595 28.282618
0000c0 53 46 e3 c1 9d 8c e2 41 79 36 e2 41 92 6d e2 41
       -28.409338 28.318659 28.276598 28.303501
0000d0 a8 30 e3 c1 0f b5 e2 c1 1a e6 e2 c1 02 36 e2 41
       -28.398758 -28.338408 -28.362354 28.276371
0000e0 2c af e2 c1 77 1e e2 41 d5 41 e2 41 13 bc e2 c1
       -28.335533 28.264875 28.282145 -28.341833
0000f0 68 65 e3 c1 36 1d e2 41 98 4e e2 c1 fd 6c e2 c1
       -28.424515 28.264263 -28.288376 -28.303217
