models/with_attention/with_attention\model.pth (torch, 274708 bytes, 30 tensors)

conv_layers.0.0.conv.weight f4 [16, 2, 3, 3]
0.87048316 0.0044971597 0.34678856 0.09010899 -0.07373091 -0.12235824 0.4776541 0.06844884
0.71913695 -0.0037363379 0.0066582095 0.026401969 0.077397406 -0.010805671 0.022361957 -0.18672988
0.01022062 0.07417122 -0.037142575 -0.13847665 -0.16654398 0.03356332 0.03830342 -0.09044702
0.06693739 0.086274184 0.005099642 -0.62471896 -0.84047025 -0.8191689 0.11551382 -0.0056799855
0.059578735 0.17119773 -0.046332765 0.18184096 -0.3947003 -0.9330144 -0.5660653 0.13849176
0.09646733 0.04524106 0.0723135 0.13438743 -0.6659814 -0.56104404 -0.5469947 -0.5863529
-0.9310737 -0.025272219 0.023161003 0.0025553105 -0.64407426 0.011360401 0.31574988 -0.25807503
0.2668392 -0.56844527 -0.7055346 -0.70791906 0.31980827 -0.4667811 -0.35821834 -0.041155722
-0.031499673 0.081038505 0.022209648 -0.029228222 -0.0393378 -0.01485865 -0.017351514 -0.3401648
-0.037609406 0.29648122 0.019086337 0.17647015 0.18055755 -0.79622823 0.109014474 0.5938197
-0.34604022 -0.17931445 -0.014349389 -0.077292934 -0.29760462 -0.25943393 0.046819936 -0.040646873
0.01762597 0.05025354 0.036440797 0.021000722 0.033884004 -0.286601 0.001000198 0.015254068
0.020434346 -0.005726792 0.082875185 0.13910452 0.010859862 0.12812978 -0.7139183 -0.94793427
-0.7771056 -0.8015774 0.042215012 0.121818505 -0.036710452 0.08140394 0.24605075 -0.48983428
0.049526118 -0.045933448 -0.15542048 0.12747692 0.16663073 -0.8377634 -0.011718032 -0.36079082
-0.52431905 0.05421875 0.14536521 -0.8804331 0.011016535 -0.006928636 0.053368866 0.26613313
0.41502732 -0.061728925 0.3150417 0.46876752 0.11817231 0.12991242 0.0897532 0.12193131
0.28519505 0.008905472 0.21951987 0.001044816 0.1947535 0.34718934 -0.010099831 0.19131835
0.0032803074 0.020800894 -0.013344602 0.025859723 0.007164748 -0.004505465 0.01694275 0.11440385
0.009140197 -1.06489 0.19604304 -0.66348207 -0.48110518 0.06570433 -0.7255324 0.12344429
0.14517042 -0.64604455 0.18063287 0.16481996 -0.5299696 0.13171057 -0.14401959 -0.6658274
0.12934121 -0.77080804 -0.40378103 0.102419086 0.0021203582 -0.68934643 -0.45651367 -0.7575816
-0.7484444 0.08527968 -0.0013682949 -0.20922159 0.09019946 0.123543635 0.019383604 0.057169307
-0.030946292 0.15713783 -0.47336602 -0.059850678 -0.9632116 0.035343107 0.05934177 0.113079265
0.0572462 0.10697366 0.05880956 -0.9540365 -0.72756433 0.05618903 0.03416741 0.016926099
-0.16481891 0.069057405 0.06680437 -0.06696603 0.05676585 0.0074251415 0.004356502 0.09743027
0.09634945 -0.346379 0.02446098 -0.013765436 -0.46517998 -1.2069588 -0.8662727 -1.2287458
0.038744602 -0.03807072 -0.0037730061 0.4521994 -0.016477186 -0.13846505 0.007846286 0.01696729
-0.08561084 0.36514196 0.035512663 -0.64189154 -0.32160357 0.16920124 0.20719415 -0.006377466
-0.009533106 -0.0017005958 -0.80677986 0.12961878 0.16570534 0.17067371 0.037493017 0.21419673
-0.5788661 -0.7157494 0.20724125 -0.14467412 -0.46580443 -0.4198238 0.03759138 -0.48599613
-0.07827003 0.13202712 0.07905743 -0.1307888 -0.9562882 -0.89872324 -0.79889 -0.9192754
00000000: fcd7 5e3f e95c 933b 458e b13e 108b b83d
00000010: 3b00 97bd f596 fabd 148f f43e e82e 8c3d
00000020: 5c19 383f 59dd 74bb 1c2d da3b f148 d83c
00000030: 8882 9e3d 450a 31bc 6c30 b73c 1e36 3fbe
00000040: 6374 273c 15e7 973d d022 18bd d3cc 0dbe
00000050: 818a 2abe b179 093d 0ce4 1c3d 4a3c b9bd
00000060: 7816 893d 85b0 b03d e61a a73b 95ed 1fbf
00000070: 0f29 57bf 0eb5 51bf 8292 ec3d 2c1f babb
00000080: d508 743d 754e 2f3e 6dc7 3dbd 8434 3a3e
00000090: 2816 cabe 08da 6ebf a8e9 10bf c9d0 0d3e
000000a0: aa90 c53d b14e 393d 1a19 943d dc9c 093e
000000b0: c27d 2abf 95a0 0fbf d807 0cbf 391b 16bf
000000c0: d95a 6ebf af07 cfbc 25bc bd3c ff76 273b
000000d0: 0de2 24bf fa20 3a3c f8a9 a13e 6922 84be
000000e0: 269f 883e a185 11bf ea9d 34bf 2f3a 35bf
000000f0: e9bd a33e effd eebe 6568 b7be e792 28bd
00000100: cd05 01bd 84f7 a53d 02f1 b53c 0670 efbc
00000110: ac20 21bd b271 73bc c324 8ebc 152a aebe
00000120: 520c 1abd 63cc 973e f35a 9c3c 97b4 343e
00000130: 14e4 383e 9dd5 4bbf fb42 df3d 9104 183f
00000140: 2f2c b1be 359e 37be b319 6bbc c24b 9ebd
00000150: a25f 98be 86d4 84be 43c6 3f3d 567d 26bd
00000160: 5764 903c a8d6 4d3d f242 153d b509 ac3c
00000170: f4c9 0a3d 5ebd 92be 1319 833a 33ec 793c
00000180: ee65 a73c d0a7 bbbb 77ba a93d 6a71 0e3e
00000190: 90ed 313c 7434 033e 5ac3 36bf d2ab 72bf
000001a0: 65f0 46bf 2d34 4dbf a6e9 2c3d fb7b f93d
000001b0: b35d 16bd 1cb7 a63d baf4 7b3e 8fcb fabe
000001c0: e6db 4a3d b624 3cbd 8c26 1fbe 4f89 023e
000001d0: 3fa1 2a3e aa77 56bf fdfc 3fbc 93b9 b8be
000001e0: c639 06bf 7b14 5e3d 9eda 143e 1064 61bf
000001f0: b27e 343c 9d09 e3bb 5099 5a3d 9a42 883e
00000200: 767e d43e 78d7 7cbd 254d a13e 4c02 f03e
00000210: 5304 f23d c307 053e 87d0 b73d 1fb7 f93d
00000220: 1605 923e 42e8 113c d1c9 603e 35f2 883a
00000230: 766d 473e cdc2 b13e c379 25bc f5e8 433e
00000240: 6dfa 563b a366 aa3c 51a3 5abc c5d7 d33c
00000250: 43c6 ea3b 94a2 93bb 86cb 8a3c 914c ea3d
00000260: c4c0 153c 514e 88bf 82bf 483e f6d9 29bf
00000270: 6b53 f6be fe8f 863d 7ebc 39bf 5cd0 fc3d
00000280: 8ea7 143e 2d63 25bf d3f7 383e 90c6 283e
00000290: 16ac 07bf 23df 063e df79 13be aa73 2abf
000002a0: 0672 043e ad53 45bf 63bc cebe 19c1 d13d
000002b0: b5f5 0a3b 0279 30bf 29bc e9be def0 41bf
000002c0: 0d9a 3fbf 1da7 ae3d 5c58 b3ba 2f3e 56be
000002d0: 7fba b83d 7204 fd3d 5dca 9e3c 5d2a 6a3d
000002e0: 1483 fdbc bde8 203e 085d f2be fc25 75bd
000002f0: 0995 76bf efc3 103d 5b10 733d 1a96 e73d
00000300: fe7a 6a3d 0215 db3d 4be2 703d bc3b 74bf
00000310: a841 3abf 7826 663d 20f3 0b3d 9aa8 8a3c
00000320: 4ac6 28be f86d 8d3d bbd0 883d 7c25 89bd
00000330: 4f83 683d 9a4e f33b fdc0 8e3b 8589 c73d
00000340: dc52 c53d 9758 b1be 6562 c83c 6c88 61bc
00000350: 122c eebe a07d 9abf 0cc4 5dbf 8b47 9dbf
00000360: a9b2 1e3d 0bf0 1bbd 8a44 77bb ae86 e73e
00000370: 2afb 86bc c8c9 0dbe b58d 003c fcfe 8a3c
00000380: bc54 afbd e3f3 ba3e ba75 113d 0153 24bf
00000390: 39a9 a4be 1743 2d3e b42a 543e 10fa d0bb
000003a0: bf30 1cbc 87e6 deba 2089 4ebf c9ba 043e
000003b0: a9ae 293e 17c5 2e3e 4792 193d 6356 5b3e
000003c0: 9230 14bf 5a3b 37bf 0d37 543e 7425 14be
000003d0: eb7d eebe 25f3 d6be 6bf9 193d 7cd4 f8be
000003e0: 0a4c a0bd 1e32 073e dde8 a13d 80ed 05be
000003f0: 4ecf 74bf ba12 66bf 0e84 4cbf a255 6bbf

conv_layers.0.1.weight f4 [16]
0.50385237 1.1974579 1.5766667 1.0866095 0.66237426 1.5417283 1.2976222 0.5169614
1.4564347 1.562259 1.0190474 1.1599516 0.68377477 0.97053665 1.9429427 0.5030785
00000000: 78fc 003f 4d46 993f 37d0 c93f 0516 8b3f
00000010: 5c91 293f 5a57 c53f 7c18 a63f 9557 043f
00000020: 746c ba3f 1af8 c73f 2570 823f 4b79 943f
00000030: dd0b 2f3f 1775 783f 59b2 f83f c1c9 003f

conv_layers.0.1.bias f4 [16]
-0.11709906 0.117183805 -0.13261461 -0.19612445 -0.086200066 -0.1234758 -0.19286434 -0.08610215
-0.2662827 -0.16582361 -1.0832943 0.32804424 0.11375942 -0.35312578 -0.08210713 0.15313898
00000000: a2d1 efbd 10fe ef3d 20cc 07be d9d4 48be
00000010: a989 b0bd e1e0 fcbd 3b7e 45be 5356 b0bd
00000020: 3556 88be aacd 29be 63a9 8abf 6af5 a73e
00000030: b3fa e83d e7cc b4be c827 a8bd 77d0 1c3e

conv_layers.0.1.running_mean f4 [16]
0.0012290645 -0.001922713 -0.0043751835 -0.0015311396 -0.0006697333 -0.0028679173 -0.0024545095 0.002300726
-0.0029884428 -0.0036929224 -0.0017641309 -0.003929454 -0.00010148287 -0.0021152117 -0.0030573527 -0.0005992486
00000000: 9018 a13a 8b03 fcba b35d 8fbb 85b0 c8ba
00000010: 0a91 2fba abf3 3bbb d6db 20bb c7c7 163b
00000020: c0d9 43bb f504 72bb 693a e7ba a6c2 80bb
00000030: 33d3 d4b8 5d9f 0abb de5d 48bb e516 1dba

conv_layers.0.1.running_var f4 [16]
0.00013177567 0.0004611385 0.00079767796 0.00019569612 0.000121373 0.00066841976 0.0004903631 0.00016927526
0.0006355212 0.0007050555 0.0004529378 0.001009145 0.00015124472 0.00029123243 0.00043746465 0.00013650469
00000000: 432d 0a39 f6c4 f139 431b 513a c733 4d39
00000010: a289 fe38 e438 2f3a b68b 003a 7b7f 3139
00000020: 1b99 263a 79d3 383a 4878 ed39 4a45 843a
00000030: 7297 1e39 8eb0 9839 835b e539 b322 0f39

conv_layers.2.0.conv.weight f4 [32, 16, 3, 3]
0.23840426 0.06394021 0.1330709 -0.26018488 -0.19106829 -0.020401543 -0.6306753 -0.035806026
-0.12655543 0.56708926 0.11337425 0.06616143 0.014973792 -0.08824209 -0.005215038 0.29843932
0.07197545 -0.07443937 0.0011510444 0.0963736 -0.09513434 -0.006921754 -0.0389432 0.28671122
-0.054942317 0.06907678 0.21175316 0.43841586 -0.13213272 0.03676219 -0.15224035 -0.11365291
0.15118323 -0.08837192 -0.12743683 -0.0018034339 -0.13046877 -0.034183852 -0.020090107 -0.3471282
0.071171306 -0.017478423 -0.32988164 -0.07176274 -0.022181524 0.72371554 -0.18381211 -0.20365809
-0.00917312 -0.13481234 0.115123674 -0.037054103 0.016596982 0.15115908 0.4575741 -0.2860274
0.06653317 0.120181315 0.14089623 0.028832948 0.08289959 0.18990915 0.0067193704 0.0058178883
-0.31926793 -0.12196041 -0.2906849 -0.023371885 0.021886436 -0.21738936 -0.13485007 -0.05660025
0.6832154 -0.10669591 -0.28496596 -0.09576034 -0.010443658 -0.05563681 0.102107435 0.124946795
-0.06185995 0.66785216 -0.14570282 -0.10454213 -0.021769857 0.021332847 0.2743705 -0.23218204
-0.048498362 -0.0698859 0.037260443 -0.5412909 -0.35766348 -0.07693368 -0.06355265 -0.23328207
-0.06275432 -0.12891337 -0.13864177 0.434448 -0.47852236 -0.25269064 6.1138475e-05 0.07581761
0.06269886 -0.10562519 -0.04561377 -0.03055965 0.5094036 -0.067350514 -0.44734174 -0.0114617525
-0.0006120655 0.05024473 -0.29622886 0.26169926 0.008454135 0.011955318 -0.075718954 -0.2575988
0.27280492 -0.201226 0.042562317 -0.19470848 0.15103355 0.054236796 -0.42739886 -0.12682013
-0.1872431 -0.11122933 -0.009159049 0.1615576 0.21303457 0.032849845 -0.04232282 0.3285888
-0.28061852 0.05308334 -0.11810326 0.13016225 0.048946347 0.044408314 -0.030269828 0.0026134502
-0.76402175 -0.3794278 -0.23981266 -0.19715425 -0.056302927 -0.11058875 0.051438034 0.12336407
0.07494332 0.37562907 0.21345676 -0.02314132 -0.04803798 -0.037654527 -0.2338415 0.16200267
-0.08827857 -0.1648582 -0.20058866 -0.004554792 -0.17163685 -0.019145489 -0.2021193 -0.17602453
-0.042499855 -0.0054191235 -0.0810622 -0.69248563 -0.029543083 -0.06225952 -0.3004149 0.34849533
0.07037628 0.16766456 0.11360639 0.29324725 -0.5259834 -0.27498654 0.005161688 0.06735973
0.1940597 0.17562371 0.08063656 0.06231752 0.08228197 -0.4408349 0.54354894 0.44669503
0.032568682 -0.2576956 -0.033247538 0.47620696 -0.03225467 -0.02237603 -0.13794743 0.10404118
0.46408886 -0.11340564 -0.0037198246 -0.29411492 0.47857141 -0.15335856 -0.07106979 -0.37730852
-0.0720264 -0.11228802 -0.054222643 -0.02237966 0.007150111 0.08385161 0.095262244 0.0057069203
-0.29854643 0.009857416 0.1817803 -0.23691538 0.2010715 0.014019776 0.2600749 -0.31146714
-0.10801301 -0.481446 0.12853049 0.3149015 -0.40534014 -0.20606218 -0.424974 -0.024219472
-0.09306054 -0.039668795 -0.11157993 -0.24016875 0.053265493 -0.086524725 -0.18922555 -0.118202396
-0.047174104 -0.12472165 0.023379266 0.18561818 0.058493223 -0.056335896 -0.17715017 -0.022771519
-0.23400593 -0.19547616 -0.1993735 0.17357449 -0.72025895 -0.2112545 0.02500406 -0.2796867
00000000: 3f20 743e 16f3 823d bd43 083e f436 85be
00000010: 68a7 43be 2321 a7bc f073 21bf 57a9 12bd
00000020: bf97 01be c32c 113f c230 e83d a57f 873d
00000030: a354 753c 45b8 b4bd e9e2 aabb 0acd 983e
00000040: dd67 933d ab73 98bd a4de 963a 865f c53d
00000050: cbd5 c2bd e2cf e2bb e882 1fbd d0cb 923e
00000060: 320b 61bd 2078 8d3d d2d5 583e 0b78 e03e
00000070: cd4d 07be f393 163d e5e4 1bbe dbc2 e8bd
00000080: c7cf 1a3e 56fc b4bd cd7e 02be 3361 ecba
00000090: 9b99 05be 5e04 0cbd 0294 a4bc caba b1be
000000a0: 43c2 913d e92e 8fbc 3fe6 a8be 58f8 92bd
000000b0: 07b6 b5bc 6c45 393f 3e39 3cbe bf8b 50be
000000c0: db4a 16bc 3f0c 0abe f6c5 eb3d 0bc6 17bd
000000d0: 65f6 873c 72c9 1a3e 2747 ea3e 2f72 92be
000000e0: 8b42 883d 9f21 f63d 1a47 103e 1333 ec3c
000000f0: 43c7 a93d 8b77 423e 2a2e dc3b fca3 be3b
00000100: 1677 a3be 61c6 f9bd a7d4 94be 6576 bfbc
00000110: 2f4b b33c 519b 5ebe 2316 0abe aad5 67bd
00000120: 34e7 2e3f 6383 dabd 0fe7 91be ff1d c4bd
00000130: e01b 2bbc 6ce3 63bd b41d d13d 1be4 ff3d
00000140: dc60 7dbd 5cf8 2a3f 1f33 15be 2f1a d6bd
00000150: b356 b2bc 39c2 ae3c 4a7a 8c3e 21c1 6dbe
00000160: 38a6 46bd 5720 8fbd 689e 183d 0a92 0abf
00000170: ab1f b7be 688f 9dbd e427 82bd 7fe1 6ebe
00000180: 5685 80bd de01 04be 1cf8 0dbe f86f de3e
00000190: e200 f5be ab60 81be 7837 8038 4346 9b3d
000001a0: 4368 803d 0552 d8bd 81d5 3abd 3b58 fabc
000001b0: 4668 023f 11ef 89bd fa09 e5be 13ca 3bbc
000001c0: 0573 20ba 6bcd 4d3d 4fab 97be 72fd 853e
000001d0: 3683 0a3c 3de0 433c 8a12 9bbd fde3 83be
000001e0: 16ad 8b3e 300e 4ebe d355 2e3d a961 47be
000001f0: 8aa8 1a3e 6727 5e3d 06d4 dabe 23dd 01be
00000200: a8bc 3fbe 34cc e3bd d60f 16bc 5b6f 253e
00000210: bc25 5a3e 8f8d 063d b15a 2dbd cb3c a83e
00000220: 3bad 8fbe eb6d 593d 1fe0 f1bd 4149 053e
00000230: f77b 483d 7ee5 353d 6ef8 f7bc 6b46 2b3b
00000240: ee96 43bf 5c44 c2be 7391 75be cee2 49be
00000250: e69d 66bd 5b7c e2bd b0b0 523d 4da6 fc3d
00000260: e27b 993d 7452 c03e 6994 5a3e de92 bdbc
00000270: 79c3 44bd a23b 1abd 2574 6fbe 07e4 253e
00000280: 65cb b4bd 97d0 28be 1d67 4dbe 5d40 95bb
00000290: 92c1 2fbe 00d7 9cbc 5df8 4ebe c63f 34be
000002a0: 5414 2ebd e792 b1bb f003 a6bd bd46 31bf
000002b0: 5604 f2bc d703 7fbd fbcf 99be fb6d b23e
000002c0: 7021 903d 42b0 2b3e 78aa e83d 8124 963e
000002d0: d9a6 06bf 09cb 8cbe 6123 a93b e6f3 893d
000002e0: 96b7 463e b4d6 333e c824 a53d a840 7f3d
000002f0: 7383 a83d 1db5 e1be 0626 0b3f 36b5 e43e
00000300: bd66 053d adf0 83be 922e 08bd 66d1 f33e
00000310: 791d 04bd f04d b7bc 1742 0dbe 8b13 d53d
00000320: 0e9d ed3e 3741 e8bd 4dc8 73bb 3b96 96be
00000330: 5007 f53e 070a 1dbe 0a8d 91bd 952e c1be
00000340: 9482 93bd 43f7 e5bd 9018 5ebd 8c55 b7bc
00000350: 7a4b ea3b 65ba ab3d da18 c33d 1e01 bb3b
00000360: 14db 98be 0081 213c 9d24 3a3e f299 72be
00000370: b0e5 4d3e 34b3 653c 8a28 853e 9f78 9fbe
00000380: ed35 ddbd 1780 f6be 7f9d 033e c53a a13e
00000390: be88 cfbe f701 53be 3196 d9be ea67 c6bc
000003a0: 8696 bebd bf7b 22bd 0584 e4bd ccee 75be
000003b0: eb2c 5a3d e033 b1bd 58c4 41be 1914 f2bd
000003c0: a239 41bd 106e ffbd e085 bf3c b112 3e3e
000003d0: 9796 6f3d 78c0 66bd db66 35be 568b babc
000003e0: 409f 6fbe e72a 48be 9128 4cbe 83bd 313e
000003f0: e462 38bf 1a53 58be 50d5 cc3c 1833 8fbe

conv_layers.2.1.weight f4 [32]
0.90467054 0.9044875 0.8505442 0.48558003 0.5277647 0.97438234 1.2144396 0.9015537
0.68740976 1.118793 0.8398013 1.1692592 1.240693 0.9685176 0.99607503 1.0270041
0.9985098 0.78729546 1.1652212 1.173032 1.1593182 0.8872717 0.9228528 0.83818513
0.5083388 1.1376061 1.0286851 0.7561749 1.0701102 0.7968192 0.89977807 0.95968527
00000000: 7d98 673f 7e8c 673f 44bd 593f f29d f83e
00000010: 961b 073f 1f71 793f c272 9b3f 39cc 663f
00000020: 16fa 2f3f 9c34 8f3f 38fd 563f 49aa 953f
00000030: 07cf 9e3f c5f0 773f c6fe 7e3f df74 833f
00000040: 579e 7f3f 328c 493f f825 953f ea25 963f
00000050: 8a64 943f 3d24 633f 1540 6c3f 4d93 563f
00000060: 7e22 023f 149d 913f f4ab 833f ae94 413f
00000070: 5ff9 883f 58fc 4b3f db57 663f efad 753f

conv_layers.2.1.bias f4 [32]
-0.17136228 -0.25856727 -2.3954775 -0.005565831 -0.3828695 0.33604005 0.036442928 -0.5726576
-0.20970607 0.10383371 0.6495215 -0.24707189 0.09199133 0.48208085 0.29877803 -0.29265413
0.022525754 -0.3828825 -0.25926405 -0.02090216 0.03815073 0.1749039 -0.4971918 0.49556687
-0.940231 -0.3275586 -0.21935585 -0.91083574 -0.07406494 0.19029559 -0.34914023 -0.57196856
00000000: 9879 2fbe ee62 84be 814f 19c0 9361 b6bb
00000010: 7907 c4be 710d ac3e 2e45 153d b099 12bf
00000020: 30bd 56be c5a6 d43d 0b47 263f 6a00 7dbe
00000030: f365 bc3d 4dd3 f63e 6ff9 983e c3d6 95be
00000040: ee87 b83c 2d09 c4be 42be 84be 023b abbc
00000050: f143 1c3d 021a 333e ec8f febe f1ba fd3e
00000060: fbb2 70bf c3b5 a7be d29e 60be 882c 69bf
00000070: 5caf 97bd d9dc 423e 82c2 b2be 886c 12bf

conv_layers.2.1.running_mean f4 [32]
0.09085225 -0.19560793 -2.7949924 0.1841733 -0.5515663 -0.26029584 -0.51087314 -0.6422632
-0.13845608 -0.31335056 -0.032804243 -0.14113 -0.0582801 -0.12053304 -0.010745795 -0.13905218
-0.14830852 -0.27962145 -0.04120229 -0.37736923 -0.21391477 -0.07804137 -0.11379967 -0.14143595
-0.9581043 -0.00063093286 -0.22994868 -1.2884996 0.005906971 -0.07051901 -0.1080575 -0.22151633
00000000: bf10 ba3d 724d 48be 28e1 32c0 ed97 3c3e
00000010: 7333 0dbf 7f45 85be 95c8 02bf 5c6b 24bf
00000020: 6ec7 0dbe 7c6f a0be be5d 06bd 6284 10be
00000030: 1db7 6ebd 07da f6bd 220f 30bc b263 0ebe
00000040: 30de 17be 8b2a 8fbe bcc3 28bd 8a36 c1be
00000050: 790c 5bbe 27d4 9fbd cd0f e9bd 96d4 10be
00000060: 5346 75bf 3065 25ba ab77 6bbe 8eed a4bf
00000070: 448f c13b 456c 90bd 404d ddbd 2dd5 62be

conv_layers.2.1.running_var f4 [32]
0.47167096 1.0020896 0.6513862 0.3261343 0.42008334 1.2528338 1.2167966 0.5545036
0.39453876 1.0798771 0.95583147 0.78831947 0.98160964 0.9733829 1.6768988 0.59639907
0.8218488 0.30325183 0.7336331 1.4312351 1.2832891 0.96069306 0.30116898 0.53166014
0.24086311 0.72160566 0.7353312 0.23465356 0.87160224 0.6463782 0.49725023 0.5392757
00000000: db7e f13e 7944 803f 3fc1 263f 13fb a63e
00000010: 2a15 d73e dc5c a03f febf 9b3f f3f3 0d3f
00000020: fc00 ca3e 6a39 8a3f 5fb1 743f 4ecf 493f
00000030: c54a 7b3f 9f2f 793f 9fa4 d63f 9cad 183f
00000040: af64 523f d343 9b3e 61cf 3b3f b632 b73f
00000050: d142 a43f fbef 753f d232 9a3e e11a 083f
00000060: d2a4 763e 26bb 383f aa3e 3c3f 0649 703e
00000070: 5321 5f3f 0b79 253f 9597 fe3e f90d 0a3f

conv_layers.4.0.conv.weight f4 [32, 32, 3, 3]
0.22422384 -0.16103657 0.064635195 0.09985406 0.05353212 -0.11227337 -0.04806271 -0.0806055
-0.079656065 0.044095527 -0.045313943 0.05574532 0.005339256 -0.035419848 -0.050675727 0.25388724
-0.01841401 0.19893791 -0.21755882 -0.036460392 -0.31443125 -0.117081575 -0.06699703 -0.42200717
-0.19709505 -0.20351075 -0.7085156 0.055788 0.08049302 0.14498831 -0.072097994 -0.064577855
-0.009314774 0.08944016 0.06950509 0.18644042 0.1712937 -0.30134493 -0.007927347 -0.07108214
-0.11118826 -0.20863822 0.11028777 -0.097785346 0.011712394 0.10826638 0.0062596533 0.27570534
-0.09641223 -0.022284409 0.29443362 0.17003709 0.08244893 0.51539767 -0.14680639 -0.03601657
-0.21797833 -0.39307487 0.055752587 -0.2658671 0.07207583 -0.17230952 -0.54202914 -0.15558243
-0.026112972 0.0954114 0.11430557 0.15817012 -0.016557466 -0.010568632 -0.09748482 -0.47230953
0.06638452 0.03290014 0.21799919 -0.064541765 -0.15781209 0.098092325 0.12320751 -0.085281834
0.16329762 -0.2209345 0.038159885 0.34452057 -0.007190528 0.14012651 0.23843722 -0.07100044
-0.18897623 0.24447991 0.08389546 -0.16867311 -0.3101832 -0.00397326 0.13648465 -0.08946792
0.24159186 0.04523719 0.100337036 0.09203518 0.22128735 0.18292256 0.036999118 0.24149737
-0.051668435 0.31962562 -0.054210886 0.45050728 -0.54465145 -0.15936004 -0.21050528 -0.2804808
-0.040048234 -0.34935492 0.31640425 0.2525513 -0.2503162 0.23946814 -0.050274875 -0.028708747
0.22266284 0.34647918 0.15317942 0.09954008 -0.010575329 0.53394103 0.120317176 0.36537358
0.27742392 -0.10320445 -0.034010485 0.058214854 -0.09489051 -0.101771116 -0.051450215 0.1910667
0.054542653 0.20871085 0.10306416 0.13637915 0.10929345 0.17515512 -0.105607115 0.5010968
0.0224673 -0.006826259 0.17618193 -0.11438388 0.2733269 -0.09523756 0.13603157 0.08774283
0.30848175 0.14616084 0.020255055 0.21908462 -0.010937496 -0.052882936 0.14997911 0.100719705
-0.09755485 0.47124904 0.20343304 -0.19047602 0.27613816 0.23595493 0.19508941 -0.06575517
0.42876536 0.36111003 0.26845902 0.1611333 0.12694964 0.23656848 0.2069269 0.19426416
0.09981074 0.45827028 0.22969937 0.6688409 0.16164996 0.1184617 0.27834198 0.034517188
0.05465405 -0.18307069 -0.17393652 -0.11943693 0.27857408 0.09621981 -0.03699908 0.08348929
0.040983092 0.17429589 0.19218245 0.17741399 0.36973265 0.62956953 -0.086731955 -0.09516901
0.34574604 0.10481914 0.027872011 0.02998741 0.25273257 0.23233353 0.31188846 -0.35603732
-0.29292905 -0.025308628 -0.13131124 -0.092595674 -0.17620373 -0.5340181 -0.27466026 -0.4368352
-0.3635301 -0.018428555 -0.14800869 -0.008964516 0.113947034 -0.06278328 -0.23508044 -0.2209176
-0.43072343 0.27059853 0.120106794 0.019290725 0.02475104 -0.005082339 0.08958669 0.2722944
0.357171 0.8376019 -0.02564668 0.03014538 0.051155865 -0.17457668 0.06675807 0.034726165
0.14567864 -0.09164291 0.29271102 0.1373519 0.09491602 0.13051853 0.14507939 -0.03225826
-0.17836028 -0.12966141 -0.051377945 -0.08911122 0.33511698 -0.1588066 0.7451347 0.08654565
00000000: ef9a 653e c5e6 24be 755f 843d 4980 cc3d
00000010: 7f44 5b3d 95ef e5bd 67dd 44bd 7f14 a5bd
00000020: b822 a3bd 839d 343d 1d9b 39bd 3455 643d
00000030: edf4 ae3b 6714 11bd 5a91 4fbd 82fd 813e
00000040: fad8 96bc 61b6 4b3e bdc7 5ebe 7e57 15bd
00000050: 22fd a0be 77c8 efbd bd35 89bd 5311 d8be
00000060: 49d3 49be 1f65 50be 4761 35bf f581 643d
00000070: 86d9 a43d d177 143e 1da8 93bd 6541 84bd
00000080: fe9c 18bc 672c b73d af58 8e3d 3dea 3e3e
00000090: 9e67 2f3e e249 9abe b4e1 01bc 8393 91bd
000000a0: acb6 e3bd 42a5 55be 8ede e13d af43 c8bd
000000b0: 57e5 3f3c c4ba dd3d c71d cd3b 4029 8d3e
000000c0: c673 c5bd cb8d b6bc 01c0 963e 341e 2e3e
000000d0: fcda a83d 1af1 033f 6a54 16be 1c86 13bd
000000e0: b635 5fbe 1c41 c9be d35c 643d bc1f 88be
000000f0: 7e9c 933d e871 30be 6cc2 0abf 0051 1fbe
00000100: dfea d5bc 0d67 c33d 0a19 ea3d 59f7 213e
00000110: 86a3 87bc 0e28 2dbc 1fa6 c7bd 8ed2 f1be
00000120: 9bf4 873d 4cc2 063d 2e3b 5f3e 792e 84bd
00000130: 7e99 21be a1e4 c83d 3854 fc3d 3ea8 aebd
00000140: 7e37 273e a73c 62be 8a4d 1c3d 0065 b03e
00000150: 859e ebbb 537d 0f3e e328 743e ae68 91bd
00000160: fc82 41be f158 7a3e 62d1 ab3d a5b8 2cbe
00000170: 55d0 9ebe 1f32 82bb a2c2 0b3e f53a b7bd
00000180: db63 773e a24a 393d 817d cd3d f17c bc3d
00000190: 2799 623e 0d50 3b3e 638c 173d 164b 773e
000001a0: 48a2 53bd f8a5 a33e 3c0c 5ebd e4a8 e63e
000001b0: 476e 0bbf 472f 23be b28e 57be 2e9b 8fbe
000001c0: 9e09 24bd a6de b2be bdff a13e 674e 813e
000001d0: 7229 80be 2337 753e 07ed 4dbd 9b2e ebbc
000001e0: ba01 643e b865 b13e 11db 1c3e abdb cb3d
000001f0: 2544 2dbc 5cb0 083f da68 f63d 3f12 bb3e
00000200: 820a 8e3e db5c d3bd 944e 0bbd b372 6e3d
00000210: f555 c2bd 606d d0bd 76bd 52bd fda6 433e
00000220: 1e68 5f3d 4cb8 553e 4d13 d33d faa6 0b3e
00000230: 3fd5 df3d dd5b 333e 8b48 d8bd e147 003f
00000240: 580d b83c d0ae dfbb 0969 343e 1842 eabd
00000250: 81f1 8b3e e90b c3bd dc4b 0b3e 83b2 b33d
00000260: 52f1 9d3e 30ab 153e eeed a53c b857 603e
00000270: 2f33 33bc c79b 58bd 2094 193e 2246 ce3d
00000280: d6ca c7bd 8e47 f13e c050 503e 250c 43be
00000290: fb61 8d3e 2b9e 713e 85c5 473e a6aa 86bd
000002a0: 2287 db3e 6ae3 b83e 7673 893e 2100 253e
000002b0: 16ff 013e 023f 723e a5e4 533e 2fed 463e
000002c0: 9369 cc3d 67a2 ea3e 5036 6b3e 2839 2b3f
000002d0: 9187 253e 0c9c f23d d782 8e3e e561 0d3d
000002e0: eddc 5f3d e276 3bbe 6a1c 32be 599b f4bd
000002f0: 43a1 8e3e e40e c53d 598c 17bd 6ffc aa3d
00000300: e3dd 273d 9f7a 323e 7acb 443e 03ac 353e
00000310: 994d bd3e 782b 213f 86a0 b1bd f8e7 c2bd
00000320: a005 b13e 6bab d63d d853 e43c 28a8 f53c
00000330: 2a66 813e d7e8 6d3e d8af 9f3e 864a b6be
00000340: ccfa 95be 0a54 cfbc 7476 06be cda2 bdbd
00000350: c06e 34be 69b5 08bf 45a0 8cbe dda8 dfbe
00000360: 9e20 babe 7bf7 96bc 978f 17be e8df 12bc
00000370: 105d e93d 8594 80bd edb8 70be 3938 62be
00000380: c887 dcbe e48b 8a3e 8dfa f53d 9507 9e3c
00000390: b1c2 ca3c c089 a6bb 3a79 b73d 2c6a 8b3e
000003a0: 1edf b63e 146d 563f fc18 d2bc 72f3 f63c
000003b0: d088 513d 3bc4 32be 74b8 883d 063d 0e3d
000003c0: c82c 153e 47af bbbd 38de 953e faa5 0c3e
000003d0: 5563 c23d a6a6 053e b18f 143e 3d21 04bd
000003e0: 14a4 36be f6c5 04be ae71 52bd f17f b6bd
000003f0: 7494 ab3e 339e 22be 26c1 3e3f d93e b13d

conv_layers.4.1.weight f4 [32]
0.5766598 0.7615807 1.1204499 0.7739864 0.78020835 0.770622 0.7116653 1.0235792
1.2269009 1.1856169 0.71180075 0.9971072 1.1350523 0.9550049 0.7469163 0.6543772
0.6514722 0.8949942 1.156638 0.94813913 0.6241339 0.5242974 0.6107008 0.55054575
0.8130096 0.7135447 0.9613112 1.0830824 0.5949738 1.1342565 1.2368201 1.0044991
00000000: fa9f 133f f4f6 423f e76a 8f3f f923 463f
00000010: bcbb 473f 7c47 453f b22f 363f a504 833f
00000020: 170b 9d3f 4bc2 973f 9338 363f 6b42 7f3f
00000030: 6549 913f 337b 743f e835 3f3f 4485 273f
00000040: e2c6 263f 571e 653f b70c 943f 3fb9 723f
00000050: 3dc7 1f3f 5b38 063f e356 1c3f 91f0 0c3f
00000060: 6621 503f deaa 363f 7e18 763f 72a2 8a3f
00000070: 3450 183f 512f 913f 1f50 9e3f 6d93 803f

conv_layers.4.1.bias f4 [32]
-0.7245428 -0.12912847 -1.4285461 0.667378 0.12568109 0.55412906 0.2461297 -0.49311233
-1.343653 -0.2379516 -1.0279527 -0.5950523 -1.0521083 -0.87242204 -0.569596 -0.46270356
-0.31121358 -0.32933432 -0.97305554 -0.65080327 0.6189773 -0.5011797 -0.008618986 1.399103
-0.2300876 0.124517284 -0.11533482 -0.8750013 -0.868688 -1.604102 -0.6053532 -0.12828101
00000000: a37b 39bf 413a 04be 99da b6bf 49d9 2a3f
00000010: 8bb2 003e 67db 0d3f 6d09 7c3e 3879 fcbe
00000020: d2fc abbf 96a9 73be f493 83bf 5955 18bf
00000030: 7cab 86bf 0d57 5fbf 0bd1 11bf 7be7 ecbe
00000040: 6357 9fbe 829e a8be 2b1a 79bf 0b9b 26bf
00000050: 4c75 1e3f 504d 00bf a636 0dbc cf15 b33f
00000060: 159c 6bbe eb02 ff3d a934 ecbd 1600 60bf
00000070: 5662 5ebf 3753 cdbf 6df8 1abf 195c 03be

conv_layers.4.1.running_mean f4 [32]
1.7691913 0.81016725 1.3175952 -1.2681522 -1.620427 -1.0798367 -1.8183429 -0.31045696
1.3679665 -0.12923431 2.7240286 -0.032512 -0.2841445 0.094650574 1.0349784 3.3617604
3.156886 -0.9664429 -1.0593126 -2.0313988 -1.1020674 1.9391592 0.6615637 -3.4399014
-1.4963156 -1.6558393 -0.405455 0.8814505 -2.8850248 2.4285135 1.1652405 -1.0515348
00000000: dc74 e23f 1f67 4f3f f6a6 a83f d052 a2bf
00000010: 276a cfbf 1738 8abf 76bf e8bf 37f4 9ebe
00000020: 8719 af3f 0056 04be 7c56 2e40 4e2b 05bd
00000030: 637b 91be 29d8 c13d 2c7a 843f 1527 5740
00000040: 6c0a 4a40 cd68 77bf 8e97 87bf 7002 02c0
00000050: 8b10 8dbf 5e36 f83f 3d5c 293f 5827 5cc0
00000060: 4587 bfbf 8bf2 d3bf cc97 cfbe bda6 613f
00000070: 3fa4 38c0 c46c 1b40 9a26 953f b198 86bf

conv_layers.4.1.running_var f4 [32]
0.69982105 0.97869205 1.4059657 1.4781369 0.8929692 1.3126816 1.3966722 1.1550395
1.5823369 2.4732068 0.72945803 2.2106638 0.7049 0.82719713 0.81380594 0.998221
0.69678706 1.3804839 1.1192795 1.7659469 1.2020792 0.58713853 1.176625 1.9607227
1.0194187 2.0614486 1.0364088 0.8870146 0.6835822 1.3989391 2.3046603 2.361175
00000000: 7927 333f 908b 7a3f aff6 b33f 9733 bd3f
00000010: a199 643f f305 a83f 28c6 b23f 56d8 933f
00000020: 048a ca3f 0549 1e40 c3bd 3a3f 847b 0d40
00000030: 5474 343f 31c3 533f 9655 503f 698b 7f3f
00000040: a360 323f b2b3 b03f 8d44 8f3f 8c0a e23f
00000050: bbdd 993f b64e 163f a69b 963f f6f8 fa3f
00000060: 507c 823f c6ee 0340 0ba9 843f 6413 633f
00000070: 3eff 2e3f 7010 b33f 8e7f 1340 7e1d 1740

conv_layers.5.0.conv.weight f4 [32, 32, 3, 3]
0.022315469 0.020209879 0.085172266 -0.054607853 -0.021411346 0.1407769 0.1289951 -0.015836846
0.20077752 0.40445903 -0.013702134 0.06308018 -0.01748755 0.0042324876 0.19234143 -0.15964118
0.0135706095 -0.0070849643 -0.3520956 -0.24725412 -0.4015479 -0.35283688 -0.21156798 -0.31131095
-0.645772 -0.3984039 -0.3032296 -0.24521858 -0.050535902 -0.019396717 -0.4378992 -0.27637613
-0.19973126 -0.43805465 -0.19093886 -0.30355832 0.24403115 0.28766608 0.35278165 -0.08878506
-0.16838 0.070914984 -0.25980487 -0.07424065 -0.027193539 -0.13027756 0.11380478 -0.046263017
-0.27022842 0.0028555715 -0.04774416 -0.4701694 -0.2391093 -0.17920353 -0.23237541 -0.07737889
-0.123799086 -0.11221592 -0.025761096 -0.15272628 -0.42868283 -0.2506034 -0.2008465 -0.21797583
-0.060967132 -0.14859237 -0.16784641 -0.040599957 -0.046298925 -0.043368936 -0.045749065 0.25654376
-0.11906801 -0.2541539 -0.30082396 -0.27838767 -0.3039611 -0.2316637 -0.4024164 -0.27635118
-0.298176 -0.16278988 -0.062110018 -0.11332248 -0.11389087 -0.046131834 -0.24262151 -0.20912586
-0.13321048 -0.322279 0.28465152 0.05702176 0.2266396 0.058156773 -0.09996688 -0.068832956
0.056990404 -0.12502824 -0.062401738 0.12196334 -0.030268965 -0.04666737 0.05526338 0.048792206
0.03618014 0.10319209 -0.032992914 0.091642186 -0.06402546 -0.12317834 -0.030797115 0.047140583
0.23621516 0.121980995 0.015433963 0.11796581 0.075104006 -0.3173741 -0.087537155 -0.23152906
-0.27166024 -0.1299071 -0.07405949 -0.13044307 -0.11792433 -0.2765645 0.35009685 0.036034234
0.2842595 0.28795794 0.0640357 0.13970886 0.36494616 -0.11748982 -0.013478686 0.21124837
0.17731676 0.12876377 0.22654076 0.158914 0.11118482 0.36257344 0.16352633 0.19774471
0.1650719 0.16367875 0.26058304 0.08254562 0.011540279 0.15587902 0.114242986 0.09864739
0.2723651 0.28689322 0.05061497 -0.052582536 0.11735391 -0.019487057 -0.2738028 0.30825844
0.122223645 -0.3256186 -0.5025136 -0.4802549 -0.5377362 0.048015736 -0.07957684 -0.029635485
0.19916192 0.04341735 -0.09777293 -0.15072513 -0.093171164 -0.2955319 -0.21332584 -0.17938979
-0.31500545 -0.0009019516 -0.025359118 -0.10864037 0.27176082 0.29088512 0.15480758 0.11194638
0.1501485 0.084493555 0.07441028 0.08718834 0.014658456 0.07929157 0.20007068 0.2292818
0.06945591 0.1867988 0.17945918 0.07432997 0.12007571 0.4010904 -0.103923775 -0.13950199
0.20540161 -0.09485059 -0.21637216 -0.076546125 0.09683993 -0.03817821 -0.08854549 -0.08100574
-0.14598806 0.07016576 -0.25505784 -0.32956934 -0.09493033 -0.16544804 -0.29961312 -0.046702538
0.0075648287 0.27547917 0.025134083 -0.15517245 0.10759171 0.05349648 -0.3190077 -0.14074028
0.014312941 0.4759879 0.51007605 0.24911623 0.20955415 0.26714495 0.1530169 -0.06661496
-0.029412752 -0.016773934 -0.26513368 -0.2181553 -0.15840167 -0.17719854 -0.19455387 0.08736906
0.034421522 -0.009554254 0.5858918 -0.30332288 -0.2968869 -0.21258384 -0.29785857 -0.1942062
-0.26111874 -0.3024286 -0.34998876 -0.06396253 -0.24161032 -0.14815518 -0.31668788 -0.21267033
00000000: eece b63c 308f a53c cc6e ae3d 7cac 5fbd
00000010: d966 afbc d227 103e 4b17 043e 46bc 81bc
00000020: 9f98 4d3e 4115 cf3e ea7e 60bc 2e30 813d
00000030: 0d42 8fbc aeb0 8a3b 27f5 443e fa78 23be
00000040: 4357 5e3c fd28 e8bb e045 b4be 2f30 7dbe
00000050: b097 cdbe 09a7 b4be 47a5 58be 2664 9fbe
00000060: 5051 25bf 99fb cbbe e940 9bbe 941a 7bbe
00000070: bcfe 4ebd dde5 9ebc 5334 e0be 2c81 8dbe
00000080: 5a86 4cbe b348 e0be 7a85 43be ff6b 9bbe
00000090: 4de3 793e f848 933e cc9f b43e f1d4 b5bd
000000a0: cf6b 2cbe e03b 913d 2505 85be 7b0b 98bd
000000b0: fcc4 debc 7b67 05be 7b12 e93d 4a7e 3dbd
000000c0: 615b 8abe 8a24 3b3b 618f 43bd 0bba f0be
000000d0: 11d9 74be 2181 37be d2f3 6dbe d378 9ebd
000000e0: 608a fdbd 76d1 e5bd ef08 d3bc 4764 1cbe
000000f0: 517c dbbe 174f 80be b4aa 4dbe 0e35 5fbe
00000100: acb8 79bd 9928 18be eedf 2bbe 244c 26bd
00000110: f1a3 3dbd a0a3 31bd 5f63 3bbd b459 833e
00000120: eed9 f3bd 7620 82be 9905 9abe d488 8ebe
00000130: caa0 9bbe 4039 6dbe 8609 cebe e77d 8dbe
00000140: 86aa 98be 64b2 26be 1367 7ebd 9e15 e8bd
00000150: 9e3f e9bd bcf4 3cbd c671 78be 1725 56be
00000160: 5468 08be c101 a5be d8bd 913e a68f 693d
00000170: 3614 683e cc35 6e3d 70bb ccbd 4bf8 8cbd
00000180: c56e 693d 6707 00be f798 7fbd eac7 f93d
00000190: 9ff6 f7bc 4926 3fbd db5b 623d 56da 473d
000001a0: a031 143d 6056 d33d 9423 07bd e6ae bb3d
000001b0: c81f 83bd ed44 fcbd 3b4a fcbc 7c16 413d
000001c0: 63e2 713e 2cd1 f93d bcde 7c3c 0f98 f13d
000001d0: 21d0 993d dc7e a2be ae46 b3bd f415 6dbe
000001e0: 0d17 8bbe 5e06 05be 80ac 97bd de92 05be
000001f0: 5082 f1bd dd99 8dbe e53f b33e a298 133d
00000200: 768a 913e 396f 933e 2625 833d d70f 0f3e
00000210: 39da ba3e 819e f0bd b5d5 5cbc 7e51 583e
00000220: 8692 353e a6da 033e 4dfa 673e 5aba 223e
00000230: deb4 e33d 3aa3 b93e 7273 273e 977d 4a3e
00000240: 9c08 293e 679b 273e 246b 853e ae0d a93d
00000250: 7013 3d3c c09e 1f3e 3af8 e93d a507 ca3d
00000260: 7073 8b3e abe3 923e a551 4f3d c960 57bd
00000270: 3f57 f03d 52a3 9fbc e12f 8cbe 0dd4 9d3e
00000280: 6450 fa3d 7bb7 a6be bba4 00bf f8e3 f5be
00000290: 14a9 09bf 26ac 443d 2ff9 a2bd 1ec6 f2bc
000002a0: 1af1 4b3e 64d6 313d 2d3d c8bd b057 1abe
000002b0: 86d0 bebd f54f 97be 1772 5abe f5b1 37be
000002c0: 6548 a1be f270 6cba edbd cfbc d87e debd
000002d0: 3c24 8b3e e5ee 943e e185 1e3e 2544 e53d
000002e0: 87c0 193e f50a ad3d 6b64 983d cd8f b23d
000002f0: 052a 703c 9e63 a23d 54df 4c3e d9c8 6a3e
00000300: e63e 8e3d 2f48 3f3e 26c4 373e 503a 983d
00000310: 41ea f53d b95b cd3e fdd5 d4bd 9cd9 0ebe
00000320: cd54 523e 0741 c2bd aa90 5dbe 37c4 9cbd
00000330: 0354 c63d c160 1cbd 5657 b5bd 56e6 a5bd
00000340: e57d 15be 11b3 8f3d f196 82be 50bd a8be
00000350: d56a c2bd 366b 29be e466 99be 294b 3fbd
00000360: 62e2 f73b 9b0b 8d3e fee5 cd3c 87e5 1ebe
00000370: 0b59 dc3d 201f 5b3d fa54 a3be 381e 10be
00000380: d380 6a3c b0b4 f33e 5894 023f 5318 7f3e
00000390: 5d95 563e 39c7 883e 76b0 1c3e 6d6d 88bd
000003a0: 03f3 f0bc 7d69 89bc 9abf 87be 1a64 5fbe
000003b0: 0c34 22be 8973 35be 2139 47be 8dee b23d
000003c0: 95fd 0c3d 7289 1cbc 01fd 153f 234d 9bbe
000003d0: 8f01 98be 94af 59be eb80 98be fddd 46be
000003e0: 5bb1 85be ecd7 9abe ba31 b3be c9fe 82bd
000003f0: b268 77be feb5 17be ea24 a2be 40c6 59be

conv_layers.5.1.weight f4 [32]
0.8439624 0.85532606 0.73775107 1.0265025 0.94067335 0.81768334 1.4392773 0.8942803
0.68236303 0.7828935 0.92158324 1.014646 0.50884366 0.9610565 1.0658151 1.0219233
0.98852015 1.0280167 0.9140668 0.9794795 0.7782508 0.8369375 0.80257463 0.80879396
0.9814525 0.7770994 1.1150178 0.78217196 0.9751135 0.33069035 0.7101331 1.2056612
00000000: eb0d 583f a6f6 5a3f 41dd 3c3f 6f64 833f
00000010: f8cf 703f b253 513f 3d3a b83f 8eef 643f
00000020: 58af 2e3f b56b 483f e1ec 6b3f ecdf 813f
00000030: 9443 023f cc07 763f a16c 883f 62ce 823f
00000040: a80f 7d3f 0d96 833f 4800 6a3f 2bbf 7a3f
00000050: 723b 473f 8941 563f 8875 4d3f 1f0d 4f3f
00000060: 7940 7b3f fcef 463f e7b8 8e3f 6c3c 483f
00000070: 0aa1 793f 3f50 a93e 48cb 353f 1b53 9a3f

conv_layers.5.1.bias f4 [32]
-0.9907667 -0.5201939 -0.27162322 -0.84859484 -0.8321646 -0.48479748 -0.55094206 -0.35027668
0.42376056 -0.6928442 -0.4229673 -0.1025838 0.5077198 -0.5305628 -0.9327932 -0.5069834
-0.33742812 -0.7612701 -0.62144166 -0.5380175 -0.6890256 0.27900612 -0.26015288 -0.78437555
-1.0649737 -0.11066834 -0.43719876 -0.23621985 -0.2824436 0.80165374 -0.30828813 -0.660961
00000000: e3a2 7dbf 6d2b 05bf 3312 8bbe 833d 59bf
00000010: bd08 55bf 6037 f8be 8a0a 0dbf 7757 b3be
00000020: 25f7 d83e 3d5e 31bf 2c8f d8be 7517 d2bd
00000030: edf9 013f f7d2 07bf 89cb 6ebf aac9 01bf
00000040: 61c3 acbe 99e2 42bf cd16 1fbf 84bb 09bf
00000050: fb63 30bf e4d9 8e3e c232 85be d6cc 48bf
00000060: 0f51 88bf 15a6 e2bd 84d8 dfbe 9ee3 71be
00000070: 739c 90be 2e39 4d3f f1d7 9dbe bd34 29bf

conv_layers.5.1.running_mean f4 [32]
-4.204316 -2.1895251 0.1029977 -0.46155813 -4.18455 -5.331429 -1.6377854 -4.940625
-0.23063397 -4.9083905 -2.4815414 -1.446472 -1.6744637 1.2769356 -3.5834901 -2.1989787
-3.732734 -2.1034539 -4.8613334 -3.0501328 -1.868182 -0.0048679025 -3.1095219 -5.424597
-4.5373898 -2.3738024 -3.3591578 -4.6951423 -1.6881484 0.028856793 -4.2017264 -1.724783
00000000: c289 86c0 2e21 0cc0 75f0 d23d 5951 ecbe
00000010: d5e7 85c0 119b aac0 f4a2 d1bf 9a19 9ec0
00000020: 502b 6cbe 8911 9dc0 93d1 1ec0 ff25 b9bf
00000030: d454 d6bf a072 a33f e757 65c0 11bc 0cc0
00000040: 1de5 6ec0 fd9e 06c0 0b90 9bc0 6035 43c0
00000050: 9620 efbf ed82 9fbb 6802 47c0 4c96 adc0
00000060: 4c32 91c0 61ec 17c0 71fc 56c0 9b3e 96c0
00000070: 3f15 d8bf 1565 ec3c 8b74 86c0 b0c5 dcbf

conv_layers.5.1.running_var f4 [32]
2.4234283 1.5580643 1.8331174 1.7729794 2.0467122 2.2333186 2.5686462 2.7799766
7.662935 1.2768004 2.1214046 2.0390143 3.363488 2.98359 3.0571418 2.3407993
2.1428688 1.8124168 4.270044 2.8858883 3.750505 2.9235406 2.6422355 2.5351665
2.9339602 2.9791493 2.3824737 4.0407176 2.4116144 2.4725277 2.1608145 2.028348
00000000: 7319 1b40 a76e c73f 97a3 ea3f fdf0 e23f
00000010: 55fd 0240 b1ee 0e40 b364 2440 23eb 3140
00000020: c336 f540 326e a33f 18c5 0740 367f 0240
00000030: 6343 5740 23f3 3e40 36a8 4340 a8cf 1540
00000040: c324 0940 46fd e73f 33a4 8840 65b2 3840
00000050: 4608 7040 4a1b 3b40 631a 2940 2b40 2240
00000060: 01c6 3b40 62aa 3e40 737a 1840 8f4d 8140
00000070: e457 1a40 e53d 1e40 c94a 0a40 74d0 0140

conv_layers.7.0.conv.weight f4 [16, 32, 3, 3]
0.12427496 0.27414396 0.47414935 -0.19002934 0.18958578 0.5883806 0.09963663 0.24070343
0.34667012 -0.1412654 0.23617171 -0.019780511 -0.21416658 0.16055852 -0.031324938 -0.083928436
0.1458334 -0.028527793 0.43876705 -0.011889439 -0.052648637 0.5082259 -0.012868436 -0.06631563
0.22298028 0.00020477743 -0.14599438 -0.016281812 -0.20829003 -0.580666 0.07441465 -0.16960888
-0.5104753 -0.00019490105 -0.09838444 -0.38696462 0.20512778 0.06311774 0.21641414 0.08187681
0.38094434 0.35536072 -0.19269548 0.0821537 0.28031573 -0.27392948 0.26327413 0.10229764
-0.10485282 0.17676243 0.1455949 -0.27865234 -0.061411113 -0.3080173 0.723848 -0.17409937
-0.041991558 -0.039761428 -0.17990659 -0.09086068 0.6913084 -0.2958517 -0.01810517 -0.3686868
-0.031097086 0.19062199 -0.21448961 -0.2486231 -0.020218313 -0.13120563 0.051826827 0.40617743
-0.17272407 -0.096777506 0.09808817 0.27262163 0.19316751 0.26536396 -0.28089368 -0.11907448
-0.08205383 -0.15651649 -0.17755578 0.14813003 0.020146633 -0.06704478 0.1987744 -0.043160096
-0.19183752 -0.10730571 -0.023051012 -0.11860096 -0.28062776 0.12777272 0.013515827 0.065277226
-0.19515803 -0.05247454 0.20594722 -0.37191927 0.07478918 0.35472393 -0.23121886 -0.05806488
-0.018744655 -0.06797568 -0.058847144 -0.012843411 0.2214104 -0.012953622 -0.23061796 0.31742063
0.00056494196 0.085894816 0.26333848 -0.010150899 -0.42974305 -0.41002482 -0.029198892 0.043627135
-0.5318239 -0.061422803 -0.0084860185 -0.090952955 -0.023729384 0.0762453 -0.42624483 -0.18322499
-0.33813646 -0.15947163 -0.5729886 -0.5754933 -0.11098976 0.2922679 0.30062854 0.46581805
0.0023712032 -0.18000264 0.27102548 0.032797553 -0.0037324934 0.4015705 0.07673777 -0.11697683
0.4689594 0.18273129 -0.44561684 0.029635273 -0.051292174 0.043561123 0.26545092 -0.009605091
-0.123622924 -0.24058063 0.084836535 0.5344409 -0.026302455 0.003306106 0.39650464 -0.1404572
-0.05234728 0.4185266 0.08677121 0.13845259 0.33550873 0.008238132 0.06539841 0.09673318
0.120954774 0.054717965 -0.08314698 0.34966832 0.0583412 0.020052575 -0.14132869 0.29681322
0.30421877 -0.34512344 0.13171057 0.18287717 -0.30569372 0.14341302 0.17880566 -0.20161521
0.038267046 0.11963264 0.0824188 0.16611217 0.30635586 0.43282977 -0.050563898 -0.16228274
0.3330029 0.06567355 0.08124474 -0.047436234 -0.22352079 -0.2569108 -0.064853564 0.097443305
0.05289365 -0.10546444 0.23727766 0.09325283 -0.2338178 0.0715206 -0.26130262 0.19301385
0.10983316 -0.3134098 0.24442333 0.23782426 0.1157946 -0.09854062 0.09546919 0.02590286
0.067645706 -0.15949884 -0.44655484 0.016009694 -0.26243475 -0.5311539 0.29786107 -0.09779696
-0.3384063 0.007100106 -0.0356765 0.3995896 -0.102021664 -0.05998589 0.34396705 -0.17895438
-0.16113801 0.15778446 -0.14151292 0.33360672 -0.0011078947 -0.14878392 0.4333734 0.20624326
-0.46795925 0.30932677 -0.0064251656 -0.25681576 -0.0954964 -0.10659406 -0.06097948 -0.04332814
-0.10374028 -0.271552 -0.1779113 -0.14977904 0.0066341013 0.018967075 -0.21960628 0.2917503
00000000: df83 fe3d 995c 8c3e b4c3 f23e 0d97 42be
00000010: c622 423e 1ca0 163f 4a0e cc3d f67a 763e
00000020: bf7e b13e e1a7 10be ffd6 713e bd0a a2bc
00000030: 7c4e 5bbe 7469 243e 944e 00bd ace2 abbd
00000040: 5a55 153e 1eb3 e9bc 13a6 e03e eccb 42bc
00000050: 19a6 57bd 181b 023f 22d6 52bc 7dd0 87bd
00000060: f154 643e 86b9 5639 8d7f 15be 6f61 85bc
00000070: fb49 55be 87a6 14bf b566 983d f3ad 2dbe
00000080: 82ae 02bf 5a5e 4cb9 c87d c9bd 3a20 c6be
00000090: 040d 523e e043 813d ab9b 5d3e 07af a73d
000000a0: 230b c33e d7f1 b53e f751 45be 3340 a83d
000000b0: 8b85 8f3e 7c40 8cbe decb 863e 6d81 d13d
000000c0: 13bd d6bd 3601 353e d416 153e 85ab 8ebe
000000d0: 388a 7bbd 72b4 9dbe 1a4e 393f 1b47 32be
000000e0: 57ff 2bbd e1dc 22bd 6f39 38be 2a15 babd
000000f0: 96f9 303f e079 97be 4b51 94bc 84c4 bcbe
00000100: 51bf febc 6932 433e 2aa3 5bbe 0e97 7ebe
00000110: e0a0 a5bc c55a 06be 5e48 543d 7df6 cf3e
00000120: 94de 30be 4933 c6bd 73e2 c83d 1095 8b3e
00000130: b4cd 453e c9dd 873e 4cd1 8fbe 52dd f3bd
00000140: d70b a8bd dc45 20be 2fd1 35be 66af 173e
00000150: 8d0a a53c c64e 89bd 848b 4b3e a4c8 30bd
00000160: 0e71 44be 19c3 dbbd 7ad5 bcbc 0fe5 f2bd
00000170: 71ae 8fbe dad6 023e 7d71 5d3c 11b0 853d
00000180: 82d7 47be 8bef 56bd d4e3 523e 346c bebe
00000190: 122b 993d 609e b53e a3c4 6cbe 71d5 6dbd
000001a0: 648e 99bc d536 8bbd b409 71bd 2c6d 52bc
000001b0: 68b9 623e 6e3b 54bc 1d27 6cbe f584 a23e
000001c0: 9d18 143a 9fe9 af3d 4dd4 863e f54f 26bc
000001d0: 4807 dcbe c6ee d1be 8432 efbc 5eb2 323d
000001e0: 9c25 08bf 7a96 7bbd f108 0bbc 8b45 babd
000001f0: 2064 c2bc 7f26 9c3d c33c dabe 559f 3bbe
00000200: 3920 adbe 884c 23be 62af 12bf 8753 13bf
00000210: 994e e3bd 23a4 953e fceb 993e b47f ee3e
00000220: 3066 1b3b 9d52 38be dac3 8a3e ba56 063d
00000230: d99c 74bb a69a cd3e b128 9d3d 8c91 efbd
00000240: 721b f03e e91d 3b3e e427 e4be acc5 f23c
00000250: be17 52bd 266d 323d 2fe9 873e ac5e 1dbc
00000260: 042e fdbd c55a 76be c7be ad3d 1ed1 083f
00000270: 3f78 d7bc 41ab 583b a802 cb3e 03d4 0fbe
00000280: 1a6a 56bd 1e49 d63e 1bb5 b13d 84c6 0d3e
00000290: cdc7 ab3e 3bf9 063c 9aef 853d 0c1c c63d
000002a0: 23b7 f73d f21f 603d f748 aabd ba07 b33e
000002b0: 2ff7 6e3d 4c45 a43c 78b8 10be e7f7 973e
000002c0: 90c2 9b3e 05b4 b0be 23df 063e 2744 3b3e
000002d0: e383 9cbe ddda 123e d518 373e 3874 4ebe
000002e0: e8bd 1c3d f501 f53d 30cb a83d 4f19 2a3e
000002f0: adda 9c3e dd9b dd3e 171c 4fbd 722d 26be
00000300: 5b7f aa3e db7f 863d a463 a63d 7f4c 42bd
00000310: a2e2 64be d089 83be f2d1 84bd 5b90 c73d
00000320: 03a7 583d befd d7bd eaf8 723e 57fb be3d
00000330: ef6d 6fbe 6479 923d 75c9 85be 6ca5 453e
00000340: 35f0 e03d 4077 a0be 1c4a 7a3e 3488 733e
00000350: b825 ed3d aacf c9bd 5a85 c33d 3c32 d43c
00000360: d589 8a3d aa53 23be d6a2 e4be c326 833c
00000370: d95d 86be b4f9 07bf 3f81 983e c649 c8bd
00000380: 9743 adbe 02a8 e83b 8621 12bd 0297 cc3e
00000390: bcf0 d0bd c4b3 75bd 731c b03e d13f 37be
000003a0: 5d01 25be 4092 213e c3e8 10be 80ce aa3e
000003b0: c736 91ba d05a 18be 1ee3 dd3e 6f31 533e
000003c0: 5b98 efbe 1460 9e3e 328a d2bb 5b7d 83be
000003d0: 9e93 c3bd fd4d dabd 9fc5 79bd d978 31bd
000003e0: c975 d4bd dd08 8bbe 612e 36be ad5f 19be
000003f0: e062 d93b d760 9b3c 78e0 60be 4c60 953e

conv_layers.7.1.weight f4 [16]
25.522211 23.827255 26.169413 24.655804 27.359133 24.35864 25.349003 24.968525
24.965775 24.828856 24.451426 24.564116 24.193388 26.090097 20.771832 27.075212
00000000: 7d2d cc41 389e be41 f55a d141 163f c541
00000010: 81df da41 7fde c241 c2ca ca41 8abf c741
00000020: e8b9 c741 7fa1 c641 859c c341 4f83 c441
00000030: 0f8c c141 85b8 d041 b62c a641 099a d841

conv_layers.7.1.bias f4 [16]
23.194864 25.686438 24.097075 26.465914 25.119884 23.225416 24.925213 23.192772
24.076862 24.863653 24.375973 26.356949 23.366154 22.958525 28.52183 19.191895
00000000: 158f b941 d37d cd41 cfc6 c041 31ba d341
00000010: 86f5 c841 a7cd b941 d666 c741 cc8a b941
00000020: 6a9d c041 c3e8 c641 fe01 c341 08db d241
00000030: e2ed ba41 0fab b741 b52c e441 0089 9941

conv_layers.7.1.running_mean f4 [16]
0.94116807 0.5041231 0.61319983 0.35432333 0.9966127 0.32186043 0.83938295 0.90244746
0.28134537 0.62757576 0.92633617 0.84390783 0.5569922 0.221542 1.1468034 0.3242974
00000000: 64f0 703f 360e 013f aafa 1c3f de69 b53e
00000010: 0322 7f3f e4ca a43e cde1 563f cc06 673f
00000020: 800c 903e cea8 203f 5e24 6d3f 580a 583f
00000030: 0a97 0e3f e8db 623e 74ca 923f 4f0a a63e

conv_layers.7.1.running_var f4 [16]
0.40343365 0.3343668 0.22096615 0.31196332 0.31169617 0.3591564 0.39064053 0.40942338
0.2698208 0.23767689 0.30612847 0.3044626 0.25219578 0.25900012 0.2568932 0.31719872
00000000: db8e ce3e 2032 ab3e f344 623e a8b9 9f3e
00000010: a496 9f3e 59e3 b73e 0902 c83e f19f d13e
00000020: f425 8a3e 9261 733e dfbc 9c3e 86e2 9b3e
00000030: ce1f 813e aa9b 843e 8187 833e df67 a23e

conv_layers.8.conv1d.weight f4 [1, 1, 3]
5.1738353 5.0781775 3.2328677
00000000: 0f90 a540 6e80 a240 4ee7 4e40

linear_layers.0.weight f4 [64, 576]
-34.151325 -34.15086 -30.05401 -29.869375 -31.728865 -33.60117 -33.957478 -31.617079
17.934273 5.104715 -21.655859 -33.365326 -33.403446 2.5081823 33.924778 33.82335
30.086927 -31.732235 -33.581646 6.250606 33.895954 34.067806 31.606207 -31.82776
-33.474487 4.568012 33.61324 34.09831 31.180292 -30.246876 -34.298717 -34.2883
-27.876923 -27.599075 -30.995571 -34.01076 -33.87634 -33.408794 -29.28482 -30.127413
-32.19702 -33.89898 -34.0394 -33.29272 -16.580803 -19.198565 -30.241276 -34.05987
-33.180714 -9.420756 33.787785 33.799374 29.306204 -31.908304 -33.56069 -12.214288
33.767372 33.865818 30.1488 -32.31168 -33.606293 -19.278343 33.305344 33.5086
27.165188 -32.3178 -34.176727 -34.074688 -27.841017 -28.737057 -31.665571 -34.09415
-23.11858 -33.621433 -34.290413 -34.134914 -33.326492 -15.677301 19.334671 -30.713552
-33.821095 -33.780117 -32.733387 30.336086 32.63036 -17.437197 -33.356102 -33.56055
-32.318207 33.58122 33.60447 4.859019 -32.861824 -33.671444 -32.1737 34.045856
34.079258 12.95314 -26.844221 -33.050613 -31.78307 34.31965 30.586563 -8.274338
-32.296093 -33.853416 -33.14555 32.855034 -34.101696 -34.140453 -33.36569 -30.62526
-30.3023 -31.46828 -33.856308 -33.95261 -32.75436 -1.7762578 -0.00088334223 -23.865585
-30.241093 -31.883163 -16.882303 33.25551 33.812862 31.36603 -32.158497 -33.220497
-26.117188 32.986607 33.6995 30.811796 -32.831085 -33.657642 -30.633905 31.63425
32.880806 25.67977 -34.11351 -34.32508 -34.194187 -29.527023 -28.822886 -31.227802
-34.29626 -34.104923 -28.384457 -30.241388 -32.306816 -33.756306 -34.22123 -28.833662
6.3963547 -10.110418 -29.725685 -33.64276 -33.626434 22.409094 34.084187 33.270786
17.659286 -32.61939 -33.698784 24.506634 34.23842 33.813858 25.24858 -32.30901
-33.292618 23.191 34.1345 33.89762 23.018967 -30.295355 -34.248146 -33.927067
-22.678207 -26.643064 -31.597662 -34.048832 -33.431107 -34.096832 -33.923534 -31.67753
-30.11237 -29.794106 -33.158222 -33.858185 -33.294483 6.0827274 10.621254 -6.327429
-16.851452 -26.077215 -8.051103 33.374096 34.233746 33.24045 -28.794931 -32.299328
-24.311962 32.881702 34.142975 33.01058 -32.39432 -33.53399 -31.58268 30.593185
32.875027 30.61259 -34.008614 -34.30776 -34.349594 -32.44041 -29.157694 -28.612629
-34.212128 -33.67128 -28.714504 -30.054163 -32.177616 -34.122375 -34.14283 -31.21274
-2.8442068 -12.5074415 -29.291275 -34.113445 -33.591747 13.762828 33.931293 33.34937
23.564972 -32.817493 -33.730404 18.858105 34.069782 33.79138 28.012146 -32.668945
-33.4697 18.40952 34.07231 33.852528 25.916283 -31.330956 -34.279293 -34.013325
-24.65782 -27.216776 -31.517508 -34.210712 -34.18526 -33.521664 -29.187502 -29.96153
00000000: f59a 08c2 7b9a 08c2 9d6e f0c1 7bf4 eec1
00000010: b7d4 fdc1 9967 06c2 75d4 07c2 c7ef fcc1
00000020: 6479 8f41 d359 a340 333f adc1 1876 05c2
00000030: 219d 05c2 0f86 2040 f9b2 0742 1c4b 0742
00000040: 07b2 f041 9edb fdc1 9b53 06c2 f704 c840
00000050: 7595 0742 6f45 0842 83d9 fc41 419f fec1
00000060: e0e5 05c2 282d 9240 f573 0642 ab64 0842
00000070: 3d71 f941 9af9 f1c1 e331 09c2 3827 09c2
00000080: f003 dfc1 e8ca dcc1 eef6 f7c1 050b 08c2
00000090: 5f81 07c2 9ba2 05c2 5047 eac1 f104 f1c1
000000a0: c0c9 00c2 8e98 07c2 5828 08c2 bf2b 05c2
000000b0: 7ca5 84c1 a996 99c1 22ee f1c1 4f3d 08c2
000000c0: 0db9 04c2 6bbb 16c1 b126 0742 8f32 0742
000000d0: 1b73 ea41 3544 ffc1 263e 06c2 b96d 43c1
000000e0: ca11 0742 9976 0742 be30 f141 293f 01c2
000000f0: d86c 06c2 0c3a 9ac1 ac38 0542 ce08 0642
00000100: 4e52 d941 6d45 01c2 f8b4 08c2 7b4c 08c2
00000110: 67ba dec1 7ee5 e5c1 1753 fdc1 6960 08c2
00000120: daf2 b8c1 597c 06c2 6229 09c2 278a 08c2
00000130: 544e 05c2 3ad6 7ac1 68ad 9a41 5bb5 f5c1
00000140: cd48 07c2 d71e 07c2 fdee 02c2 4eb0 f241
00000150: 7d85 0242 617f 8bc1 a66c 05c2 013e 06c2
00000160: d845 01c2 2b53 0642 fa6a 0642 157d 9b40
00000170: 8272 03c2 8faf 06c2 deb1 00c2 f52e 0842
00000180: 2951 0842 1040 4f41 f7c0 d6c1 d433 04c2
00000190: ba43 fec1 5247 0942 48b1 f441 b063 04c1
000001a0: 332f 01c2 e669 07c2 0b95 04c2 8e6b 0342
000001b0: 2368 08c2 d38f 08c2 7776 05c2 8800 f5c1
000001c0: 1c6b f2c1 0abf fbc1 dc6c 07c2 79cf 07c2
000001d0: 7704 03c2 6a5c e3bf 1890 67ba b8ec bec1
000001e0: c2ed f1c1 b810 ffc1 f50e 87c1 a405 0542
000001f0: 5f40 0742 a1ed fa41 4da2 00c2 cae1 04c2
00000200: 00f0 d0c1 49f2 0342 4acc 0642 8f7e f641
00000210: 0853 03c2 6da1 06c2 3d12 f5c1 f212 fd41
00000220: f285 0342 2b70 cd41 3c74 08c2 e24c 09c2
00000230: d9c6 08c2 5837 ecc1 4595 e6c1 8ad2 f9c1
00000240: 5f2f 09c2 716b 08c2 5e13 e3c1 5dee f1c1
00000250: 2e3a 01c2 7506 07c2 8ae2 08c2 57ab e6c1
00000260: f0ae cc40 46c4 21c1 34ce edc1 3092 06c2
00000270: 7881 06c2 d345 b341 3556 0842 4915 0542
00000280: 3846 8d41 417a 02c2 8ecb 06c2 960d c441
00000290: 24f4 0842 6441 0742 18fd c941 6d3c 01c2
000002a0: a42b 05c2 2b87 b941 ba89 0842 2a97 0742
000002b0: d826 b841 e35c f2c1 1afe 08c2 51b5 07c2
000002c0: f86c b5c1 ff24 d5c1 03c8 fcc1 0132 08c2
000002d0: 74b9 05c2 2863 08c2 b3b1 07c2 956b fdc1
000002e0: 22e6 f0c1 545a eec1 05a2 04c2 c86e 07c2
000002f0: 8d2d 05c2 b4a5 c240 a8f0 2941 4c7a cac0
00000300: c6cf 86c1 239e d0c1 51d1 00c1 137f 0542
00000310: 5bef 0842 39f6 0442 055c e6c1 8332 01c2
00000320: e67e c2c1 dd86 0342 6892 0842 d50a 0442
00000330: c993 01c2 ce22 06c2 54a9 fcc1 d8be f441
00000340: 0780 0342 96e6 f441 d208 08c2 253b 09c2
00000350: fc65 09c2 fbc2 01c2 f542 e9c1 aae6 e4c1
00000360: 38d9 08c2 64af 06c2 4eb7 e5c1 ed6e f0c1
00000370: e1b5 00c2 507d 08c2 4292 08c2 b1b3 f9c1
00000380: 7c07 36c0 7b1e 48c1 8854 eac1 2b74 08c2
00000390: f35d 06c2 8b34 5c41 a5b9 0742 c165 0542
000003a0: 1085 bc41 1d45 03c2 efeb 06c2 66dd 9641
000003b0: 7547 0842 602a 0742 e018 e041 00ad 02c2
000003c0: f9e0 05c2 b246 9341 0c4a 0842 fd68 0742
000003d0: 8c54 cf41 cca5 fac1 ff1d 09c2 a50d 08c2
000003e0: 3743 c5c1 f5bb d9c1 db23 fcc1 c5d7 08c2
000003f0: b5bd 08c2 2f16 06c2 0180 e9c1 37b1 efc1
