models/model_long_conv_x10_cuda_100_epochs_extra_graph_take2/model_long_conv_x10_cuda_100_epochs_extra_graph_take2\model.pth (torch, 227370 bytes, 14 tensors)

conv_layers.0.0.conv.weight f4 [16, 10, 3, 3]
0.17772043 0.1983353 0.026167296 0.17943533 0.22756195 0.36513907 0.10975964 -0.06614422
0.32241175 0.018974755 -0.03486427 -0.13011691 -0.040579047 0.0025991453 0.038910728 0.023922848
-0.17686868 -0.07335825 -0.3888607 -0.08080758 -0.072341494 -0.088029176 0.08369566 0.054272786
-0.81387365 0.07859614 -0.3381375 0.026606323 -0.002127778 0.06682941 0.044470794 -0.07609936
-0.123172134 0.1769645 -0.0069156317 -0.0033631034 0.10014875 0.027514307 0.06231539 0.020110799
0.035473995 0.037971545 0.161191 0.002714054 0.114898294 -0.10719469 0.26226932 0.21756765
0.48115626 2.1691923 0.22208671 0.18712488 -0.2806203 0.2814265 0.040006712 -0.005251757
0.12441083 0.12279633 0.32409823 0.08696749 0.08676171 -0.002891456 0.0929687 -0.041615356
0.058706004 -0.0295385 -0.0024516142 0.061058763 -0.037822958 -0.11491024 -0.019770872 0.1471893
0.24883324 0.08568104 -0.21031787 0.22408059 0.14249781 0.14708541 -0.23380943 0.138914
-0.04265562 0.0026915402 0.028139172 -0.012321089 0.00791715 -0.011965678 -0.021111377 -0.061192796
0.003480407 -0.0039724777 -1.2343072 -0.122512326 -1.0039195 -0.14761877 -1.3543937 -1.127015
-1.0548916 -0.80903673 -0.7946932 0.0035392672 -0.046415348 -0.019229827 -0.026768265 0.010677867
0.03695424 -0.022919076 0.022626245 0.007439416 -0.051969357 0.0990088 -0.00047698 0.06175891
-0.22453924 -0.051214546 0.081512704 0.06508533 -0.045401443 -0.07186005 -0.030481247 -0.0036448506
0.06091888 -0.0035846361 0.020385686 -0.11970127 -0.13887651 -0.031906016 0.054959342 0.048197046
-0.03925939 -0.08884712 -0.2986075 -0.16587244 -0.03570194 -0.111334175 0.06657459 -1.7892605
-1.588339 -1.5308557 0.29224432 0.35865474 0.52008396 -1.0828218 -1.5362073 -1.7436535
0.11666111 0.02121019 0.04568228 -0.006101347 -0.009788992 -0.02617011 -0.044765487 0.08035489
0.061349105 0.015350516 0.12829877 0.0364335 -0.018247 -0.024627242 0.028437478 -0.029438645
0.117885895 0.020784982 0.034098454 0.057870653 0.005358441 -0.0104108965 -0.081883274 0.023580465
0.010137084 0.03939573 0.004443698 0.13271207 0.0018913342 -0.14133339 -0.12309184 -0.00578989
0.06791478 -0.003204456 -0.10023107 0.14038542 1.4594465 1.7216791 1.6768625 1.8221177
1.8598125 1.6289766 1.6465726 1.8179722 1.5086782 0.0025855836 0.003449646 0.0012761863
-0.0024703587 -0.0016455844 -0.0014635931 -0.0016979825 2.6934185e-05 0.0035299403 -0.00984987 0.0020482575
-0.0029726836 0.009894436 0.0033777042 0.008628374 -0.0024776072 -0.002300073 -0.019529238 -0.014326677
-0.01708252 -0.009875322 -0.020259475 0.0022279355 -0.047123067 0.0031295686 0.0043833065 0.0025389004
-0.0029124327 0.0013244066 -0.0026214845 0.0004920243 -0.0063323947 0.0011985806 -0.0047312635 0.002284861
0.010133641 0.034396295 0.01573938 -0.0036529482 0.014181377 0.02385665 -0.0104509 0.0063893436
0.020872178 0.009159918 0.0058861286 0.0030520689 -0.0020793523 0.0022213038 0.00140641 -0.006045864
-0.0017348642 0.0031521043 0.0013107379 0.0016147848 0.0069818655 0.008683675 -0.005654108 0.0009452348
0.00044237592 -0.006512887 0.002527059 0.0075281886 0.010381642 0.0038621197 -0.0012791816 0.008683175
00000000: 58fc 353e 6918 4b3e cc5c d63c e5bd 373e
00000010: 0006 693e 82f3 ba3e aac9 e03d 9f76 87bd
00000020: 2713 a53e f270 9b3c d6cd 0ebd 5e3d 05be
00000030: 3736 26bd 6c56 2a3b db60 1f3d d9f9 c33c
00000040: 101d 35be da3c 96bd c018 c7be 727e a5bd
00000050: c727 94bd a448 b4bd a168 ab3d 244d 5e3d
00000060: 065a 50bf 03f7 a03d 5c20 adbe 81f5 d93c
00000070: 3172 0bbb dcdd 883d 0227 363d fbd9 9bbd
00000080: ac41 fcbd 2f36 353e 869c e2bb 8367 5cbb
00000090: ca1a cd3d af65 e13c 6c3e 7f3d 67bf a43c
000000a0: 2e4d 113d 0d88 1b3d 410f 253e 45de 313b
000000b0: cc4f eb3d e488 dbbd 2a48 863e 0eca 5e3e
000000c0: 1d5a f63e 0cd4 0a40 b36a 633e aa9d 3f3e
000000d0: 77ad 8fbe 2217 903e 14de 233d ee16 acbb
000000e0: 1bcb fe3d a47c fb3d 34f0 a53e 031c b23d
000000f0: 20b0 b13d 957e 3dbb 6066 be3d dd74 2abd
00000100: b575 703d b9fa f1bc 43ab 20bb c118 7a3d
00000110: 3fec 1abd 0f56 ebbd 86f6 a1bc cbb8 163e
00000120: 24ce 7e3e 8b79 af3d 915d 57be 6275 653e
00000130: f2ea 113e 8f9d 163e bd6b 6fbe 793f 0e3e
00000140: a9b7 2ebd 8d64 303b 1f84 e63c 65de 49bc
00000150: efb6 013c b10b 44bc c4f1 acbc 4ca5 7abd
00000160: 8a17 643b 8f2b 82bb c7fd 9dbf bee7 fabd
00000170: 6f80 80bf 6029 17be c65c adbf 0742 90bf
00000180: b006 87bf 081d 4fbf 0371 4bbf 0df3 673b
00000190: 051e 3ebd df87 9dbc 1f49 dbbc 38f2 2e3c
000001a0: 545d 173d c9c0 bbbc ad5a b93c 58c6 f33b
000001b0: d2dd 54bd 20c5 ca3d 2c13 fab9 e9f6 7c3d
000001c0: 9ded 65be 58c6 51bd 22f0 a63d 754b 853d
000001d0: ddf6 39bd 5d2b 93bd cfb3 f9bc 72de 6ebb
000001e0: 1386 793d 37ec 6abb e2ff a63c f025 f5bd
000001f0: a535 0ebe e2af 02bd 0c1d 613d 446a 453d
00000200: 74ce 20bd 7bf5 b5bd 15e3 98be 77da 29be
00000210: 333c 12bd 2c03 e4bd 4258 883d 7d06 e5bf
00000220: b14e cbbf 14f3 c3bf 0ca1 953e 98a1 b73e
00000230: 3924 053f e899 8abf 71a2 c4bf 0a30 dfbf
00000240: 05ec ee3d fec0 ad3c 581d 3b3d cfed c7bb
00000250: 0262 20bc b362 d6bc 045c 37bd 1b91 a43d
00000260: 3349 7b3d bb80 7b3c c160 033e 4b3b 153d
00000270: bc7a 95bc 12bf c9bc b7f5 e83c 5029 f1bc
00000280: 296e f13d 4445 aa3c d2aa 0b3d c709 6d3d
00000290: dc95 af3b 7792 2abc 6bb2 a7bd d22b c13c
000002a0: 0316 263c 6b5d 213d 719c 913b ace5 073e
000002b0: a5e6 f73a b3b9 10be 9317 fcbd 1eb9 bdbb
000002c0: e716 8b3d da01 52bb f245 cdbd 32c1 0f3e
000002d0: 25cf ba3f fb5f dc3f 6ea3 d63f 273b e93f
000002e0: 560e ee3f 4e82 d03f e4c2 d23f 50b3 e83f
000002f0: 5e1c c13f e572 293b 7513 623b b545 a73a
00000300: bee5 21bb a6b0 d7ba 09d6 bfba d78e deba
00000310: b9f0 e137 9256 673b 5961 21bc 0f3c 063b
00000320: 5bd1 42bb 461c 223c 795c 5d3b 065e 0d3c
00000330: 5a5f 22bb d2bc 16bb c8fb 9fbc 70ba 6abc
00000340: a4f0 8bbc 1acc 21bc 33f7 a5bc 8e02 123b
00000350: 1e04 41bd 7319 4d3b d7a1 8f3b ae63 263b
00000360: 83de 3ebb b697 ad3a 36cd 2bbb 31fb 003a
00000370: fa7f cfbb b119 9d3a b708 9bbb 9bbd 153b
00000380: 9207 263c 21e3 0c3d dfef 803c 4d66 6fbb
00000390: 0259 683c 056f c33c 403a 2bbc b35d d13b
000003a0: 21fc aa3c 7b13 163c 6de0 c03b 3805 483b
000003b0: be45 08bb 4b93 113b 4a57 b83a 621c c6bb
000003c0: 6264 e3ba 8993 4e3b 11cd ab3a 30a7 d33a
000003d0: 22c8 e43b f945 0e3c 1846 b9bb a2c9 773a
000003e0: b1ee e739 0e6a d5bb 049d 253b 06af f63b
000003f0: c317 2a3c 9e1b 7d3b 36aa a7ba e043 0e3c

conv_layers.0.0.conv.bias f4 [16]
-0.27842632 0.035487827 -0.008865164 -0.25367522 -0.0099007115 0.010698543 -0.01445232 -0.20827916
-0.009355365 -0.0112699075 -0.4387703 -0.22035556 -0.008650707 -0.028527211 -0.0097605735 -0.16693789
00000000: e58d 8ebe af5b 113d 313f 11bc b8e1 81be
00000010: 9836 22bc f148 2f3c 6cc9 6cbc 2247 55be
00000020: 3f47 19bc 6ba5 38bc 80a6 e0be e3a4 61be
00000030: b2bb 0dbc e6b1 e9bc d0ea 1fbc c4f1 2abe

conv_layers.2.0.conv.weight f4 [32, 16, 3, 3]
-0.31762314 0.04460608 0.099019095 0.26165646 0.004726376 -0.4030364 -0.50474036 -0.030265853
-0.097816125 0.4374213 0.4120621 0.5649501 0.22195348 0.33670765 0.5190633 0.40914106
0.35830882 0.46736372 0.13116537 0.028662443 -0.01332982 -0.062587425 0.0070172865 0.07079921
0.06764592 -0.03712225 0.043732833 -0.008878662 -0.43672085 -0.06966748 -0.09761735 0.12983659
-0.2926492 -0.1495942 -0.38861507 -0.0610578 -0.09866626 -0.017442772 0.023950022 0.10711363
0.035803627 -0.26201838 -0.20421582 0.13252689 0.10435772 -0.06357593 0.0059572263 0.048021507
-0.025353426 0.03836814 -0.16613895 0.039902255 0.02638067 0.0532081 -0.52714103 0.062892824
0.031909768 0.08558526 0.0073199035 -0.55812174 0.02201705 0.085516065 0.0068942416 0.09033424
0.0329653 -0.15968879 -0.07212718 0.07353614 -0.11941307 0.017806832 -0.08456387 0.002297473
0.02657706 0.040613107 0.020218108 -0.019156031 0.033993673 0.044186335 0.018319769 -0.029156972
0.039780643 -0.45994925 0.03244707 0.052332155 0.10492399 0.032603808 -0.79179 -0.06115631
0.059177727 0.019307667 -0.23901974 0.011325276 -0.13185604 -0.2068431 0.2515544 -0.063026324
0.011103144 -0.016672088 -0.033019613 0.22476809 -0.22467366 -0.042631492 -0.0675716 0.062215228
-0.30719525 -0.016638136 -0.019650023 0.031587917 -0.532459 -0.015565184 0.06943272 0.13718836
-0.030575793 -0.4017012 -0.14617115 0.12116355 -0.023058798 -0.23578653 0.026615119 0.046318687
0.07006388 0.092303514 -0.06470389 0.008026571 -0.056979917 -0.20840389 0.11045114 0.07432187
-0.01363215 -0.030819934 0.0094278 0.04554055 0.039314207 -0.041709345 0.065655306 -0.39046317
0.048298657 0.26679668 -0.098070264 0.27495733 -0.10393925 -0.057393666 0.011013064 -0.1502105
-0.21524179 0.17083342 -0.46068814 -0.33819333 0.28307563 0.24113819 -0.13565661 -0.17821649
-0.3031081 0.19137439 -0.3999234 0.17065397 0.22244482 -0.44371122 -0.04866246 0.20946634
0.07788138 0.12487596 -0.06742564 0.124812104 -0.11307703 -0.11862427 0.20352827 0.16437551
0.03678841 -0.123731345 -0.2736251 -0.07167725 0.027763037 -0.16066459 -0.059318706 -0.013677797
0.011694551 0.1338424 0.07108791 0.05561453 -0.26094753 0.012058357 -0.22164406 0.0029978014
0.03241647 0.08536687 -0.01732838 -0.028807575 -0.108247004 -0.21425384 0.16829908 -0.28816867
-0.06466558 0.15436563 0.085439906 0.0033378142 -0.089644015 -0.27382722 -0.6393227 0.24850465
-0.34261265 -0.12990512 0.12952046 0.12162342 0.07404588 -0.12630989 -0.22521208 0.06891121
0.19834486 -0.027328182 0.035854015 -0.03004843 -0.100536585 0.027963322 0.11682145 0.0640434
-0.046401136 0.07049017 -0.17651866 -0.040378314 0.30138317 0.1839141 0.03238948 -0.17035411
-0.34632176 -0.5408892 0.19103715 -0.4905107 -0.039394617 0.19630338 0.11721677 0.04926841
-0.15108445 -0.18714315 -0.04834966 0.021511171 -0.07177342 -0.12724522 0.39006647 0.26386
0.016862294 -0.27086437 -0.14570875 0.0015671737 0.041175567 -0.04327544 0.0932073 0.0453024
0.10682202 -0.14576833 -0.0626668 0.018418262 -0.15263006 0.25736615 -0.327104 -0.012182468
00000000: 809f a2be ddb4 363d 86ca ca3d d6f7 853e
00000010: b7df 9a3b c95a cebe aa36 01bf 18f0 f7bc
00000020: d253 c8bd aff5 df3e cef9 d23e 92a0 103f
00000030: c647 633e f264 ac3e 55e1 043f f07a d13e
00000040: 4174 b73e 4c4a ef3e 3750 063e 80cd ea3c
00000050: 5165 5abc d62d 80bd 44f1 e53b 2dff 903d
00000060: f289 8a3d 800d 18bd 3321 333d cf77 11bc
00000070: e099 dfbe d3ad 8ebd 9beb c7bd e2f3 043e
00000080: 1ed6 95be 392f 19be 8ef8 c6be be17 7abd
00000090: 8911 cabd 25e4 8ebc d632 c43c 645e db3d
000000a0: d3a6 123d 4627 86be f41d 51be 21b5 073e
000000b0: 80b9 d53d 1934 82bd d634 c33b 33b2 443d
000000c0: fdb1 cfbc e927 1d3d 5420 2abe 8c70 233d
000000d0: 461c d83c bdf0 593d b7f2 06bf f4cd 803d
000000e0: d1b3 023d 5347 af3d cddb ef3b 11e1 0ebf
000000f0: 1a5d b43c 0c23 af3d 17e9 e13b 2801 b93d
00000100: 9f06 073d 7585 23be 6ab7 93bd 1e9a 963d
00000110: d78e f4bd a2df 913c d32f adbd 3391 163b
00000120: 22b8 d93c ee59 263d 72a0 a53c 1ced 9cbc
00000130: f33c 0b3d bbfc 343d 5713 963c 9ada eebc
00000140: 07f1 223d 787e ebbe 38e7 043d 3e5a 563d
00000150: 64e2 d63d 928b 053d c0b2 4abf 0a7f 7abd
00000160: 5864 723d 1d2b 9e3c 97c1 74be a78d 393c
00000170: 4505 07be adce 53be bdcb 803e f213 81bd
00000180: f6e9 353c e793 88bc 933f 07bd 9b29 663e
00000190: da10 66be 5c9e 2ebd fb62 8abd 65d5 7e3d
000001a0: b248 9dbe b34c 88bc 16f9 a0bc 5562 013d
000001b0: 3c4f 08bf 1d05 7fbc be32 8e3d 1b7b 0c3e
000001c0: 167a fabc c8ab cdbe e4ad 15be 9824 f83d
000001d0: cee5 bcbc 0672 71be f307 da3c aab8 3d3d
000001e0: a77d 8f3d a009 bd3d 7983 84bd e181 033c
000001f0: c663 69bd d467 55be 3534 e23d 1136 983d
00000200: 6259 5fbc 167a fcbc 0f77 1a3c ba88 3a3d
00000210: ef07 213d 6bd7 2abd 4a76 863d caea c7be
00000220: d0d4 453d 9399 883e 10d9 c8bd 35c7 8c3e
00000230: 1ade d4bd 9f15 6bbd 2370 343c c8d0 19be
00000240: 5868 5cbe f5ee 2e3e 51df ebbe ad27 adbe
00000250: 4aef 903e eeec 763e 91e9 0abe 627e 36be
00000260: fc30 9bbe a6f7 433e c3c2 ccbe eabf 2e3e
00000270: 93c8 633e 1e2e e3be 4a52 47bd 587e 563e
00000280: 4680 9f3d f8be ff3d 7416 8abd 7d9d ff3d
00000290: ee94 e7bd 48f1 f2bd b769 503e 0e52 283e
000002a0: 72af 163d dc66 fdbd 9718 8cbe 86cb 92bd
000002b0: 4f6f e33c 4285 24be 2cf8 72bd d718 60bc
000002c0: 819a 3f3c fb0d 093e 8a96 913d 10cc 633d
000002d0: ea9a 85be 6a90 453c a9f6 62be c376 443b
000002e0: 22c7 043d d3d4 ae3d 3ff4 8dbc ddfd ebbc
000002f0: 9bb0 ddbd 5c65 5bbe 9856 2c3e d88a 93be
00000300: 636f 84bd 0612 1e3e 1efb ae3d 3bbf 5a3b
00000310: 4897 b7bd 1533 8cbe a7aa 23bf 0178 7e3e
00000320: ed6a afbe d905 05be 03a1 043e b315 f93d
00000330: 5ea5 973d 6157 01be ff9d 66be 5221 8d3d
00000340: ea1a 4b3e 5adf dfbc a9db 123d 2028 f6bc
00000350: 20e6 cdbd 5613 e53c 1640 ef3d 3029 833d
00000360: 1e0f 3ebd 265d 903d 4fc1 34be bb63 25bd
00000370: e54e 9a3e fa53 3c3e d5aa 043d 4f71 2ebe
00000380: 1651 b1be b777 0abf 3e9f 433e 3824 fbbe
00000390: 405c 21bd c103 493e 590f f03d accd 493d
000003a0: e2b5 1abe 74a2 3fbe 4b0a 46bd 3238 b03c
000003b0: f1fd 92bd 924c 02be cbb6 c73e a818 873e
000003c0: cb22 8a3c bcae 8abe ad34 15be a069 cd3a
000003d0: b6a7 283d 9641 31bd 78e3 be3d 028f 393d
000003e0: 81c5 da3d 4b44 15be 7457 80bd e5e1 963c
000003f0: 0e4b 1cbe 7fc5 833e 2d7a a7be f998 47bc

conv_layers.2.0.conv.bias f4 [32]
-0.09338246 -0.09014323 -0.0032403518 0.16056582 -0.027539685 -0.08822079 -0.012542478 0.07294578
-0.44316173 -0.03482324 0.057310916 -0.5472636 0.012275724 0.02510341 -0.06074786 0.13137516
-0.038428605 -0.042831156 -0.030535681 0.01578534 -0.044197317 -0.28498617 -0.053906124 -0.065919355
0.13080376 -0.10641444 0.025697678 -0.43440396 -0.04060993 0.2027561 0.13359478 -0.25773525
00000000: 4e3f bfbd 049d b8bd 155c 54bb 5e6b 243e
00000010: e89a e1bc 1aad b4bd f77e 4dbc 9964 953d
00000020: 18e6 e2be d0a2 0ebd dabe 6a3d 7819 0cbf
00000030: 1e20 493c aba5 cd3c c0d2 78bd 3687 063e
00000040: 5067 1dbd b96f 2fbd f725 fabc 4250 813c
00000050: 3f08 35bd b5e9 91be abcc 5cbd ba00 87bd
00000060: 6cf1 053e d0ef d9bd f083 d23c 326a debe
00000070: 9956 26bd 4c9f 4f3e 12cd 083e e0f5 83be

conv_layers.4.0.conv.weight f4 [32, 32, 3, 3]
0.1348639 -0.1298164 0.01878166 0.005844819 0.022674533 -0.07557725 -0.1256391 0.08662622
0.123231806 -0.18758062 -0.09590099 0.10135504 -0.35753798 -0.32329446 -0.2213107 -0.1266868
-0.14158392 -0.12749438 0.19792978 -0.030387474 0.13748343 -0.01132353 -0.19618616 -0.3041331
0.024644993 -0.14755741 0.2994527 -0.15275152 -0.13517536 0.3165681 0.018710494 -0.19978495
0.020236295 0.16655786 0.06107744 -0.05849885 -0.8032733 0.024013884 0.005238746 -0.62313086
-0.041604195 0.059780274 -0.020264214 -0.5210142 -0.1359605 -0.33704433 -0.10392678 0.012773056
-0.21792771 -0.15779383 -0.029917773 0.052273728 -0.090130866 0.0033846458 -0.024823055 -0.1505939
-0.040744703 -0.0061710333 0.10068254 -0.03844274 0.054998666 0.05125588 -0.056721654 0.012378934
-0.2058121 0.15494895 0.00024300681 0.026382208 0.15346251 -0.12723684 0.0121327005 0.13941824
0.04726511 0.081207216 0.008235089 0.10075734 0.057243742 0.15503326 0.11427993 0.010114502
-0.05363356 -0.08764467 -0.39840773 -0.05494729 0.013688296 -0.33058968 -0.21349436 0.028335279
0.03865133 -0.26660272 -0.05771711 -0.059654936 0.07743734 0.009968923 0.0024378914 0.055807408
-0.042896867 0.21059126 0.24664007 0.013442987 0.10976345 0.026808288 0.032393485 -0.058853935
-0.025787788 0.0970703 0.011175308 -0.04438778 -0.22016825 0.0543268 0.02746004 -0.20053685
0.21454604 0.1346046 0.071771376 -0.07343161 -0.30406734 -0.21785107 0.06462148 0.02248974
-0.07817679 -0.078861035 0.026272986 0.07875315 -0.28891537 -0.08625883 -0.49532515 -0.6334648
0.017597243 -0.0066112187 -0.40531957 -0.2817783 0.04023883 -0.25117207 -0.39163277 -0.23296861
-0.006658848 0.2613522 -0.046229973 -0.085590705 0.0058338307 0.17627715 0.03834857 0.013165172
-0.22994725 -0.060575515 0.1230724 -0.1092866 -0.1629947 0.05259614 -0.08230683 -0.04162186
0.02315328 -0.19497986 0.03963379 0.102677524 -0.0035128475 -0.15069692 -0.022163292 -0.007592067
-0.20855273 -0.05341233 -0.17441125 0.019372491 0.107015766 -0.021394184 0.20639373 -0.06980789
-0.20344472 0.071848564 0.11675223 -0.11366548 -0.20312907 -0.011888635 0.0077521056 0.016353969
-0.0021810785 0.055031426 0.0185332 -0.150909 -0.449731 -0.10102285 -0.029180938 0.015168747
-0.28859466 -0.3277576 0.022252396 -0.27246335 0.024179837 0.12671149 0.1891866 0.17990524
-0.055959 -0.022592181 -0.1024588 0.049290523 0.12205196 0.0032391106 -0.17095071 -0.0750865
-0.025035748 -0.18980372 -0.11929577 -0.070115946 -0.057287846 -0.05282565 -0.058940943 -0.49169815
0.027440976 0.13412133 -0.5403967 0.027321607 -0.05914674 -0.39200643 -0.18102828 -0.45157078
-0.24770229 0.07135585 0.22248468 0.02027652 -0.01830582 0.045316514 0.07732028 0.03613829
0.1538063 -0.17594062 -0.32425642 0.061675128 -0.34149536 -0.18273592 -0.23814347 -0.08296204
-0.21367516 -0.23779307 -0.09408076 -0.07495495 0.16794331 -0.17933977 -0.07670791 -0.020358475
-0.18093134 0.10909984 0.06552074 -0.014652292 0.231126 0.032635797 -0.07442684 0.0063868654
0.1126293 0.0031891891 -0.073462084 -0.040626597 -0.4072997 -0.128579 0.011458724 -0.13131782
00000000: c319 0a3e 97ee 04be ffdb 993c e585 bf3b
00000010: f1bf b93c 3fc8 9abd 89a7 00be 1669 b13d
00000020: f560 fc3d 2215 40be bd67 c4bd 3b93 cf3d
00000030: 380f b7be da86 a5be 469f 62be 2fba 01be
00000040: 60fb 10be e38d 02be 1bae 4a3e 27ef f8bc
00000050: 75c8 0c3e 5486 39bc 06e5 48be 55b7 9bbe
00000060: 4ce4 c93c 4a19 17be dd51 993e e56a 1cbe
00000070: 696b 0abe 3715 a23e c046 993c 6d94 4cbe
00000080: 96c6 a53c 258e 2a3e 562c 7a3d 7d9c 6fbd
00000090: 52a3 4dbf c4b8 c43c c9a9 ab3b 8185 1fbf
000000a0: 2969 2abd 29dc 743d 2301 a6bc 3061 05bf
000000b0: 3b39 0bbe 1391 acbe 90d7 d4bd 1446 513c
000000c0: 7128 5fbe b594 21be 1e16 f5bc fa1c 563d
000000d0: 8896 b8bd efd0 5d3b b859 cbbc 4a35 1abe
000000e0: ebe3 26bd 6136 cabb a632 ce3d 2276 1dbd
000000f0: 4846 613d b0f1 513d f754 68bd 03d1 4a3c
00000100: 68c0 52be f0aa 1e3e a5cf 7e39 801f d83c
00000110: 4725 1d3e 604a 02be 3cc8 463c a8c3 0e3e
00000120: 0f99 413d f84f a63d 77ec 063c dd59 ce3d
00000130: 6a78 6a3d 0ac1 1e3e 990b ea3d 4cb7 253c
00000140: ddae 5bbd 0c7f b3bd 19fc cbbe 6910 61bd
00000150: e044 603c 0d43 a9be 449e 5abe 631f e83c
00000160: db50 1e3d 2780 88be c768 6cbd bc58 74bd
00000170: 7897 9e3d b254 233c 08c5 1f3b 4f96 643d
00000180: a0b4 2fbd 3ca5 573e 378f 7c3e f93f 5c3c
00000190: a9cb e03d 0e9d db3c 08af 043d d310 71bd
000001a0: e940 d3bc cbcc c63d a418 373c f6cf 35bd
000001b0: c973 61be c785 5e3d e1f3 e03c 8859 4dbe
000001c0: f5b1 5b3e cad5 093e dffc 923d 5063 96bd
000001d0: b7ae 9bbe 5a14 5fbe 4458 843d 673c b83c
000001e0: 271b a0bd e581 a1bd 723a d73c 5549 a13d
000001f0: b7ec 93be 78a8 b0bd 429b fdbe c02a 22bf
00000200: 1828 903c eca2 d8bb 0c86 cfbe 3f45 90be
00000210: 79d1 243d a099 80be 1784 c8be 538f 6ebe
00000220: 7732 dabb f5cf 853e a45b 3dbd 2e4a afbd
00000230: b829 bf3b ff81 343e 6413 1d3d bcb2 573c
00000240: 4b77 6bbe 081e 78bd 620d fc3d a7d1 dfbd
00000250: 15e8 26be 0d6f 573d 7c90 a8bd af7b 2abd
00000260: f3ab bd3c cda8 47be 0a57 223d 9848 d23d
00000270: cd37 66bb 4b50 1abe cb8f b5bc e0c6 f8bb
00000280: d98e 55be e3c6 5abd dd98 32be 0fb3 9e3c
00000290: 152b db3d db42 afbc e158 533e 70f7 8ebd
000002a0: d053 50be 5725 933d cb1b ef3d 72c9 e8bd
000002b0: 1101 50be 8dc8 42bc 6005 fe3b c2f8 853c
000002c0: 6df0 0ebb a268 613d f0d2 973c e487 1abe
000002d0: 2443 e6be 11e5 cebd dd0c efbc 5686 783c
000002e0: aec2 93be d8cf a7be a84a b63c 5180 8bbe
000002f0: cb14 c63c a8c0 013e 22ba 413e 1439 383e
00000300: 4435 65bd 3d13 b9bc ebd5 d1bd dce4 493d
00000310: 61f6 f93d 4247 543b b40d 2fbe f3c6 99bd
00000320: c517 cdbc e85b 42be 5751 f4bd f398 8fbd
00000330: a9a6 6abd b55f 58bd 0f6c 71bd dcbf fbbe
00000340: e6cb e03c 1a57 093e 7057 0abf 90d1 df3c
00000350: da43 72bd 11b5 c8be 7a5f 39be 4934 e7be
00000360: aba5 7dbe 0423 923d 06d3 633e f21a a63c
00000370: 16f6 95bc cf9d 393d 185a 9e3d be05 143d
00000380: 667f 1d3e c729 34be f004 a6be 0f9f 7c3d
00000390: 7bd8 aebe 201f 3bbe e2db 73be 01e8 a9bd
000003a0: a9cd 5abe 0780 73be 6aad c0bd fb81 99bd
000003b0: 55f9 2b3e d8a4 37be 0919 9dbd d1c6 a6bc
000003c0: 1146 39be bd6f df3d bd2f 863d 2b10 70bc
000003d0: 4bac 6c3e 1dad 053d 196d 98bd e948 d13b
000003e0: 31aa e63d b701 513b 4a73 96bd 1368 26bd
000003f0: 9689 d0be 37aa 03be 5fbd 3b3c 2e78 06be

conv_layers.4.0.conv.bias f4 [32]
0.03539213 -0.1302628 -0.06712621 0.10265333 0.022065058 -0.3135508 -0.07634286 -0.055065148
-0.08905713 0.092386425 0.04345944 -0.10365678 -0.03737366 -0.18692124 0.015844384 0.074192055
0.10056899 -0.0950367 0.096750095 0.003920619 -0.047027867 -0.07758178 -0.099470876 -0.061088808
-0.042094637 0.04450932 -0.09208264 -0.08995918 0.11646926 0.12939398 -0.115466736 -0.120585844
00000000: 57f7 103d 9d63 05be 7779 89bd e93b d23d
00000010: c8c1 b43c bb89 a0be a559 9cbd fe8b 61bd
00000020: 9663 b6bd 1835 bd3d 8702 323d 024a d4bd
00000030: 1f15 19bd 4868 3fbe 15cc 813c 01f2 973d
00000040: 1df7 cd3d 9aa2 c2bd ea24 c63d 8978 803b
00000050: 4ba0 40bd 32e3 9ebd 63b7 cbbd 4238 7abd
00000060: 6d6b 2cbd 684f 363d d395 bcbd 853c b8bd
00000070: 6f87 ee3d db7f 043e d379 ecbd b6f5 f6bd

conv_layers.5.0.conv.weight f4 [32, 32, 3, 3]
-0.040741526 -0.01629102 0.13185948 -0.06452224 -0.031305645 0.022253593 -0.12690055 -0.031898867
-0.011900242 -0.005769182 -0.1305939 0.046043012 -0.008292841 0.0041119736 -0.06481314 -0.003985314
0.066324085 0.007872569 -0.29068613 -0.098053046 -0.08345684 -0.11589166 -0.15780708 -0.22949171
-0.040725883 -0.17088364 -0.18476228 -0.005533968 0.00043858142 -0.015237071 0.041466925 -0.023319997
-0.1769537 -0.1213553 -0.039796352 -0.06374431 -0.02383036 0.07235999 -0.010549689 -0.009279205
0.0875505 0.12872902 0.027407335 0.0017758776 -0.007868598 0.06814568 0.09972002 -0.016125975
0.009865695 -0.05849441 -0.12139915 0.20015228 -0.0074659646 -0.053078294 -0.04939864 -0.090354234
-0.11182444 -0.012784028 -0.05054789 -0.13115352 0.0015062811 0.04006772 -0.13101879 -0.00774083
0.06214153 -0.13814709 0.021274293 0.005653099 -0.27019113 0.23036726 0.033949967 -0.12264963
0.043135982 -0.1033672 0.537231 0.25623444 -0.11646622 0.22984256 0.15469767 -0.06531171
-0.0715744 -0.023429517 0.004360518 -0.106709376 0.0343907 0.02481577 -0.0715801 -0.12738109
0.0588353 -0.013869572 -0.17886741 0.01698606 0.18058895 -0.07817455 0.07302623 0.2677617
-0.10863544 -0.08473376 0.006091937 -0.11365538 -0.10445185 0.121110365 0.00081495324 0.033605102
0.099355064 -0.035226904 -0.02609978 -0.03959449 -0.35943016 -0.062037 0.18296146 -0.2542665
-0.10087088 0.14669557 -0.18360148 -0.13128336 0.05594446 0.026151996 0.09110448 -0.014464091
-0.014514424 0.030051285 -0.12512757 -0.033749044 -0.018617658 -0.10872904 -0.15893427 0.0029622652
-0.040392417 -0.11606499 0.08764592 0.08712258 -0.106848516 -0.020358346 -0.057965543 -0.0031648364
0.05308012 0.039966095 -0.031162782 -0.050624922 0.13442221 -0.003393518 -0.07311682 0.0844295
-0.03340391 0.02856241 0.07010468 -0.07102673 -0.017027978 0.071987845 -0.15475094 -0.090511985
-0.04522728 -0.100345545 0.108320914 -0.020204186 -0.07392539 0.023200613 -0.063066244 -0.17387338
-0.15149799 -0.2043308 0.02827409 -0.011596508 0.07396537 -0.08601159 0.013890504 0.18850045
-0.23643173 -0.24475765 -0.1546982 0.011568262 -0.08528651 0.30739456 -0.035474747 -0.06571634
0.2832852 -0.023034181 -0.08969345 0.10114786 0.0054664733 -0.066477284 -0.048272405 0.042616114
0.0073229144 -0.0199189 -0.042046424 -0.056613307 -0.14068806 0.2201298 0.15144226 -0.20900363
-0.007939931 0.06747035 -0.1965039 -0.10948845 -0.08640645 -0.30235508 -0.26823434 0.108940125
0.004326296 -0.01613843 0.19430366 -0.026747428 0.03187094 0.10195954 -0.09665014 0.1186614
0.0395944 0.07040326 -0.030288652 -0.0792295 -0.0038603286 0.12909378 -0.05859337 -0.08549017
-0.056900434 -0.045681152 0.10851279 0.055077743 0.093511336 0.1455411 0.051033888 0.03976656
0.0024663415 -0.07236907 0.028851641 -0.049748152 0.018054921 0.104687616 0.114248015 -0.017686263
0.0052936343 0.07444975 -0.10817711 -0.0734797 -0.13206044 0.06837607 -0.06491154 -0.12746373
0.019004583 -0.13555884 -0.20522779 -0.024512399 -0.111904845 0.036164526 -0.1504317 -0.076518804
0.05094675 0.028375832 0.0038021891 0.009005677 -0.032448404 0.00043469112 -0.043734428 0.12182022
00000000: 96e0 26bd bf74 85bc 2c06 073e 3c24 84bd
00000010: 593a 00bd 2b4d b63c 38f2 01be 63a8 02bd
00000020: 3cf9 42bc 680b bdbb 68ba 05be 9997 3c3d
00000030: b2de 07bc bcbd 863b c0bc 84bd 3d97 82bb
00000040: ecd4 873d f3fb 003c d0d4 94be 09d0 c8bd
00000050: 6beb aabd 9b58 edbd 2e98 21be e0ff 6abe
00000060: 2fd0 26bd 1ffc 2ebe 5332 3dbe 4a56 b5bb
00000070: 67f1 e539 e8a4 79bc 39d9 293d 9409 bfbc
00000080: 5a33 35be 2189 f8bd 8001 23bd 608c 82bd
00000090: e337 c3bc 7931 943d 9ad8 2cbc cf07 18bc
000000a0: ad4d b33d 8ad1 033e 5985 e03c 90c4 e83a
000000b0: 4beb 00bc f68f 8b3d 033a cc3d 9f1a 84bc
000000c0: b9a3 213c d697 6fbd 1ea0 f8bd b8f4 4c3e
000000d0: 0da5 f4bb a068 59bd 3a56 4abd a40b b9bd
000000e0: 3604 e5bd 1a74 51bc 4e0b 4fbd 1c4d 06be
000000f0: 686e c53a 0d1e 243d ca29 06be caa6 fdbb
00000100: 1e88 7e3d 6e76 0dbe 6d47 ae3c a23d b93b
00000110: 7e56 8abe 65e5 6b3e 1f0f 0b3d bb2f fbbd
00000120: 5baf 303d 2fb2 d3bd f987 093f 2931 833e
00000130: d785 eebd d95b 6b3e 1169 1e3e 25c2 85bd
00000140: 9995 92bd 42ef bfbc ade2 8e3b 728a dabd
00000150: 43dd 0c3d 714a cb3c 9698 92bd 3070 02be
00000160: 49fd 703d 343d 63bc 0529 37be 5a26 8b3c
00000170: 4fec 383e fa19 a0bd c78e 953d 1018 893e
00000180: 427c debd e588 adbd df9e c73b 27c4 e8bd
00000190: daea d5bd b608 f83d 96a2 553a 81a5 093d
000001a0: ab7a cb3d 164a 10bd 35cf d5bc d52d 22bd
000001b0: 3b07 b8be 821a 7ebd 405a 3b3e 382f 82be
000001c0: 6495 cebd 5d37 163e 0702 3cbe 256f 06be
000001d0: 0526 653d b63c d63c fc94 ba3d cbfa 6cbc
000001e0: e8cd 6dbc 1d2e f63c 7121 00be 703c 0abd
000001f0: 0f84 98bc 55ad debd aabf 22be 9022 423b
00000200: 8572 25bd 7bb3 edbd b47f b33d 536d b23d
00000210: 65d3 dabd 8cc6 a6bc 476d 6dbd 2569 4fbb
00000220: 8a6a 593d 7db3 233d 1749 ffbc 145c 4fbd
00000230: faa5 093e c965 5ebb 45be 95bd 60e9 ac3d
00000240: 8ad2 08bd b7fb e93c 0b93 8f3d 7676 91bd
00000250: 427e 8bbc 5d6e 933d 0877 1ebe 595e b9bd
00000260: 3e40 39bd f781 cdbd 5bd7 dd3d 4083 a5bc
00000270: 3266 97bd 360f be3c e028 81bd dd0b 32be
00000280: 4a22 1bbe 183c 51be 109f e73c 48ff 3dbc
00000290: 287b 973d d826 b0bd ff94 633c 4306 413e
000002a0: 291b 72be c0a1 7abe 3469 1ebe cf88 3d3c
000002b0: b2aa aebd d262 9d3e f84d 11bd 4a96 86bd
000002c0: c20a 913e 2eb2 bcbc 33b1 b7bd 9c26 cf3d
000002d0: 1a20 b33b 3e25 88bd 49b9 45bd 3c8e 2e3d
000002e0: 0ff5 ef3b f62c a3bc df38 2cbd 5be3 67bd
000002f0: 8810 10be b569 613e ae13 1b3e 0c05 56be
00000300: 7c16 02bc e52d 8a3d 5238 49be 7b3b e0bd
00000310: ddf5 b0bd 49ce 9abe 0356 89be 001c df3d
00000320: 9ac3 8d3b be34 84bc 8af7 463e 6c1d dbbc
00000330: 1a8b 023d 2ad0 d03d 82f0 c5bd c004 f33d
00000340: bd2d 223d 962f 903d e81f f8bc 1343 a2bd
00000350: 91fd 7cbb 2931 043e 9aff 6fbd 7815 afbd
00000360: 6e10 69bd 291c 3bbd f43b de3d 3399 613d
00000370: df82 bf3d ba08 153e e908 513d 43e2 223d
00000380: 58a2 213b 3c36 94bd 475a ec3c b8c4 4bbd
00000390: eae7 933c 7666 d63d ddfa e93d c8e2 90bc
000003a0: 3976 ad3b 1c79 983d f68b ddbd 867c 96bd
000003b0: da3a 07be c108 8c3d 57f0 84bd da85 02be
000003c0: 80af 9b3c f0cf 0abe 3c27 52be 3ace c8bc
000003d0: 5e2e e5bd 4121 143d c40a 1abe e4b5 9cbd
000003e0: 8aad 503d 6f74 e83c 262e 793b 8c8c 133c
000003f0: 9ee8 04bd 41e7 e339 df22 33bd e17c f93d

conv_layers.5.0.conv.bias f4 [32]
-0.00043633764 0.05368632 0.11494434 0.17728484 0.06384688 -0.0106537035 0.13373123 0.11510379
-0.021119192 -0.1703782 -0.026634822 -0.05874917 0.03533989 0.039855093 -0.010886075 0.0029021297
0.037520334 -0.022960056 0.12846814 0.039378285 0.07394236 0.06875557 -0.012291503 -0.26470393
0.018779742 0.05637141 0.045352038 0.047452234 -0.0721801 0.012869424 0.012726847 -0.023125313
00000000: 3fc4 e4b9 30e6 5b3d f067 eb3d 288a 353e
00000010: 27c2 823d df8c 2ebc d7f0 083e 89bb eb3d
00000020: 2802 adbc 9f77 2ebe 4531 dabc f8a2 70bd
00000030: 8fc0 103d 183f 233d 825b 32bc a831 3e3b
00000040: ecae 193d ba16 bcbc 278d 033e 204b 213d
00000050: 186f 973d b8cf 8c3d 4d62 49bc 4687 87be
00000060: f9d7 993c b5e5 663d 0fc3 393d 465d 423d
00000070: 29d3 93bd 47da 523c 4484 503c 4c71 bdbc

conv_layers.7.0.conv.weight f4 [16, 32, 3, 3]
-0.16777295 0.027874678 0.16009036 -0.21294846 0.08057579 0.05678895 0.039688442 -0.023385806
0.13905701 0.2772841 -0.02562047 -0.18016756 0.03069566 0.06829313 -0.18211211 0.15742019
0.06509109 -0.20220423 0.19030711 -0.18651073 -0.14583562 0.14937629 -0.06149213 -0.052113447
0.25349498 -0.009075683 -0.040996943 0.3595786 -0.14520825 -0.19883436 0.42632845 -0.10350783
-0.27495134 0.31887278 -0.07444216 -0.23906176 -0.005476861 0.10171 -0.46115795 0.16758163
-0.23971911 -0.33977932 0.18919803 -0.075491294 -0.51553696 -0.24085225 0.043282796 -0.09623285
0.015805991 0.2033386 -0.09223886 0.008328096 0.19920017 -0.2035087 -0.23375559 0.21702732
0.08498794 -0.20603834 0.06853446 0.12624629 -0.3180397 0.15146749 0.11983822 0.17942809
0.07852628 -0.15059277 -0.20653576 0.035839807 0.015639178 0.15710564 0.062821455 -0.20022297
-0.36467397 0.04211951 0.16050592 0.023660745 -0.01464899 0.037529398 -0.03155929 -0.0062342663
0.097682655 -0.24413766 -0.079708695 0.004985926 -0.20908658 -0.06297915 0.01162987 -0.16409047
-0.19974282 0.05277103 0.075655185 0.15918796 0.029864538 -0.026574856 -0.11551005 -0.1266427
-0.024616875 0.20315176 -0.0028746694 -0.16178039 -0.30316558 0.09208898 -0.1338022 -0.15504134
-0.074323006 -0.19298258 -0.0014306366 0.004734443 0.23375274 -0.054512404 -0.11920822 0.21077056
-0.022741424 -0.15077218 0.2051793 -0.2262028 -0.24845035 0.22674908 -0.28901547 -0.028039003
0.10101432 0.06639553 -0.013315211 0.1410664 0.12750813 0.013786918 0.09953395 -0.28873017
0.011157802 0.15038055 -0.01702592 0.005295157 -0.004929693 -0.2253723 0.0590561 -0.08825442
0.1106417 -0.0074571036 -0.333564 0.068015054 -0.043524086 0.10286593 0.18232718 -0.024957238
0.0046933754 -0.009421 -0.10092636 -0.29571405 0.27497885 -0.13621154 -0.027320515 0.18236856
-0.1454597 -0.14324467 0.12702252 0.076543644 -0.114418164 -0.029965986 0.039808646 -0.14189258
0.043667246 0.1313076 -0.35642034 0.053822633 0.08326397 -0.17316975 0.034479782 0.15903041
-0.29566038 0.07021525 0.110337034 0.15463428 -0.3195366 -0.06493081 0.10622952 0.17509568
-0.11592512 0.07504157 -0.10120096 -0.10520616 0.32973635 -0.1389718 -0.12380268 0.47832862
-0.19348456 -0.07577326 0.30220792 -0.19614209 -0.19082572 0.05547544 0.23344941 -0.105323575
-0.28228617 -0.044704936 0.05945208 0.0672446 0.16956258 -0.05870819 0.040871378 0.11539036
0.011968197 0.07836107 -0.048888147 0.03106989 0.01840785 -0.1995062 -0.01779061 -0.02748002
-0.118983574 0.022880081 -0.15157184 0.036084697 0.11477619 -0.120902695 -0.01728075 0.09324166
-0.17191525 0.21127416 -0.1817988 0.2204079 -0.31880563 -0.1915414 -0.1458591 -0.11322641
-0.14782019 0.2862997 -0.12901536 -0.23488353 0.38643155 -0.14939798 -0.13386896 0.36063063
-0.13632865 -0.24326767 0.13278855 -0.16372548 -0.35175017 0.0857026 -0.020433009 -0.14208713
0.22934364 0.0031309568 -0.23549584 0.23563653 -0.19878379 -0.16397738 0.15047607 0.036757976
-0.07338653 0.2386358 0.0685946 -0.09584549 -0.051238116 -0.013236422 0.047788393 0.04068575
00000000: accc 2bbe 7059 e43c baee 233e 290f 5abe
00000010: eb04 a53d 889b 683d 5990 223d 9793 bfbc
00000020: f664 0e3e 2ef8 8d3e 05e2 d1bc d87d 38be
00000030: 7775 fb3c 45dd 8b3d 997b 3abe c232 213e
00000040: 7a4e 853d a00e 4fbe dedf 423e abfc 3ebe
00000050: ef55 15be 19f6 183e 2cdf 7bbd e974 55bd
00000060: 18ca 813e 2cb2 14bc 69ec 27bd b01a b83e
00000070: 79b1 14be 3c9b 4bbe b947 da3e eafb d3bd
00000080: 6cc6 8cbe 4b43 a33e 2275 98bd 9bcc 74be
00000090: 3d77 b3bb 554d d03d e51c ecbe 859a 2b3e
000000a0: ed78 75be 8ef7 adbe 21bd 413e 2e9b 9abd
000000b0: 3bfa 03bf f9a1 76be 4d49 313d ba15 c5bd
000000c0: 917b 813c fe37 503e bae7 bcbd 9172 083c
000000d0: 21fb 4b3e 9664 50be a05d 6fbe 693c 5e3e
000000e0: 280e ae3d b7fb 52be cc5b 8c3d b546 013e
000000f0: 19d6 a2be 4b1a 1b3e be6d f53d ffbb 373e
00000100: 63d2 a03d fe34 1abe 1c7e 53be c3cc 123d
00000110: bc1d 803c 4de0 203e 89a8 803d 4007 4dbe
00000120: 8cb6 babe 8285 2c3d aa5b 243e 2ed4 c13c
00000130: 5102 70bc 6db8 193d 5044 01bd d148 ccbb
00000140: d80d c83d 39ff 79be 503e a3bd fb60 a33b
00000150: cb1a 56be 36fb 80bd 368b 3e3c 5507 28be
00000160: 6289 4cbe 7026 583d 1bf1 9a3d 2b02 233e
00000170: 7aa6 f43c 83b3 d9bc 8890 ecbd a0ae 01be
00000180: 54a9 c9bc 0407 503e f364 3cbb c2a9 25be
00000190: 8538 9bbe 2699 bc3d 7203 09be 28c3 1ebe
000001a0: a936 98bd 3a9d 45be 3384 bbba 6323 9b3b
000001b0: e15c 6f3e 6648 5fbd 7023 f4bd 3dd4 573e
000001c0: 394c babc 0664 1abe 861a 523e b5a1 67be
000001d0: c569 7ebe e930 683e d6f9 93be 0db2 e5bc
000001e0: 99e0 ce3d 61fa 873d 0b28 5abc b673 103e
000001f0: 7e91 023e 86e2 613c 75d8 cb3d 71d4 93be
00000200: 37cf 363c 5cfd 193e f179 8bbc ff82 ad3b
00000210: 4389 a1bb ffc7 66be cfe4 713d bcbe b4bd
00000220: 1e98 e23d b85a f4bb e7c8 aabe 7a4b 8b3d
00000230: 5046 32bd 5fab d23d fab3 3a3e 1f73 ccbc
00000240: e3ca 993b 8a5a 1abc 7bb2 cebd d567 97be
00000250: 07ca 8c3e 0a7b 0bbe 46cf dfbc d3be 3a3e
00000260: 63f3 14be bbae 12be 3112 023e eac2 9c3d
00000270: 1254 eabd 3a7b f5bc 640e 233d 4a4c 11be
00000280: 6ddc 323d 8075 063e ba7c b6be 1f75 5c3d
00000290: 4d86 aa3d 6953 31be ac3a 0d3d ded8 223e
000002a0: cc60 97be 03cd 8f3d 62f8 e13d 7358 1e3e
000002b0: 4d9a a3be 72fa 84bd dd8e d93d 484c 333e
000002c0: 266a edbd 65af 993d 7342 cfbd 5476 d7bd
000002d0: 34d3 a83e a04e 0ebe 428c fdbd 7de7 f43e
000002e0: d120 46be 032f 9bbd ffba 9a3e 79d9 48be
000002f0: d167 43be 373a 633d 5d0d 6f3e e3b3 d7bd
00000300: d087 90be 861c 37bd 0684 733d 89b7 893d
00000310: d0a1 2d3e 0078 70bd bf68 273d c851 ec3d
00000320: 4216 443c c57b a03d f03e 48bd 4886 fe3c
00000330: 0fcc 963c 5a4b 4cbe 9dbd 91bc c71d e1bc
00000340: a9ad f3bd 026f bb3c a635 1bbe 8ccd 133d
00000350: c70f eb3d d59b f7bd 5c90 8dbc 7cf5 be3d
00000360: 8d0a 30be 4158 583e 7729 3abe 9cb2 613e
00000370: 7e3a a3be 6e23 44be 175c 15be 3fe3 e7bd
00000380: 2d5e 17be e095 923e 9a1c 04be 4f85 70be
00000390: 5bda c53e c9fb 18be f214 09be 94a4 b83e
000003a0: bd99 0bbe 291b 79be b9f9 073e a7a7 27be
000003b0: 9918 b4be d884 af3d 2063 a7bc 4a7f 11be
000003c0: 0fd9 6a3e bd30 4d3b d225 71be b44a 713e
000003d0: fa8d 4bbe b0e9 27be 6616 1a3e 888f 163d
000003e0: ad4b 96bd f15c 743e 537b 8c3d a44a c4bd
000003f0: 0fdf 51bd 94dd 58bc c3bd 433d 1aa6 263d

conv_layers.7.0.conv.bias f4 [16]
-0.009917064 0.005711913 0.012144469 -0.015451774 0.078615144 0.017593367 0.024069749 0.11591942
0.10075027 0.084270865 0.10847548 -0.018285656 0.0406501 0.08294942 -0.026114918 -0.20819443
00000000: 2e7b 22bc 002b bb3b 98f9 463c 7029 7dbc
00000010: fa00 a13d f71f 903c ec2d c53c 2967 ed3d
00000020: 2856 ce3d 3496 ac3d 6428 de3d cdcb 95bc
00000030: b880 263d 63e1 a93d f4ee d5bc ec30 55be

linear_layers.0.weight f4 [64, 400]
-0.16153663 0.04413235 0.00021921484 -0.01747964 -0.0116655 -0.11026916 0.0005025707 0.061757747
-0.004313838 -0.09115195 -0.07013679 -0.019760853 -0.00015214582 -0.08818071 -0.12033025 -0.18533978
0.010371532 0.036559623 -0.04587152 -0.09183093 -0.08905927 0.016807027 -0.064527266 0.030004062
-0.08531247 -0.053460214 0.105482034 0.09777312 -0.036140505 -0.052014876 -0.19014649 -0.03230016
0.04304121 -0.08378494 -0.12843736 -0.15276958 -0.039528903 -0.012328871 -0.08674799 -0.13786882
-0.029433368 -0.033928834 -0.06415353 -0.018578472 -0.063460775 -0.011913985 0.05590069 -0.03914758
0.0013252904 -0.08123928 -0.023803072 0.039409585 0.027244627 0.032456644 0.02211104 0.022109926
-0.03019609 -0.13486822 0.06953493 0.004720415 0.0481047 -0.13269697 -0.07134536 0.07207732
0.0052730343 0.042838383 -0.21620363 -0.07294575 0.0833971 -0.06136311 -0.019093486 -0.07312992
-0.02369344 0.02441028 0.023146067 0.0794944 -0.04269632 -0.069618866 -0.094140954 0.022619972
0.046004828 -0.16301726 -0.14298372 -0.0066606617 0.027234046 0.048156537 -0.21724218 -0.085075095
-0.034322325 -0.058574915 -0.10345103 -0.17073357 -0.079373755 -0.042613424 -0.030117037 -0.10770077
-0.07130236 -0.031274814 -0.035893608 0.055345282 0.018079426 -0.042784214 0.090526596 0.08951017
0.027904853 0.0009953731 0.011509322 0.035004865 0.036856998 -0.050353717 -0.018526938 -0.05926968
0.01276311 0.024785234 -0.14063689 -0.04919115 -0.08127226 0.09881308 -0.0011370099 -0.082479656
0.011372769 0.02764449 0.083680674 0.019019505 -0.04335247 -0.057889603 0.011447819 0.026017277
-0.03213251 -0.15291198 -0.1675099 0.02574827 -0.0028700987 -0.11449866 -0.16647321 -0.20642771
0.04354062 -0.0048850826 -0.061589554 -0.15190212 -0.12023389 0.036232542 -0.031971958 -0.054280374
-0.16782258 -0.045865837 0.057209827 -0.06555366 -0.056632575 -0.08844548 -0.09129514 -0.051704347
0.0027207206 0.015048163 0.047559664 -0.111519374 -0.056342334 0.058446005 -0.06477565 0.0693623
-0.122806616 -0.034472276 0.015143817 0.009683986 0.0720966 -0.14130758 -0.03289254 -0.0026698725
0.07129726 0.08271174 -0.10895628 -0.008710844 -0.05980469 0.04014276 0.12899834 0.002726341
-0.024928845 0.054878067 0.014326421 0.023768958 -0.08739701 -0.10978957 0.049699813 0.04973833
-0.01976346 -0.08000639 -0.068987444 0.011856933 0.022717856 -0.04509005 0.026382076 -0.03581782
0.021041678 -0.03409642 0.015759248 0.034688152 -0.022407182 0.0005862883 -0.03441299 0.045197684
0.030090505 -0.012438568 0.017112006 0.10315154 -0.06561243 0.010227847 -0.09609712 0.021888863
0.10244115 -0.05698479 0.02395809 -0.016707074 -0.037665848 0.0528821 -0.009908865 0.045745168
-0.016156014 0.028619342 0.025955666 -0.033366665 -0.030225592 0.05405132 0.036036264 -0.04430832
-0.04334687 -0.015415474 -0.0697982 0.01921017 -0.004785662 -0.009594197 -0.119162045 -0.089326315
0.04920057 -0.014856197 0.009404537 -0.08741576 -0.042160824 0.011579635 0.017022504 0.010260644
-0.08984535 -0.0021430533 0.08968925 -0.008187373 0.017392721 -0.051182408 0.066429034 0.061942026
0.023399767 -0.01572485 -0.061785962 -0.012597013 0.010927672 0.014977396 0.019379474 -0.14834996
00000000: dc69 25be 1fc4 343d 09dd 6539 7631 8fbc
00000010: a720 3fbc ccd4 e1bd f3be 033a b1f5 7c3d
00000020: 195b 8dbb e0ad babd e1a3 8fbd 83e1 a1bc
00000030: 5589 1fb9 1798 b4bd b56f f6bd b6c9 3dbe
00000040: 5ced 293c 8bbf 153d c6e3 3bbd db11 bcbd
00000050: b564 b6bd e4ae 893c df26 84bd 14cb f53c
00000060: 4eb8 aebd 19f9 5abd f706 d83d 463d c83d
00000070: 1108 14bd 8d0d 55bd c3b5 42be 2c4d 04bd
00000080: fb4b 303d 7097 abbd 1585 03be a16f 1cbe
00000090: 0fe9 21bd 08ff 49bc eea8 b1bd 7c2d 0dbe
000000a0: 3f1e f1bc f6f8 0abd ed62 83bd e131 98bc
000000b0: b9f7 81bd e032 43bc 1ff8 643d 3659 20bd
000000c0: 5eb5 ad3a c860 a6bd a9fe c2bc f26b 213d
000000d0: 2030 df3c 42f1 043d 3622 b53c e01f b53c
000000e0: ca5d f7bc e51a 0abe 5468 8e3d b6ad 9a3b
000000f0: 6f09 453d b7e1 07be 841d 92bd 469d 933d
00000100: 6bc9 ac3b 4d77 2f3d 7c64 5dbe 9564 95bd
00000110: 19cc aa3d e257 7bbd f169 9cbc 24c5 95bd
00000120: bf18 c2bc 11f8 c73c d29c bd3c f6cd a23d
00000130: 56e2 2ebd 5694 8ebd f9cc c0bd 854d b93c
00000140: 8f6f 3c3d ffed 26be 536a 12be ae41 dabb
00000150: ef19 df3c ca3f 453d bc74 5ebe da3b aebd
00000160: 9195 0cbd 40ec 6fbd 22de d3bd c8d4 2ebe
00000170: b58e a2bd 6a8b 2ebd 01b8 f6bc 3992 dcbd
00000180: f906 92bd 051a 00bd 2d05 13bd bcb1 623d
00000190: 4e1b 943c 803e 2fbd 0266 b93d 1c51 b73d
000001a0: b898 e43c 2e77 823a 9891 3c3c 4361 0f3d
000001b0: 5df7 163d b33f 4ebd cec5 97bc c4c4 72bd
000001c0: 5d1c 513c 670a cb3c 1e03 10be a97c 49bd
000001d0: 1272 a6bd 835e ca3d b907 95ba 18eb a8bd
000001e0: da54 3a3c b376 e23c c660 ab3d cbce 9b3c
000001f0: 5c92 31bd a61d 6dbd a28f 3b3c 2f22 d53c
00000200: 619d 03bd f594 1cbe b787 2bbe 09ee d23c
00000210: 4418 3cbb 467e eabd f477 2abe c961 53be
00000220: a657 323d 0b13 a0bb 5445 7cbd 3b8c 1bbe
00000230: 303d f6bd 9368 143d 07f5 02bd 1955 5ebd
00000240: afd9 2bbe d1dd 3bbd da54 6a3d ff40 86bd
00000250: 8ff7 67bd e722 b5bd f2f8 babd f0c7 53bd
00000260: 1e4e 323b 928c 763c eccd 423d 4564 e4bd
00000270: 38c7 66bd 1465 6f3d 19a9 84bd d20d 8e3d
00000280: 0982 fbbd cd32 0dbd c61d 783c 95a9 1e3c
00000290: 62a7 933d efb2 10be 54ba 06bd 07f9 2ebb
000002a0: 4c04 923d c664 a93d 7824 dfbd eeb7 0ebc
000002b0: c3f5 74bd bc6c 243d 2418 043e 69ac 323b
000002c0: 9437 ccbc d3c7 603d 5db9 6a3c 1eb7 c23c
000002d0: 34fd b2bd 5bd9 e0bd 0892 4b3d 6bba 4b3d
000002e0: fbe6 a1bc 64da a3bd 4a49 8dbd 9543 423c
000002f0: cc1a ba3c 58b0 38bd 391f d83c b5b5 12bd
00000300: 995f ac3c b0a8 0bbd 8a19 813c 2a15 0e3d
00000310: 448f b7bc 24b1 193a a3f4 0cbd 3521 393d
00000320: 5d80 f63c 23cb 4bbc 7a2e 8c3c 1d41 d33d
00000330: cf5f 86bd b392 273c 91ce c4bd 4650 b33c
00000340: aacc d13d e268 69bd c243 c43c 46dd 88bc
00000350: 8147 1abd e79a 583d cb58 22bc 495f 3b3d
00000360: 9e59 84bc 1c73 ea3c faa0 d43c 7cab 08bd
00000370: a99b f7bc eb64 5d3d c39a 133d a47c 35bd
00000380: 7d8c 31bd 2f91 7cbc 5cf2 8ebd a55e 9d3c
00000390: 0bd1 9cbb fb30 1dbc 3b0b f4bd b7f0 b6bd
000003a0: 8986 493d 6867 73bc 7d15 1a3c 0907 b3bd
000003b0: d4b0 2cbd 82b8 3d3c c772 8b3c 431c 283c
000003c0: d700 b8bd 7872 0cbb ffae b73d 5524 06bc
000003d0: 2e7b 8e3c a5a4 51bd f20b 883d ecb6 7d3d
000003e0: deb0 bf3c 67d1 80bc 4713 7dbd b463 4ebc
000003f0: fa09 333c c063 753c b4c1 9e3c 0de9 17be

linear_layers.0.bias f4 [64]
0.26123935 0.23005284 0.22939143 0.22255142 0.18495686 0.26433197 0.24753343 0.3128874
0.23702884 0.26427367 0.2751576 0.23738709 0.32099548 0.38785842 0.22991903 0.28186244
0.3747944 0.28219223 0.2621454 0.19920747 0.32369208 0.18182084 0.2728613 0.16445792
0.2611096 0.31179136 0.2815886 0.22091708 0.19316699 0.24891438 0.24273773 0.20813455
0.23439553 0.23087592 0.43200278 0.17102686 0.21021996 0.323047 0.23853064 0.18345977
0.2460927 0.3308839 0.39350945 0.34594467 0.2277892 0.2853065 0.34722584 0.20141666
0.2536927 0.4057817 0.41322103 0.44144553 0.18679796 0.22109957 0.29337746 0.21899179
0.23873055 0.20932348 0.24598117 0.34780714 0.34369913 0.23607178 0.19036701 0.24888003
00000000: 2ac1 853e f992 6b3e 96e5 6a3e 85e4 633e
00000010: 5565 3d3e 8556 873e 6779 7d3e c732 a03e
00000020: b0b7 723e e14e 873e 75e1 8c3e 9a15 733e
00000030: 8559 a43e 6195 c63e e56f 6b3e 4650 903e
00000040: 0de5 bf3e 807b 903e ec37 863e 0bfd 4b3e
00000050: f8ba a53e 3e2f 3a3e 7ab4 8b3e a867 283e
00000060: 28b0 853e 1ea3 9f3e 622c 903e 1638 623e
00000070: 91cd 453e 69e3 7e3e 3d90 783e 3921 553e
00000080: 6205 703e bd6a 6c3e 782f dd3e aa21 2f3e
00000090: e743 573e 6b66 a53e 6041 743e e1dc 3b3e
000000a0: baff 7b3e 9d69 a93e 127a c93e a91f b13e
000000b0: 9241 693e b213 923e 96c7 b13e 2b40 4e3e
000000c0: 02e4 813e 9ec2 cf3e b591 d33e 2605 e23e
000000d0: f747 3f3e ed67 623e 9235 963e 623f 603e
000000e0: c875 743e e558 563e 7de2 7b3e c713 b23e
000000f0: 55f9 af3e cdbc 713e 92ef 423e 68da 7e3e

linear_layers.3.weight f4 [4, 64]
-0.12824667 -0.08068239 -0.5391826 -0.3600216 0.27931902 -0.03485905 0.9642947 -1.0451177
0.57996607 0.021971809 0.90462583 0.091063224 -0.09414456 0.108052626 0.33704442 0.3735877
-0.26124814 -0.7700792 -0.13292642 0.4143038 -0.3387352 -0.83110756 0.3924769 0.94671595
-0.35795632 -0.4600972 0.0073320554 -0.12057062 1.0398551 0.046171866 -0.30938208 0.266794
0.14585581 0.47315454 -0.003567317 -1.1388371 0.23618624 -0.22155286 -0.41565353 0.36522624
0.24125889 0.14861514 0.8266933 -0.01685408 0.01665432 0.061720468 0.33441472 -0.2896216
-0.58780444 -0.05449709 -0.00083796115 0.17110376 0.7431361 0.74531466 0.21689542 -0.28841472
-0.906692 -0.36230263 -0.12378488 -0.08244278 -0.35225862 0.33028314 -0.9847463 0.17654926
-0.38003 -0.5243162 -0.84804326 0.5699107 0.28691843 0.90424925 -0.12073722 -0.39122143
0.82317454 0.71071136 0.18787178 -0.38679746 0.28860316 -0.2727749 0.24279843 -0.12108375
0.2593723 0.29707205 -0.3099548 -0.54554105 0.05635274 0.88540477 0.105359994 0.46992546
-0.12624742 0.0867735 0.32235512 -0.8806709 -1.1331513 0.32383946 0.32282805 -0.2652895
0.3862322 -0.593868 -0.66930985 -0.86001694 -0.9561719 -0.26387188 -0.40088204 0.44386867
0.72054005 -0.32345524 -0.17102197 -0.44112062 0.49027225 -0.6033947 -0.011568139 -0.4189225
0.73921406 0.56059456 0.37943208 0.4334905 1.1817697 -0.5858528 0.41960713 -0.6568516
-0.2004478 0.37249216 0.42425516 -0.3073683 -0.039066482 -0.31892607 0.64804435 -0.5281181
-0.12273191 -0.06490897 -0.5487887 -0.36863315 0.26861796 -0.030228866 0.9114714 -0.96272427
0.58269244 -0.00010039072 0.7009593 0.095714144 -0.0887567 0.09987642 0.32484597 0.3854737
-0.28262323 -0.7421108 -0.12442951 0.4221064 -0.3383928 -0.68684256 0.41327193 0.85563725
-0.36466813 -0.45535102 0.0069923126 -0.13806216 0.7896327 0.03944038 -0.32355267 0.26235595
0.14978889 0.47350574 -0.032112777 -0.8294705 0.2203667 -0.2251007 -0.39622593 0.3814019
0.26122478 0.14965536 0.8018352 -0.024407929 0.0147063425 0.06379625 0.34641415 -0.3070745
-0.5668444 -0.051907215 -0.0075174207 0.17812076 0.56199944 0.74004686 0.24798654 -0.30277056
-0.883396 -0.35070986 -0.12836304 -0.101842366 -0.36675915 0.3144449 -0.8221802 0.16891935
-0.36927682 -0.722711 -0.8817811 0.49020207 0.32066914 0.62536114 -0.11054897 -0.3061999
0.75876456 0.58826977 0.2776847 -0.36778015 0.28380114 -0.27337277 0.21929881 -0.11416533
0.33483034 0.25098267 -0.38931337 -0.5620292 0.088911235 0.68986964 0.05803202 0.39037323
-0.18559279 0.10652817 0.65951735 -0.91881657 -0.7590284 0.31760535 0.39509115 -0.31694123
0.3686692 -0.7194353 -0.60844165 -0.6951874 -0.43936282 -0.24311434 -0.44779584 0.51722217
0.457318 -0.33218738 -0.24139875 -0.43796843 0.91961044 -0.59941477 0.020405157 -0.32162255
0.7267813 0.42231658 0.34675193 0.50582033 0.8261494 -0.5356843 0.34803432 -0.60438895
-0.18506882 0.36369324 0.44532335 -0.34366825 -0.04962871 -0.3551786 0.61907995 -0.69362086
00000000: 1853 03be cf3c a5bd df07 0abf c054 b8be
00000010: e702 8f3e 5dc8 0ebd 04dc 763f 6bc6 85bf
00000020: a878 143f 39fe b33c 8f95 673f 5b7f ba3d
00000030: ddce c0bd b24a dd3d 1691 ac3e e346 bf3e
00000040: 51c2 85be e923 45bf dd1d 08be a11f d43e
00000050: b36e adbe 77c3 54bf bbf2 c83e fa5b 723f
00000060: 0d46 b7be dc91 ebbe bd41 f03b bbed f6bd
00000070: f919 853f b61e 3d3d 5467 9ebe 3999 883e
00000080: 3a5b 153e 5041 f23e a6c9 69bb 6ac5 91bf
00000090: ceda 713e c1de 62be 8ad0 d4be effe ba3e
000000a0: 920c 773e 912e 183e 2ca2 533f 9111 8abc
000000b0: a46e 883c 9ace 7c3d 6838 ab3e 4849 94be
000000c0: 5a7a 16bf 5738 5fbd 9faa 5bba d335 2f3e
000000d0: 2b3e 3e3f f1cc 3e3f d519 5e3e 18ab 93be
000000e0: f81c 68bf bb7f b9be ed82 fdbd c3d7 a8bd
000000f0: 3e5b b4be df1a a93e 5518 7cbf 54c9 343e
00000100: 4b93 c2be 9639 06bf 5d19 59bf abe5 113f
00000110: f9e6 923e e17c 673f 1345 f7bd 2d4e c8be
00000120: 91bb 523f 2ef1 353f 7661 403e 510a c6be
00000130: cbc3 933e 27a9 8bbe 27a0 783e c2fa f7bd
00000140: 72cc 843e d419 983e 65b2 9ebe 94a8 0bbf
00000150: 21d2 663d e3a9 623f fbc6 d73d 129a f03e
00000160: 0147 01be 4eb6 b13d bb0b a53e a673 61bf
00000170: 1a0b 91bf 49ce a53e b849 a53e 06d4 87be
00000180: 3ac0 c53e bc07 18bf e457 2bbf 122a 5cbf
00000190: aec7 74bf 371a 87be 6940 cdbe c142 e33e
000001a0: 5075 383f ed9b a5be 6220 2fbe 90da e1be
000001b0: f704 fb3e 1378 1abf 4b88 3dbc 037d d6be
000001c0: 223d 3d3f 2083 0f3f ec44 c23e 78f2 dd3e
000001d0: 3b44 973f 73fa 15bf bfd6 d63e 6d27 28bf
000001e0: 3042 4dbe 4bb7 be3e f937 d93e 615f 9dbe
000001f0: 2d04 20bd 474a a3be 3ce6 253f bf32 07bf
00000200: de5a fbbd feee 84bd 6b7d 0cbf 7cbd bcbe
00000210: 4b88 893e 87a2 f7bc 3156 693f 1975 76bf
00000220: 552b 153f db88 d2b8 1272 333f c705 c43d
00000230: 13c6 b5bd 028c cc3d 3652 a63e cf5c c53e
00000240: feb3 90be f9fa 3dbf e6d4 febd 541e d83e
00000250: d241 adbe ead4 2fbf 6198 d33e 0b0b 5b3f
00000260: c8b5 babe c523 e9be c51f e53b 2b60 0dbe
00000270: 5e25 4a3f 3c8c 213d b2a8 a5be 8553 863e
00000280: 4262 193e 586f f23e b088 03bd 2e58 54bf
00000290: cfa7 613e cc80 66be 20de cabe 1c47 c33e
000002a0: 41bf 853e 413f 193e 1245 4d3f 23f3 c7bc
000002b0: dff2 703c 9ca7 823d 325d b13e de38 9dbe
000002c0: b71c 11bf a99c 54bd b254 f6bb 4a65 363e
000002d0: 32df 0f3f b673 3d3f 2ff0 7d3e be04 9bbe
000002e0: 3e26 62bf 3e90 b3be 9a71 03be bb92 d0bd
000002f0: dbc7 bbbe ecfe a03e 677a 52bf 32f9 2c3e
00000300: da11 bdbe 9703 39bf 68bc 61bf c4fb fa3e
00000310: bf2e a43e ab17 203f 8067 e2bd 3cc6 9cbe
00000320: 653e 423f d998 163f b02c 8e3e ae4d bcbe
00000330: 624e 913e 84f7 8bbe de8f 603e 83cf e9bd
00000340: e26e ab3e cd80 803e 1554 c7be 25e1 0fbf
00000350: 1817 b63d 4c9b 303f fcb2 6d3d 00df c73e
00000360: 090c 3ebe 712b da3d 21d6 283f 9037 6bbf
00000370: af4f 42bf 2b9d a23e 6349 ca3e 1f46 a2be
00000380: 36c2 bc3e e92c 38bf d5c2 1bbf cdf7 31bf
00000390: 2af4 e0be f7f2 78be 7f45 e5be ac68 043f
000003a0: 9625 ea3e 7714 aabe 3c31 77be 663d e0be
000003b0: 976b 6b3f 3f73 19bf b728 a73c b6ab a4be
000003c0: 570e 3a3f e139 d83e 7889 b13e 717d 013f
000003d0: 877e 533f 9b22 09bf 8e31 b23e 3cb9 1abf
000003e0: ae82 3dbe 0036 ba3e 6c01 e43e 49f5 afbe
000003f0: 7947 4bbd f8d9 b5be 067c 1e3f 2391 31bf

linear_layers.3.bias f4 [4]
-0.014819491 0.017676167 -0.012378613 0.021343566
00000000: 73cd 72bc 9ccd 903c abcf 4abc b4d8 ae3c
