models/model_x10/model_x10\model.pth (torch, 189305 bytes, 12 tensors)

conv_layers.0.0.conv.weight f4 [16, 10, 3, 3]
0	0x3e813f05	0.25243393
1	0x3e5367c6	0.20645055
2	0x3e666745	0.22500332
3	0x3ec616aa	0.38689166
4	0x3e296fc1	0.16546537
5	0x3f0d0c54	0.55096936
6	0x3f3be21a	0.7339188
7	0x3f12948e	0.57257926
8	0x3e95e6b6	0.2927758
9	0x3caa195b	0.020764044
10	0x3d6fc51b	0.058537584
11	0x3d0a5fd1	0.033782784
12	0x3c6a5a36	0.0143037345
13	0xb9fe296d	-0.0004847752
14	0xbd13770a	-0.036002196
15	0xbdbd9cf7	-0.09258454
16	0x3ce630c5	0.028099427
17	0xbc9b2b3f	-0.01894152
18	0xb9f3bd5b	-0.00046489653
19	0xbc875125	-0.016518185
20	0xbcdac125	-0.026703427
21	0x3c95e061	0.018295469
22	0x3c63486b	0.013872246
23	0x3cd3a945	0.02583755
24	0x3cb6c3e0	0.022310197
25	0xbbf6802e	-0.0075226044
26	0xba606335	-0.0008559705
27	0x3c376cd6	0.011195382
28	0x3c468104	0.012115721
29	0x3c0ff815	0.008787175
30	0xbba4c64d	-0.005028522
31	0x3b8ae165	0.004238295
32	0xbd768c44	-0.06019236
33	0x3b922534	0.0044600014
34	0xbc559949	-0.013037034
35	0x3b194121	0.0023384767
36	0xbc7dea14	-0.015497703
37	0xbb65595a	-0.0034995885
38	0x3a3162b4	0.0006766722
39	0x3c9b72e5	0.018975684
40	0xbb04cc99	-0.0020263551
41	0xbc3595a6	-0.011083042
42	0x3bf2b2da	0.0074065747
43	0x3c4117f3	0.011785495
44	0xbba7205a	-0.005100292
45	0xbeaf7c3d	-0.34274474
46	0xbf934888	-1.150651
47	0xbf9f01a6	-1.2422378
48	0x3eecbb86	0.4623682
49	0x3f660ff1	0.89868075
50	0x3f86c995	1.0530268
51	0x3a998706	0.0011713214
52	0x3f87fc4c	1.062387
53	0xbfbecb0b	-1.4905714
54	0xbd81ba62	-0.06334378
55	0xbdb00845	-0.08595327
56	0xbd649159	-0.055802677
57	0x3d16d24b	0.036821645
58	0x3d0e6225	0.034761567
59	0x3bdc53a9	0.0067238403
60	0x3c6fb80d	0.0146312835
61	0xbc7f37c5	-0.015577261
62	0xbd04e11b	-0.03244124
63	0xbcc97ad0	-0.024594694
64	0xbbad7096	-0.0052929623
65	0xbd60f01c	-0.054916486
66	0x3b7fdd2c	0.003904174
67	0x3ce59831	0.028026672
68	0x3cfcc227	0.030854298
69	0x3d81f685	0.06345848
70	0x3cc82efe	0.02443647
71	0xbd7184a5	-0.05896439
72	0x3cb7e1be	0.02244651
73	0xbc12e928	-0.008966722
74	0xbc997e55	-0.018736998
75	0x3c88bb33	0.016690826
76	0x3d263b80	0.040584087
77	0x3ca65eda	0.0203089
78	0xbc93a78c	-0.018024229
79	0x3be92932	0.0071155066
80	0x3a87f4cf	0.0010372641
81	0xbb9ba393	-0.004749724
82	0xbc410cd6	-0.0117828455
83	0x3ae78c36	0.0017665687
84	0x3bcc70f9	0.0062390533
85	0x3c42ffcd	0.011901808
86	0xbcd2277b	-0.025653591
87	0x3cf5ec30	0.03001985
88	0xbc5217bf	-0.012823044
89	0xb98d0fd7	-0.00026905417
90	0x3f42bd2a	0.7606989
91	0x3fb2e10a	1.3974926
92	0x3faea1f4	1.3643174
93	0x3f00bc74	0.50287557
94	0x3f0b9e71	0.5453864
95	0x3ef2df11	0.4743581
96	0x3ee6728f	0.45009276
97	0x3f39685d	0.7242487
98	0x3f56e2f3	0.8394005
99	0xbc4c57be	-0.012472091
100	0x3d81cdcc	0.06338081
101	0xbd06ee42	-0.032942064
102	0x3ac790c6	0.0015225641
103	0xba6f8dbb	-0.0009138246
104	0xbcaff312	-0.02147821
105	0xbdb17794	-0.08665386
106	0x3bcdd00d	0.006280905
107	0xbc0ae926	-0.0084784385
108	0xbc4176a7	-0.011808074
109	0xbd7c0cb3	-0.06153555
110	0x3d9ca5dd	0.076488234
111	0xbbc2ad52	-0.0059410715
112	0xbc209509	-0.009801158
113	0x3c95a17f	0.018265484
114	0x3d83ff3a	0.06445165
115	0x3c97332b	0.018457016
116	0xbd05148c	-0.0324903
117	0xbda94ec9	-0.0826698
118	0xbed12cf4	-0.4085461
119	0xbeaf4578	-0.34232688
120	0xbad0271b	-0.0015880795
121	0x3dca2acf	0.09871446
122	0x3a2a0e25	0.0006487093
123	0x3d833b55	0.06407801
124	0x3c16578f	0.009176149
125	0xbc3eb46a	-0.011639694
126	0x3db73389	0.089453764
127	0x3d53a149	0.051667485
128	0xbb94cd71	-0.004541092
129	0xbb29cc39	-0.002590908
130	0xbb040958	-0.002014717
131	0x3a3a7552	0.0007112819
132	0xbcdeddde	-0.027205404
133	0xbbc4da5e	-0.0060074767
134	0x3df567e4	0.11982706
135	0x3d0f6dc5	0.035016794
136	0x3cb23675	0.021754483
137	0xbf0c90dc	-0.5490854
138	0x3c43414e	0.011917425
139	0x3c572a3a	0.013132626
140	0x3cfb826d	0.03070184
141	0xbc87f227	-0.01659496
142	0xbd19c6bb	-0.03754304
143	0x3c392074	0.011299241
144	0xb9aabc28	-0.00032565114
145	0xbbacd511	-0.005274423
146	0xbe19ee1f	-0.15032242
147	0xb911f011	-0.0001391771
148	0xbc0eb7c8	-0.008710809
149	0xbbd24c54	-0.0064177904
150	0x3d2ca100	0.04214573
151	0xbc918e09	-0.017767923
152	0xbb01d70b	-0.0019812013
153	0x3b029506	0.001992525
154	0x3c5a8c8d	0.013339174
155	0x3d55ac3c	0.05216621
156	0xbb6c40af	-0.0036049297
157	0x3ba586b3	0.005051458
158	0x3c2dd848	0.0106106475
159	0xbd3f06f7	-0.0466375
160	0x3c64cd9c	0.013965037
161	0x3c12d951	0.008962945
162	0x3be567a1	0.007000879
163	0x3bde8ac3	0.006791444
164	0x38f8f2b8	0.000118707714
165	0xbb4bfd2d	-0.0031126246
166	0x3c13df60	0.009025425
167	0x3a8d18be	0.001076482
168	0xbdb57e60	-0.08861995
169	0xbb0e32d7	-0.0021697783
170	0xbc95dcd4	-0.018293776
171	0x3b52504d	0.003209132
172	0xbc4fd99e	-0.012686161
173	0x3cb54264	0.022126384
174	0xbc41e24d	-0.0118337395
175	0xbb44f8ec	-0.0030055596
176	0x3c69763d	0.014249382
177	0xba7dbd4d	-0.0009679392
178	0xb988c18c	-0.00026084145
179	0xb9d980d6	-0.00041485456
180	0x3fb51b4f	1.4148959
181	0x3fd5b2ae	1.6695154
182	0x3fb841db	1.4395097
183	0x3fd99f9f	1.7001837
184	0x3fd926ae	1.6964929
185	0x3fcb2e3e	1.5873487
186	0x3fa2bee0	1.27145
187	0x3fe3caf5	1.7796313
188	0x3fc2faf0	1.523283
189	0xbb146771	-0.0022644664
190	0xbbba589a	-0.0056868317
191	0xbc2b572e	-0.010457797
192	0xbba4d18a	-0.005029862
193	0xb9ab64d9	-0.000326908
194	0xbb9671f0	-0.004591219
195	0xbb2ba5c8	-0.0026191343
196	0x39c8c7b9	0.00038295778
197	0xbb21dc74	-0.002469805
198	0x3a79d9fe	0.00095310796
199	0x39098bde	0.00013117443
200	0xbcc719e2	-0.024304334
201	0x3ae6798d	0.0017583832
202	0xbaad6ba1	-0.0013230928
203	0x38abbe78	8.189393e-05
204	0xbc328a77	-0.01089727
205	0x3b65d942	0.0035072123
206	0xbb565ce5	-0.0032709178
207	0xbcf2c25e	-0.029633697
208	0xbc182955	-0.009287198
209	0xbb8dcc9b	-0.0043273694
210	0xbd5627ed	-0.05228417
211	0xbbd9f407	-0.006651405
212	0xbc90ad4d	-0.017660761
213	0xbc14dcd3	-0.009085852
214	0xbb67883c	-0.0035329005
215	0xbba61c4f	-0.0050692926
216	0x3be62cf0	0.0070244
217	0x3b7cf590	0.0038598515
218	0x3b9c6a0e	0.004773385
219	0xbb15b0b9	-0.002284093
220	0xba12f8ff	-0.00056065613
221	0x3b2eaf8d	0.002665493
222	0xba10d88a	-0.0005525431
223	0xbb8c045c	-0.0042729806
224	0x3bf2146f	0.00738769
225	0x3c84dba1	0.016218008
226	0x3cd91e58	0.026503727
227	0x3c0f1442	0.008732857
228	0xbc64c505	-0.013962989
229	0x3cb20c03	0.021734243
230	0x3b73ae28	0.0037182663
231	0x3b853b4f	0.004065908
232	0x3c4a681e	0.012353925
233	0x3cc76ca7	0.024343802
234	0x3b8ef357	0.0043625045
235	0xba88386c	-0.0010392792
236	0xbb5a9330	-0.003335189
237	0xbc018547	-0.007905311
238	0xbb218f3c	-0.0024652025
239	0xbb8cd193	-0.004297444
240	0x3b67740c	0.0035316972
241	0xbbaf6c7e	-0.0053535094
242	0x3a3c677d	0.0007187052
243	0x3a2a09b1	0.00064864295
244	0x3b3043a4	0.0026895786
245	0x3b26a553	0.002542813
246	0xbbc5bcb1	-0.0060344567
247	0x3a336bdc	0.00068443804
248	0x39965281	0.000286717
249	0x3aa5a6a3	0.0012638163
250	0x3ba0cdf0	0.004907362
251	0x3b5a820d	0.0033341676
252	0x3bc7cbcc	0.0060972925
253	0x3c0e7f49	0.008697339
254	0x3c4b9ce6	0.012427544
255	0x3c02828f	0.007965698

conv_layers.0.0.conv.bias f4 [16]
0	0xbe106f13	-0.14104871
1	0xbcc58751	-0.024112375
2	0xbbd7d48f	-0.0065866183
3	0xbedd36c6	-0.4320585
4	0xbcf6ae75	-0.030112484
5	0xbe087a5f	-0.13327931
6	0xbc37b95e	-0.011213629
7	0xbe295994	-0.16538078
8	0xbe3902d8	-0.18067491
9	0xbdfcd7c3	-0.12345841
10	0xbe2507f6	-0.16116318
11	0xbc3e57b6	-0.011617592
12	0xbeac4c28	-0.33651853
13	0xbea76c2b	-0.32699713
14	0xbbabdb86	-0.005244675
15	0xbc1db338	-0.009625249

conv_layers.2.0.conv.weight f4 [32, 16, 3, 3]
0	0xbe0ad7ca	-0.1355888
1	0x3d3c1825	0.045921464
2	0x3d66bc5b	0.056331974
3	0xbd348cab	-0.044079464
4	0xbd2346c5	-0.039862413
5	0x3d4ccfcb	0.050002854
6	0x3d8b24f3	0.06794157
7	0xbe94a971	-0.29035524
8	0x3e0be8ac	0.13662976
9	0x3d585993	0.0528198
10	0x3d0a4ce0	0.03376472
11	0x3e83af00	0.25719452
12	0xbcb874f1	-0.0225167
13	0xbc4fa5de	-0.012673823
14	0x3e3e0879	0.1855792
15	0x3dac942e	0.084267005
16	0xbcf74ba4	-0.030187435
17	0xbe55349b	-0.20820849
18	0xbe7a7c4d	-0.2446148
19	0xbd9501d8	-0.07275742
20	0x3e10cd9d	0.14140935
21	0x3e87f490	0.26553774
22	0x3d4cd0f8	0.050003976
23	0x3e1599bb	0.14609425
24	0xbd434777	-0.047675576
25	0xbf501a82	-0.8129045
26	0xbeb3db56	-0.35128278
27	0x3c986874	0.018604495
28	0x3c42a81b	0.0118809
29	0x3e6199ed	0.22031374
30	0x3dc72f07	0.09725767
31	0x3d80e07a	0.062928155
32	0x3db2c9fa	0.0872993
33	0xbcd88345	-0.026429782
34	0xbd43f246	-0.04783847
35	0x3cbffbc6	0.023435485
36	0xbec8ba3c	-0.39204586
37	0xbc976369	-0.01848002
38	0x3dfd5f2b	0.123716675
39	0x3e083d5c	0.13304657
40	0x3c8b9c0c	0.017042182
41	0x3c367a6d	0.011137587
42	0x3bb259a7	0.0054428163
43	0xbe8b9ccc	-0.27268064
44	0xbe872a84	-0.26399624
45	0xbca05dfc	-0.019576065
46	0x3e94abb8	0.2903726
47	0x3eacf2bd	0.33778945
48	0x3deca287	0.11554437
49	0xbdd54642	-0.10413791
50	0x3db5d8c4	0.088792354
51	0x3d0dc1fc	0.034608826
52	0x3d41b9db	0.047296386
53	0x3e3a650e	0.18202612
54	0xbeae0e34	-0.3399521
55	0xbe45dc5e	-0.19322345
56	0x3e717dfc	0.23583215
57	0x3e608e2e	0.21929237
58	0x3d828f46	0.063749835
59	0x3e0291dd	0.12750955
60	0x3db36b4c	0.087607
61	0xbf063996	-0.5243162
62	0xbe95acea	-0.29233485
63	0xbd08e17d	-0.033418167
64	0xbc5928fb	-0.013254399
65	0x3dd38064	0.10327223
66	0x3e101526	0.14070567
67	0xbc632e22	-0.013865979
68	0x3d745f5d	0.059661258
69	0xbde855e4	-0.11344507
70	0xbe773fc7	-0.24145423
71	0xbd957f41	-0.072996624
72	0x3d152f7f	0.03642225
73	0xbd73d8b9	-0.059532855
74	0xbdf2fd39	-0.11864705
75	0x3b13fda7	0.0022581609
76	0x3da56442	0.08075763
77	0xbd90ede3	-0.07076623
78	0xbdb9e866	-0.090775296
79	0xbdb5e167	-0.08880883
80	0x3d31aad1	0.043375794
81	0x3cb75b8b	0.022382518
82	0xbe000451	-0.12501647
83	0xbe883478	-0.2660253
84	0xbe32740f	-0.17427085
85	0xbc21889a	-0.0098592285
86	0xbe698ee5	-0.22808416
87	0xbca14fd8	-0.019691393
88	0x3e883b68	0.26607823
89	0x3e54e163	0.20789103
90	0x3d9184c9	0.07105405
91	0xbd8c0c2a	-0.068382576
92	0xbd18fd77	-0.037351098
93	0x3d4bb6a8	0.04973474
94	0x3e16bc52	0.14720276
95	0xbcc9c0cd	-0.024628067
96	0x3df9639e	0.121772036
97	0x3c8b6f4f	0.01702085
98	0xbd0b4108	-0.033997566
99	0xbeca6bbe	-0.39535326
100	0x3c91ca21	0.017796578
101	0x3d4e892d	0.05042379
102	0x3e22ce33	0.15898971
103	0xbcefd44d	-0.029276038
104	0x3df25dda	0.11834307
105	0xbdb6b444	-0.08921102
106	0xbf1c1934	-0.60975957
107	0xbe1430a6	-0.14471683
108	0xbda4e876	-0.08052151
109	0x3d0a6fb9	0.033797953
110	0x3ca76171	0.020432206
111	0x3d3e4218	0.04644975
112	0xbd12d242	-0.03584505
113	0x3c1ed830	0.009695098
114	0xbe177f9e	-0.14794776
115	0x3dd8acc4	0.105798274
116	0x3dea00f1	0.11425961
117	0xbcc02062	-0.023452941
118	0xbc7bc554	-0.015366871
119	0xbd934d66	-0.07192497
120	0x3d4bd95d	0.04976784
121	0xbca55572	-0.020182345
122	0xbd2d618f	-0.042329367
123	0xbd9f29d6	-0.077716514
124	0x3dea0d85	0.1142836
125	0xbc8c5fcc	-0.017135523
126	0xbe58d749	-0.21175875
127	0xbdd1a884	-0.1023722
128	0x3e0fba07	0.14035808
129	0x3e3ae47d	0.18251224
130	0x3ce4426e	0.027863707
131	0x3db1b9dc	0.08678028
132	0xbd450e51	-0.048109356
133	0xbf2778c8	-0.6541867
134	0xbddc02e6	-0.1074274
135	0xbe9484d6	-0.29007596
136	0xbd6d6d0a	-0.057965316
137	0x3ddec301	0.10877038
138	0x3e0801ff	0.13282011
139	0x3d5a7c9c	0.053341493
140	0x3dbf170e	0.09330569
141	0xbd525a5a	-0.051355697
142	0xbf0f047b	-0.5586621
143	0xbe728ab8	-0.2368573
144	0xbc600f94	-0.013675589
145	0x3b130f31	0.0022439475
146	0xbe381d83	-0.17980008
147	0xbd36d0f6	-0.044632874
148	0x3e3338a2	0.17502072
149	0xbda7ed01	-0.08199502
150	0x3e4fafa2	0.20281842
151	0x3e4a18fa	0.1973609
152	0xbd619887	-0.055077102
153	0xbe167747	-0.14693938
154	0x3bee2321	0.0072673713
155	0xbe230f58	-0.15923822
156	0xbce212cf	-0.02759686
157	0x3dfe11f8	0.12405771
158	0xbbc4c8b1	-0.0060053696
159	0x3c54a8da	0.0129797105
160	0x3e4c32c5	0.19941242
161	0x3db98a43	0.090595745
162	0xbe4b9eee	-0.19884846
163	0x3d036cb8	0.032086104
164	0xbe09db34	-0.13462526
165	0xbc7ebb31	-0.01554756
166	0x3e171030	0.14752269
167	0x3cf6a389	0.030107277
168	0xbd6f65b6	-0.05844661
169	0x3ce3c16c	0.027802192
170	0xbd212c3a	-0.03934882
171	0x3d01b676	0.03166815
172	0x3c5d7518	0.013516687
173	0xbd842864	-0.064530164
174	0xbd599e04	-0.05312921
175	0x3e3c5200	0.18390656
176	0x3e09d15f	0.13458775
177	0x3c8d8afe	0.01727819
178	0x3e97742b	0.29580817
179	0x3e426fbf	0.1898794
180	0xbe427297	-0.18989025
181	0xbd59f995	-0.053216536
182	0xbe711a7b	-0.23545258
183	0xbda1f0ec	-0.0790728
184	0x3e5efd9a	0.21776429
185	0xbb52f6ff	-0.0032190678
186	0xbd8210df	-0.06350874
187	0x3e09a678	0.13442409
188	0xbe070113	-0.13184004
189	0xbdb93c98	-0.090447605
190	0x3e003fb7	0.12524305
191	0x3c60683a	0.013696725
192	0xbe0b003b	-0.13574307
193	0x3da861f7	0.0822181
194	0x3d984c56	0.07436435
195	0x3d94921c	0.07254431
196	0x3e98945f	0.29800698
197	0x3dac45d1	0.08411754
198	0xbe939980	-0.2882805
199	0xbd5e1e40	-0.054228067
200	0xbe84b8a2	-0.25922114
201	0xbb3c30f6	-0.0028715706
202	0x3e17bb39	0.14817514
203	0x3d78793a	0.060662486
204	0xbda9ca31	-0.08290518
205	0x3cf72c49	0.030172484
206	0xbc2bb9c7	-0.0104813045
207	0xbe54ccb4	-0.20781213
208	0xbdacc408	-0.084358275
209	0xbdc2e2a7	-0.09515887
210	0x3d8406da	0.06446619
211	0x3e84b935	0.25922552
212	0x3cc92380	0.02455306
213	0xbe4badf8	-0.19890583
214	0x3df8a69d	0.12141154
215	0xbdbae9ea	-0.09126647
216	0xbdda2721	-0.106519945
217	0x3c90ab32	0.017659757
218	0xbd94a31c	-0.07257673
219	0x3cc832d1	0.024438294
220	0x3d71bb4c	0.05901651
221	0xbb708e82	-0.0036706035
222	0x3cbd966e	0.02314302
223	0x3d838bca	0.06423147
224	0x3da14c0f	0.07875835
225	0x3ded7b39	0.115957685
226	0xbe28bd94	-0.16478568
227	0x3becf221	0.0072310125
228	0xbdb86cd5	-0.09005133
229	0xbe416528	-0.18886244
230	0xbc8ff63b	-0.017573467
231	0x3df76b0e	0.12080966
232	0xbdbdffd7	-0.09277313
233	0xbd76fab6	-0.06029769
234	0x3d6e25cf	0.058141526
235	0xbc4e10d3	-0.012577253
236	0xbcca9a12	-0.02473167
237	0xbda4a4a4	-0.08039215
238	0xbd239c06	-0.039943717
239	0xbde825b7	-0.113353185
240	0x3da3212b	0.07965311
241	0x3e26b669	0.16280521
242	0x3d8e7c8e	0.06957351
243	0xbe3ce67b	-0.18447296
244	0xbda27466	-0.079323575
245	0xbe478b78	-0.19486797
246	0xbd193ec3	-0.03741337
247	0x3e31c762	0.17361215
248	0x3d0b9866	0.034080885
249	0xbd9bb2ff	-0.076025
250	0x3c881ec9	0.016616242
251	0xbde4e63a	-0.11176725
252	0x3d1619d6	0.036645733
253	0x3cc71854	0.024303593
254	0x3ddfa6c3	0.10920479
255	0x3d5586fa	0.052130677

conv_layers.2.0.conv.bias f4 [32]
0	0x3c2a29bb	0.010385926
1	0xbc7b6cb3	-0.01534574
2	0xba1988e7	-0.0005856887
3	0xbbc9577f	-0.0061444636
4	0xbc8776ad	-0.016536081
5	0x3d287509	0.04112724
6	0x3df0645c	0.11737892
7	0xbee3964d	-0.44450608
8	0xbd0e0c4f	-0.034679707
9	0x3cefe29d	0.029282862
10	0xbc8ec134	-0.01742611
11	0x3d95a408	0.07306677
12	0xbf4e8356	-0.8066915
13	0x3c4ffa06	0.012693888
14	0xbd15fc30	-0.036617458
15	0xbd14b1a5	-0.036302228
16	0xbf26ed0c	-0.65205455
17	0xbf47f764	-0.78111863
18	0x3db080ac	0.08618292
19	0x3d2f5d03	0.042813312
20	0x3c3f0941	0.011659921
21	0x3d54aa90	0.051920474
22	0xbc9613ca	-0.018319983
23	0xbc9f342c	-0.019434057
24	0xba024103	-0.0004968794
25	0xbef9132e	-0.48647445
26	0x3d6653a4	0.05623211
27	0x3e17e8bf	0.1483488
28	0x3cc8b6f6	0.024501305
29	0x3d456385	0.048190612
30	0x3c776a05	0.015100961
31	0xbc578658	-0.013154589

conv_layers.4.0.conv.weight f4 [32, 32, 3, 3]
0	0x3dce05cc	0.100596994
1	0xbd1db756	-0.03850492
2	0xbd20abaf	-0.03922623
3	0x3d86e6de	0.06587003
4	0xbcac8d6d	-0.02106353
5	0xbd890f0e	-0.066923246
6	0x3d4e64a1	0.050388936
7	0xbda57f46	-0.08080916
8	0xbdeaac87	-0.11458688
9	0xbe0fd31a	-0.14045373
10	0xbdc1428e	-0.094365224
11	0xbdf9bd19	-0.12194271
12	0xbdbdfbc1	-0.09276534
13	0xbd2af9f1	-0.04174227
14	0x3c6b8b1b	0.014376427
15	0xbdbe3fba	-0.092894986
16	0xbdd48535	-0.1037697
17	0xbcb85e3a	-0.022505868
18	0x3cf635dc	0.030054979
19	0xbca1c57f	-0.019747494
20	0xbbb713ea	-0.0055870907
21	0x3d048bd1	0.0323599
22	0x3cda329a	0.026635457
23	0x3d2bce13	0.041944575
24	0xbd19690e	-0.037453704
25	0xbdae4cdb	-0.08510753
26	0xbd52c716	-0.051459394
27	0xbe0057bc	-0.12533468
28	0xbdb0c749	-0.086317606
29	0xbd4ca4ce	-0.049961857
30	0xbd08c3be	-0.0333898
31	0xbc8ba8c5	-0.017048249
32	0xbca93126	-0.020653319
33	0xbc49cace	-0.012316419
34	0xbc89dd20	-0.016829073
35	0x3c2c3f2a	0.010513106
36	0xbe0bddb8	-0.13658798
37	0xbe35eede	-0.17766902
38	0xbe1bba4e	-0.15207788
39	0xbe25ab06	-0.16178522
40	0xbe4d20f9	-0.2003211
41	0xbe0a3f1a	-0.13500634
42	0xbe3673ac	-0.17817563
43	0xbec235dc	-0.37931716
44	0xbdde1c8c	-0.10845289
45	0x3d592082	0.053009517
46	0xbbc4a0fd	-0.0060006366
47	0x3d3dc335	0.046328742
48	0x3e2a8b6c	0.16654748
49	0x3e0bf002	0.13665774
50	0x3e4582cc	0.19288176
51	0x3dd9feed	0.10644326
52	0x3de74154	0.11291757
53	0x3dcaf205	0.09909443
54	0x3c878514	0.016542949
55	0x3c6efd34	0.0145867355
56	0xbd7e97b9	-0.062156413
57	0x3d5bdc23	0.053676736
58	0x3c65baa8	0.014021553
59	0x3c58ff5f	0.013244479
60	0x3c9e862f	0.019351093
61	0xbbad17c5	-0.0052823746
62	0xbd1fdf3f	-0.039031263
63	0x3e44a9b2	0.19205359
64	0x3d574821	0.05255902
65	0x3da7acae	0.08187233
66	0x3cf5e3b9	0.030015813
67	0x3c61f8db	0.013792242
68	0x3d3302f4	0.04370399
69	0x3ddbe2c2	0.1073661
70	0x3c748ee2	0.014926644
71	0x3d4355d9	0.047689293
72	0x3d50d830	0.050987422
73	0xbd56079e	-0.052253358
74	0xbdf2848a	-0.11841686
75	0x3c89bdbb	0.016814103
76	0xbdc8cdd4	-0.098048836
77	0xbde05805	-0.109542884
78	0xbcc3c5ed	-0.02389809
79	0xbd70cb5a	-0.05878768
80	0xbd9a1a0e	-0.07524501
81	0x3dac588b	0.08415326
82	0xbc5f9e0a	-0.013648519
83	0x3d03e261	0.032198314
84	0x3e26259e	0.16225287
85	0x3e07069f	0.1318612
86	0x3d98a55c	0.07453415
87	0x3e4ea92f	0.20181726
88	0x3dfaea42	0.122517124
89	0x3d622f74	0.055221036
90	0xbe8ffa34	-0.28120577
91	0xbdbcc00a	-0.09216316
92	0xbe442228	-0.19153655
93	0xbdd85310	-0.10562718
94	0xbcafcf1d	-0.021461064
95	0xbe22998b	-0.15878884
96	0xbe95c76d	-0.29253712
97	0xbe27b23b	-0.16376583
98	0xbe32e45e	-0.17469928
99	0xbc98ea9e	-0.018666562
100	0xbde15c1c	-0.110038966
101	0xbd800fe8	-0.06253034
102	0xbb941a2e	-0.0045197224
103	0xbd1f964a	-0.038961686
104	0x3d69ab61	0.057048205
105	0x3d26a6a8	0.04068628
106	0xbd951990	-0.07280266
107	0xbd307d64	-0.04308833
108	0x3d322f4c	0.043502137
109	0x3da531e6	0.08066158
110	0x3d941e3b	0.072323285
111	0x3c431484	0.011906747
112	0x3cfc8216	0.030823749
113	0x3d391cad	0.045193363
114	0x3da13bb1	0.07872713
115	0x3d8fdff0	0.070251346
116	0x3d932fec	0.07186875
117	0x39cd592c	0.00039167085
118	0xbd37df52	-0.04489071
119	0x3cb7a0dd	0.022415573
120	0x3d5b171a	0.05348883
121	0x39e2475f	0.00043159255
122	0x3d45d1f3	0.048295926
123	0x3da7ebf0	0.081992984
124	0xbe154a3d	-0.14579101
125	0xba98e7bf	-0.0011665745
126	0x3df590f9	0.11990542
127	0xbc8ea1ab	-0.017411074
128	0xbc850c0b	-0.016241094
129	0x3d0ff908	0.035149604
130	0xbd8466bd	-0.06464908
131	0xbcd4944a	-0.025949616
132	0xbc6063a4	-0.013695631
133	0xbd57190e	-0.05251413
134	0xbda72b22	-0.08162524
135	0xbdb689db	-0.089130126
136	0xbc878644	-0.016543515
137	0xbd335857	-0.04378542
138	0xbd842c84	-0.06453803
139	0xbd4e8c4f	-0.050426777
140	0x3c7d51c3	0.015461388
141	0xbd3afe1e	-0.0456525
142	0x3c8ae5e3	0.016955322
143	0xbcff9119	-0.031197118
144	0x3d30fae8	0.043208033
145	0x3d667835	0.056266982
146	0x3d5588e9	0.05213252
147	0xbb24ced9	-0.0025147705
148	0x3cdc3ab4	0.02688346
149	0x3d14e451	0.036350552
150	0x3d16772c	0.036734745
151	0x3d559a86	0.05214932
152	0x3d45c06e	0.04827922
153	0x3d4ea4a1	0.05044997
154	0x3d19be83	0.0375352
155	0x3d1cada8	0.03825155
156	0x3c878301	0.01654196
157	0x3b8c57f6	0.0042829467
158	0x3ba6398b	0.0050727776
159	0x3d9d2d9c	0.07674715
160	0x3d688342	0.056765802
161	0x3d6886f0	0.05676931
162	0x3bcfcbba	0.006341425
163	0xbc365072	-0.011127578
164	0xbcd33b0e	-0.025784995
165	0x3d0f34b5	0.034962375
166	0x3a9ea0eb	0.0012102401
167	0x3d4ee0a3	0.0505072
168	0xbd129f7d	-0.03579663
169	0xbd84b80d	-0.064804174
170	0xbd9834fb	-0.0743198
171	0xbc872643	-0.016497737
172	0xbcc6d7a7	-0.024272753
173	0xbcec2b4a	-0.028829236
174	0x3dfc8ada	0.12331171
175	0x3d85300b	0.06503304
176	0x3cf3127e	0.029671904
177	0x3e026dc8	0.1273719
178	0xbccbd6eb	-0.024882754
179	0xbc82dd8e	-0.015974786
180	0x3d648b28	0.055796772
181	0xbe77205c	-0.24133438
182	0xbe582d97	-0.21111141
183	0xbc21937d	-0.009861824
184	0xbdac3c70	-0.08409965
185	0xbd0eda3f	-0.034876104
186	0xbca4bb01	-0.020108702
187	0xbe4a507d	-0.19757266
188	0xbdffd349	-0.12491471
189	0x3c86fe64	0.016478725
190	0x3cc8c1cb	0.02450647
191	0xbd70354e	-0.058644585
192	0x3d323bb1	0.043513957
193	0x3d7a9f2e	0.06118696
194	0xbcec24d9	-0.028826164
195	0xbc566e77	-0.01308786
196	0x3d76679a	0.060157396
197	0xbca5efc8	-0.020255938
198	0xbe40867d	-0.18801303
199	0xbe500869	-0.20315708
200	0xbe37d9c1	-0.1795416
201	0xbe3e30be	-0.18573281
202	0xbe2f4d3c	-0.17119306
203	0xbe14f438	-0.14546287
204	0xbe383ba7	-0.17991506
205	0xbe200c3d	-0.15629669
206	0xbe4dbcb6	-0.20091519
207	0x3e3660ab	0.17810313
208	0xbe3d968b	-0.18514459
209	0xbe54d9bf	-0.20786189
210	0x3df07991	0.11741937
211	0xbdb638fc	-0.08897588
212	0xbe052833	-0.13003616
213	0x3d725ca0	0.059170365
214	0xbdc1ff95	-0.094725765
215	0xbe0fa242	-0.1402674
216	0xbdf602e0	-0.12012267
217	0xbdc14b1e	-0.094381556
218	0xbd2fe304	-0.04294111
219	0xbdd624f0	-0.10456264
220	0xbdb79f02	-0.08965875
221	0xbe1f9602	-0.15584567
222	0xbca6ad60	-0.020346344
223	0xbdf9b470	-0.12192619
224	0xbd446e1a	-0.047956564
225	0x3d23455e	0.039861076
226	0x3ce5caeb	0.02805086
227	0x3d06c9a5	0.032907147
228	0xbc097ed3	-0.008392054
229	0x3c2e50fe	0.010639427
230	0x3cf5d66e	0.030009475
231	0x3cd21308	0.02564384
232	0xba2e4c8c	-0.00066489796
233	0x3c133288	0.008984216
234	0xbc89671e	-0.016772803
235	0xbd133762	-0.03594149
236	0xbce84833	-0.02835474
237	0x3d5b8ed9	0.053603027
238	0xba98008e	-0.0011596845
239	0x3c7d8eb4	0.015475918
240	0xbcfae9d9	-0.030629085
241	0xbd5949c0	-0.05304885
242	0xbd77a502	-0.060460098
243	0xbd8518e6	-0.064988896
244	0xbc496969	-0.012293198
245	0xbc593358	-0.01325687
246	0x3d48be8b	0.04900984
247	0x3d834b25	0.06410817
248	0x3d329931	0.043603126
249	0xbcd99fe3	-0.026565498
250	0xbd5cbe30	-0.053892314
251	0xbdca4f20	-0.09878373
252	0xbcf3320d	-0.029686952
253	0x3e0d56e6	0.1380268
254	0x3de0df74	0.1098012
255	0x3d16a020	0.0367738

conv_layers.4.0.conv.bias f4 [32]
0	0x3dc94b6b	0.09828838
1	0xbdb4c7f7	-0.08827203
2	0xbda4c796	-0.080458805
3	0xbdf527d0	-0.11970484
4	0xbd134b7f	-0.03596067
5	0xbd925604	-0.071453124
6	0xbd910732	-0.070814505
7	0xbe1c5ec0	-0.1527052
8	0xbdce7a5c	-0.10081932
9	0xbd2a9970	-0.041650236
10	0x3ba4a615	0.0050246813
11	0xbe06a288	-0.13147938
12	0xbe1813e1	-0.14851333
13	0x3d8e0e21	0.069362886
14	0xbe03e3cb	-0.12879865
15	0xbdf03aba	-0.11729951
16	0xbd9494f1	-0.07254971
17	0xbdac6dfa	-0.08419414
18	0xbd8cef57	-0.06881588
19	0xbd67d37c	-0.05659817
20	0x3ddcf155	0.10788218
21	0xbd5c888f	-0.05384117
22	0xbdc5938d	-0.09647284
23	0xbd053bb8	-0.032527655
24	0x3cdf1e26	0.027236056
25	0xbd805ab1	-0.06267298
26	0xbd96976a	-0.07353099
27	0x3d5db0e5	0.054123778
28	0xbd8380a8	-0.064210236
29	0xbd7c8782	-0.061652668
30	0x3defade8	0.11703092
31	0xbe0023bf	-0.12513636

conv_layers.6.0.conv.weight f4 [16, 32, 3, 3]
0	0xbd6659c3	-0.056237947
1	0x3c2c6804	0.010522846
2	0x3dec1352	0.115271226
3	0xbdc643a0	-0.09680867
4	0xbe37e1c5	-0.17957218
5	0x3e09e98d	0.13467999
6	0x3cad5400	0.021158218
7	0x3d8a3f9d	0.067504145
8	0x3da714ae	0.08158241
9	0xbd68a106	-0.05679419
10	0x3da0c002	0.078491226
11	0xbc844265	-0.01614494
12	0x3bc88033	0.006118798
13	0x3d0b4a38	0.034006327
14	0xbadde05d	-0.0016927827
15	0xbe57a138	-0.21057594
16	0xbceab475	-0.028650502
17	0xbd8e7562	-0.06955983
18	0xbc9b911f	-0.018990098
19	0xbd529b78	-0.051417798
20	0x3ecb68b4	0.3972832
21	0xbd58e044	-0.05294825
22	0x3dcea4ea	0.100900486
23	0x3e7ae45b	0.24501173
24	0x3d6252e1	0.05525482
25	0xbdbb1e66	-0.091366574
26	0x3eb13c1f	0.3461618
27	0x3e1f9bd1	0.15586783
28	0xbde5a8ee	-0.112138614
29	0xbeb5408a	-0.35400802
30	0x3e5109d5	0.20413907
31	0x3e216b9c	0.15763706
32	0xbeba6fdb	-0.36413464
33	0x3d35d793	0.04439504
34	0xbe3026f4	-0.1720236
35	0xbeccf497	-0.40030357
36	0x3d8ac11e	0.067751154
37	0xbc992ac9	-0.01869716
38	0x3e127c97	0.1430534
39	0xbc9f0a95	-0.019414226
40	0xbdb53d6b	-0.08849605
41	0xbba89080	-0.005144179
42	0xbc551006	-0.013004309
43	0xbd092264	-0.033480063
44	0x3da2f9a9	0.07957775
45	0xbdfad4ee	-0.12247644
46	0x3cf2799a	0.029599
47	0xbdcce540	-0.100046635
48	0xbe03002e	-0.12793037
49	0x3d9ff047	0.07809501
50	0x3d96ab69	0.07356913
51	0xbdf6d94a	-0.12053163
52	0xbc820722	-0.015872542
53	0x3decfdc7	0.11571842
54	0x3de686e6	0.112561986
55	0xbb7c4c16	-0.00384975
56	0x3dc46302	0.09589197
57	0x3e017174	0.12640935
58	0x3d678371	0.056521837
59	0x3d0ecff8	0.034866303
60	0x3e19b488	0.15010273
61	0xbc98f7f3	-0.018672919
62	0x3e5c6841	0.21524145
63	0x3d015c13	0.03158195
64	0x3dc8ccc9	0.09804685
65	0xbd190815	-0.037361223
66	0x3ce486d0	0.027896315
67	0x3e2378e8	0.15964091
68	0x3d8632e8	0.06552678
69	0x3cef8c3a	0.02924167
70	0x3e00466c	0.12526864
71	0xbdbf81fe	-0.09350966
72	0x3e17ca79	0.14823331
73	0xbd2446d5	-0.040106613
74	0x3e21ff28	0.1581999
75	0x3df1e0ca	0.11810453
76	0x3ca9b5b8	0.020716533
77	0x3ba21008	0.0049457587
78	0x3dabae7d	0.083828904
79	0x3cce2dab	0.02516826
80	0x3dd734a1	0.10508085
81	0x3d7b2100	0.061310768
82	0xbd35e447	-0.044407155
83	0x3c71b278	0.014752023
84	0x3d461ee0	0.04836929
85	0x3a877ae3	0.0010336306
86	0x3c57da44	0.013174597
87	0x3c970296	0.01843385
88	0xbd7f45a8	-0.06232229
89	0x3df8234e	0.12116109
90	0xbedbfc9d	-0.42966166
91	0xbdd5ca3b	-0.10438963
92	0xbd0076e9	-0.0313634
93	0xbeb06100	-0.34449005
94	0xbe281a90	-0.16416383
95	0xbebde0d7	-0.37085602
96	0xbede99c4	-0.4347669
97	0xbdcfe660	-0.101513624
98	0xbdc94ef4	-0.09829512
99	0x3e8dc8e6	0.27692336
100	0x3c1e82f9	0.009674781
101	0xbe8ec795	-0.27886644
102	0x3ea648ae	0.32477325
103	0x3e4a2327	0.19739972
104	0xbe711246	-0.23542127
105	0x3dfe2e00	0.124111176
106	0xbdb37238	-0.0876202
107	0xbe8d7ae6	-0.27632827
108	0xbef217f6	-0.47283906
109	0xbd2eca44	-0.042673364
110	0xbd81132c	-0.06302485
111	0xbf19fbe9	-0.6015001
112	0xbe8280e3	-0.25488958
113	0xbd5dba7c	-0.054132923
114	0xbeca2013	-0.39477596
115	0xbe074713	-0.13210706
116	0xbd627c07	-0.055294063
117	0xbe096fad	-0.13421507
118	0xbaee26e9	-0.0018169555
119	0x3da54968	0.08070642
120	0xbde536e4	-0.1119211
121	0xbdecc1d1	-0.11560405
122	0x3e108380	0.14112663
123	0xbdc857fe	-0.09782408
124	0x3be6c04c	0.0070419665
125	0x3dd1ff5f	0.10253786
126	0x3de7c44a	0.11316736
127	0x3d6f67a3	0.058448445
128	0xbda24625	-0.07923535
129	0x3e011f42	0.1260958
130	0x3d588610	0.052862227
131	0xbdeb5b19	-0.11491985
132	0x3e054bb7	0.13017164
133	0xbc90bccd	-0.017668152
134	0xbdaa371f	-0.08311295
135	0x3d697f23	0.057006013
136	0xbc293459	-0.010327422
137	0x3e66bfe3	0.22534136
138	0x3c67168e	0.014104499
139	0x3dfce24b	0.123478495
140	0x3e5d2527	0.21596204
141	0x3e0ece45	0.13945873
142	0x3c9adbba	0.018903602
143	0x3e4817ec	0.19540375
144	0xbed989d5	-0.4248797
145	0xbcacb4ce	-0.021082308
146	0xbd852c80	-0.06502628
147	0xbf081b41	-0.53166586
148	0xbeb8f666	-0.36125487
149	0xbcf0903c	-0.029365651
150	0xbebd21fe	-0.36939996
151	0xbd1a5318	-0.0376769
152	0xbe09278d	-0.13393994
153	0x3bce4bbf	0.0062956507
154	0xbc9fa5db	-0.019488266
155	0x3e8531bb	0.26014504
156	0x3c3ee4d8	0.01165124
157	0xbcd880ae	-0.026428547
158	0x3dbad10b	0.09121903
159	0xbd2311a3	-0.03981174
160	0xbc4156af	-0.011800452
161	0x3e098294	0.13428718
162	0xbdca40aa	-0.09875615
163	0x3cd5224b	0.026017329
164	0xbcace80c	-0.021106742
165	0xbd31580c	-0.04329686
166	0xbba47a28	-0.005019445
167	0x3ca6e375	0.020372132
168	0xba3626ee	-0.000694855
169	0xbcec659c	-0.028857045
170	0x3dbb26b3	0.09138241
171	0xbea2de04	-0.3181001
172	0xbe69af42	-0.22820762
173	0xbae0cd24	-0.001715098
174	0xbe0369d4	-0.12833339
175	0xbc8ba4b0	-0.017046303
176	0xbe4d52d7	-0.20051132
177	0xbe8da948	-0.27668214
178	0xbe8c42c4	-0.27394688
179	0xbd8b0546	-0.06788115
180	0xbe1ffb24	-0.15623146
181	0xbdae873c	-0.08521888
182	0x3ddcee6e	0.10787664
183	0xbdda73c4	-0.10666612
184	0x3daa76b6	0.083234236
185	0xbb896f0b	-0.0041941456
186	0xbe73c067	-0.23803864
187	0xbd0da70b	-0.034583133
188	0x3df0f9f6	0.11766426
189	0xbed875f7	-0.422775
190	0xbdd4f117	-0.10397547
191	0x3de20b19	0.11037273
192	0xbf37b6dd	-0.717634
193	0xbec8c89b	-0.3921555
194	0xbd2296e7	-0.039694693
195	0xbf030a22	-0.51187336
196	0xbe82d7cc	-0.25555265
197	0x3ca69e87	0.020339264
198	0xbda9ee3e	-0.08297394
199	0x3d31a4fc	0.043370232
200	0xbce27b10	-0.027646571
201	0xbd8c907e	-0.06863497
202	0x3c630675	0.01385652
203	0x3db4f9cb	0.08836707
204	0xbc90d4d3	-0.017679607
205	0x3c26aff4	0.010173786
206	0x3db4d3d5	0.08829466
207	0x3d8aa3d9	0.06769533
208	0xbd824ab4	-0.06361905
209	0xbdc6e080	-0.09710789
210	0x3d313138	0.04325983
211	0x3d34b7ff	0.044120785
212	0xbe37e388	-0.1795789
213	0x3d76260b	0.060094874
214	0xbcf27a4b	-0.02959933
215	0xbddc04c8	-0.107430995
216	0x3d5c0d39	0.053723548
217	0x3a5b0e55	0.00083563227
218	0x3ddde42a	0.108345345
219	0x3e07d3a8	0.13264334
220	0x3d4566c3	0.048193704
221	0xbd1ab566	-0.03777065
222	0x3cc13870	0.023586482
223	0xbd17d6af	-0.037069973
224	0x3d4a1a24	0.049341336
225	0xbc9e5557	-0.019327803
226	0xbd6e1868	-0.058128744
227	0x3ea426fb	0.3206099
228	0x3d87c564	0.06629446
229	0x3e0119c8	0.12607491
230	0x3e5645f6	0.20925125
231	0x3d34cbe6	0.044139765
232	0xbe155edc	-0.14586967
233	0x3ecac749	0.39605168
234	0xbd8a45fe	-0.06751631
235	0xbdded6bd	-0.10880802
236	0x3e1896fc	0.14901346
237	0xbd2d67d5	-0.04233535
238	0xbccfd7c3	-0.025371438
239	0xbc327e8f	-0.010894432
240	0x3c64ceaf	0.013965293
241	0xbd974fcc	-0.07388267
242	0x3dc9ce21	0.09853769
243	0xbd108f87	-0.03529313
244	0xbb8fadbf	-0.004384726
245	0x3d9f571e	0.07780288
246	0xbd7abc4e	-0.061214738
247	0xbd3d4059	-0.046203945
248	0xbe123606	-0.14278421
249	0xbd824d2d	-0.06362376
250	0xbdb0bde5	-0.086299695
251	0x3db0c676	0.086316034
252	0xbef33d3b	-0.47507653
253	0xbe02aa78	-0.12760341
254	0xbe00c6a9	-0.12575783
255	0xbf006554	-0.50154614

conv_layers.6.0.conv.bias f4 [16]
0	0x3d77d413	0.060504984
1	0x3d460c03	0.0483513
2	0xbc4d718e	-0.012539281
3	0x3db49af0	0.088186145
4	0x3c5fca01	0.013659001
5	0x3be66b09	0.0070318026
6	0x3dac9054	0.08425966
7	0x3d36d2d9	0.044634674
8	0x3d8c1fc3	0.068419956
9	0xbc70767e	-0.014676688
10	0xbc122d38	-0.008921914
11	0x3d9d849d	0.076913096
12	0x3d634b7b	0.055491906
13	0xbb8f2a6b	-0.0043690703
14	0xbcb83801	-0.022487642
15	0x3d23736b	0.039904993

linear_layers.0.weight f4 [64, 400]
0	0x3e056356	0.13026175
1	0x3e30937c	0.17243761
2	0x3d95b974	0.07310763
3	0xbe808af6	-0.2510602
4	0xbdca4dec	-0.09878144
5	0x3d4d62b6	0.050142966
6	0x3e5ca836	0.21548542
7	0x3de92cb5	0.1138548
8	0xbd34fb22	-0.04418481
9	0xbe3bbaa7	-0.18332921
10	0x3dc676c9	0.09690625
11	0x3e45bac0	0.1930952
12	0x3d4d1752	0.050071068
13	0xbe1e3e85	-0.15453537
14	0xbe1b0d3a	-0.15141764
15	0x3e1e34ed	0.15449877
16	0x3e177379	0.14790143
17	0xbd210d66	-0.03931942
18	0xbd8d4cfd	-0.0689945
19	0xbdc4a9b9	-0.096026845
20	0x3e3ab2b6	0.18232235
21	0x3cfb7dd7	0.030699654
22	0xbde4ba4d	-0.111683466
23	0xbe1d2258	-0.15345132
24	0x3d66d29d	0.0563532
25	0x3d2f23a1	0.042758588
26	0x3cd7eceb	0.026358088
27	0x3e076df9	0.13225545
28	0xbdefd551	-0.11710609
29	0xbe23563e	-0.15950868
30	0xbc95647a	-0.018236388
31	0xbbea8688	-0.0071571507
32	0x3d8d3257	0.06894367
33	0xbc68da98	-0.014212273
34	0x3d6c92ab	0.05775706
35	0x3d22acc6	0.03971555
36	0x3a36c8c1	0.00069726637
37	0x3dbb5edf	0.091489546
38	0x3e12386b	0.14279334
39	0x3df23523	0.11826541
40	0xbe336ffe	-0.1752319
41	0xbcf47544	-0.029841073
42	0x3e4aef71	0.19817902
43	0x3b14536f	0.0022632738
44	0xbdfb802d	-0.12280307
45	0xbe961314	-0.2931143
46	0x3e083119	0.1329998
47	0x3e27c173	0.16382389
48	0x3c848acd	0.016179467
49	0xbe75d499	-0.24006881
50	0x3d796159	0.060883854
51	0x3d593df5	0.053037602
52	0xbdeb7d2e	-0.114984855
53	0x3d291a5e	0.04128491
54	0xbddd7475	-0.10813228
55	0x3da2369b	0.079205714
56	0x3d84657e	0.064646706
57	0x3d096e88	0.033552676
58	0x3d63c8e4	0.055611506
59	0xbe5b79dc	-0.21433204
60	0xbd05680d	-0.032569934
61	0x3df756eb	0.12077125
62	0x3cd1da91	0.025616916
63	0xbe00c40a	-0.12574783
64	0xbde85721	-0.113447435
65	0xbdc9b921	-0.09849764
66	0x3d984956	0.07435863
67	0x3c8310f9	0.015999304
68	0xbec119ce	-0.37715
69	0x3c75ed3b	0.015010173
70	0xbda41168	-0.080111325
71	0x3d1563bf	0.03647208
72	0xbe0660a7	-0.13122807
73	0xbe5c3225	-0.21503504
74	0x3db7fb14	0.08983436
75	0x3cdb1511	0.026743444
76	0xbd97dce9	-0.07415182
77	0xbdecbc0e	-0.11559306
78	0x3d4dbdbf	0.050229784
79	0xbc9e54c8	-0.019327536
80	0x3cfd2906	0.03090335
81	0xbe01ef66	-0.1268898
82	0x3d5ed6ec	0.054404184
83	0x3db451f1	0.088046916
84	0x3dae4fb8	0.08511299
85	0xbd7c6866	-0.061623
86	0xbe58ba2a	-0.21164766
87	0xbcfeec16	-0.031118434
88	0x3e58b855	0.21164067
89	0x3e3871e6	0.18012199
90	0xbdb244d4	-0.08704534
91	0x3d0c45d3	0.034246277
92	0x3e17e03d	0.14831634
93	0x3d9befc5	0.07614092
94	0xbe2fdecb	-0.17174833
95	0xbd9f8fd6	-0.077911064
96	0xbe02d8b4	-0.12777978
97	0x3c51f0fa	0.012813801
98	0xbd9df3c8	-0.07712513
99	0xbd688a8a	-0.056772746
100	0x3e526aef	0.20548604
101	0xbdb0be15	-0.08630005
102	0xbe700baf	-0.23441957
103	0xbc6f24ce	-0.014596177
104	0x3e3a1567	0.18172227
105	0x3d06141c	0.03273402
106	0xbe13550c	-0.14387912
107	0xbe3b9b37	-0.18320929
108	0xbdeea1d9	-0.11651964
109	0x3e05a791	0.13052203
110	0xbdbb1289	-0.09134395
111	0xbc0f4540	-0.008744538
112	0xbe20faa1	-0.15720607
113	0xbdb8de75	-0.09026805
114	0xbd3fb597	-0.046804037
115	0xbe2851ef	-0.16437505
116	0xbc174fa2	-0.009235295
117	0xbecc2c32	-0.39877468
118	0x3c79da52	0.0152498055
119	0x3dc6718a	0.096896246
120	0xbdc7c59d	-0.097544886
121	0xbd8d2365	-0.068915166
122	0xbe25e4c8	-0.16200554
123	0x3d18c6f7	0.037299123
124	0x3d94e4b0	0.07270181
125	0x3c1320ca	0.0089799855
126	0xbe32037d	-0.17384143
127	0xbe263a52	-0.16233185
128	0xbe42be61	-0.19017936
129	0xbd42f325	-0.047595162
130	0xbd41da40	-0.04732728
131	0xbe720598	-0.23634946
132	0xbea45797	-0.32098076
133	0xba6ba5e3	-0.00089892576
134	0x3d9612d3	0.07327809
135	0xbddc1bda	-0.107475
136	0xbe501fe8	-0.20324671
137	0xbea4cd6f	-0.32187983
138	0x3d6eeda6	0.058332108
139	0x3cacf982	0.021115068
140	0x3cb3e408	0.02195932
141	0xbe670619	-0.2256092
142	0xbee4d4b7	-0.4469354
143	0x3d51bc3a	0.051204897
144	0x3de6d900	0.11271858
145	0x3c93c7f4	0.018039681
146	0xbdea6401	-0.114448555
147	0xbe4a26e1	-0.19741394
148	0x3e3750cd	0.17901917
149	0x3e5bc46b	0.21461646
150	0x3dd4da32	0.1039318
151	0xbdb78d9e	-0.08962558
152	0xbe4d14ac	-0.20027417
153	0x3dda5d88	0.10662371
154	0x3d5e611a	0.054291822
155	0x3dec40aa	0.11535771
156	0xbd8efc96	-0.06981771
157	0xbe1adad3	-0.15122537
158	0x3e405228	0.1878134
159	0x3db12487	0.08649545
160	0xbcd1ae54	-0.025595821
161	0xbdad1f62	-0.084532514
162	0xb9aa2d31	-0.00032458597
163	0x3e38434a	0.17994419
164	0x3d949a96	0.072560474
165	0x3d164494	0.036686495
166	0xbdf89134	-0.1213707
167	0x3d9a59fa	0.07536693
168	0xbdabd983	-0.083910964
169	0xbdead0b7	-0.114655904
170	0xbb901a43	-0.004397662
171	0xbd7f0a45	-0.062265653
172	0x3b332389	0.0027334413
173	0xbe209347	-0.15681182
174	0x3d7fdc94	0.06246622
175	0xbc0b4740	-0.008500874
176	0x3da68ab8	0.08131927
177	0x3e266b95	0.16251977
178	0x3d9e91b2	0.07742633
179	0xbd67d2a4	-0.056597367
180	0x3d44ac3a	0.04801581
181	0x3d52efbf	0.05149817
182	0x3dd3685b	0.103226386
183	0x3e0fb4ff	0.14033888
184	0xbdc8ba8f	-0.09801208
185	0x3c9ff0c2	0.019523982
186	0xbcd18cd1	-0.025579842
187	0xbd92664f	-0.0714842
188	0x3d292c74	0.04130216
189	0xbe49d26e	-0.19709179
190	0xbe3c67ec	-0.18399018
191	0x3d3dd05c	0.046341285
192	0x3d971e81	0.07378865
193	0xbe3f3deb	-0.18675964
194	0xbe97cbe2	-0.29647738
195	0xbd93b988	-0.07213122
196	0x3e079ddd	0.13243814
197	0x3e4551c1	0.19269468
198	0xbe434c97	-0.19072185
199	0xbe171f63	-0.14758067
200	0x3e9a349c	0.30118263
201	0x3e977323	0.2958003
202	0xbb8d0bbf	-0.0043043788
203	0xbe306de9	-0.17229427
204	0xbd9ea3a3	-0.07746055
205	0x3e8e2e13	0.27769527
206	0x3e50ed89	0.20403112
207	0xbdae917e	-0.08523844
208	0xbe644785	-0.22292908
209	0xbd864dfc	-0.06557843
210	0x3dbacb14	0.09120765
211	0x3e6ffb02	0.23435596
212	0x3bb6e5b6	0.005581583
213	0xbe472835	-0.19448932
214	0xbe010d98	-0.12602842
215	0x3c60ec26	0.013728177
216	0x3e2abb19	0.16672935
217	0xbd44a9a7	-0.048013356
218	0xbe641aca	-0.22275844
219	0xbde03735	-0.1094803
220	0xbda4dc30	-0.0804981
221	0x3e441ff6	0.19152817
222	0xbe014b2f	-0.12626337
223	0xbda69c87	-0.08135324
224	0xbe49bfbb	-0.19702046
225	0x3dd50030	0.104004264
226	0x3dbc0e77	0.091824464
227	0xbdc99ecb	-0.098447405
228	0xbe4526de	-0.19253108
229	0x3ca94a04	0.020665176
230	0x3af5545c	0.0018717158
231	0x3d69c1dc	0.057069644
232	0xbd496f0a	-0.04917816
233	0xbe21fbc5	-0.15818699
234	0xbe049af2	-0.12949732
235	0x3d84a39a	0.06476517
236	0x3d1b76d5	0.037955124
237	0xbd922bff	-0.07137298
238	0xbe0e17cd	-0.13876267
239	0x3e8b25e3	0.27177343
240	0x3bf05e36	0.0073354496
241	0x3d8e84c0	0.06958914
242	0xbcf35238	-0.02970229
243	0xbe171997	-0.14755856
244	0x3e6aff98	0.22949064
245	0xbc1e941e	-0.009678869
246	0x3daa6679	0.08320326
247	0xbd140ab5	-0.036143024
248	0xbe1db237	-0.15400015
249	0x3e8420a7	0.25806162
250	0xbd826d64	-0.06368521
251	0x3df8e5e4	0.12153223
252	0x3c9dd0f9	0.019264685
253	0xbd6609c7	-0.05616167
254	0xbca6fc1e	-0.02038389
255	0xbe37b014	-0.17938262

linear_layers.0.bias f4 [64]
0	0xbda1d219	-0.07901401
1	0x3e62d81c	0.22152752
2	0x3e661c1f	0.22471665
3	0x3e561856	0.20907721
4	0x3e418e5f	0.18901967
5	0x3e5d76ee	0.216274
6	0x3e47f9c2	0.19528869
7	0x3e48c8c1	0.19607832
8	0x3e0c187f	0.1368122
9	0x3e6b723b	0.22992794
10	0x3e3c9e4f	0.18419765
11	0x3e67b590	0.22627854
12	0x3e5686e8	0.209499
13	0x3e00aba7	0.1256548
14	0x3e833127	0.25623438
15	0x3e4fd2a7	0.20295201
16	0x3e7e3cf2	0.24827936
17	0x3e3ec4df	0.18629788
18	0x3e44dd39	0.19225015
19	0x3e45ba5e	0.19309375
20	0x3e7f6f42	0.24944785
21	0x3e369eba	0.17833987
22	0x3e47cb8c	0.1951124
23	0x3e6c4c8b	0.23076074
24	0x3e67ad2f	0.22624658
25	0x3e2dbadc	0.16965812
26	0x3e29dbb7	0.16587721
27	0x3e5d2dab	0.21599452
28	0x3e439fb1	0.19103886
29	0x3e71c836	0.2361153
30	0x3e75be80	0.23998451
31	0x3e562e68	0.2091614
32	0x3e94ffb3	0.29101333
33	0x3e43e59e	0.19130561
34	0x3e897235	0.26844946
35	0x3e2b8da0	0.16753244
36	0x3e357941	0.17722036
37	0x3e9a9e72	0.3019901
38	0x3e04e5d6	0.129783
39	0x3e7578a1	0.23971798
40	0x3e0c37b0	0.13693118
41	0x3e4b5d06	0.19859704
42	0x3e6ef1e0	0.23334455
43	0x3e61d90c	0.22055453
44	0x3e2f7a9d	0.17136617
45	0x3e939b14	0.28829253
46	0x3e57f031	0.2108772
47	0x3e37be19	0.1794361
48	0x3e0bafd1	0.13641287
49	0x3e557f97	0.20849453
50	0x3e71d87e	0.23617741
51	0x3e8fa266	0.28053588
52	0x3e547b38	0.20750129
53	0x3e649555	0.2232259
54	0x3e8559c3	0.26045045
55	0x3e702eec	0.234554
56	0x3e52654e	0.20546457
57	0x3e9b6816	0.3035285
58	0x3e6336d9	0.22188891
59	0x3e3d905f	0.18512104
60	0x3e35a9d4	0.17740566
61	0x3e4d0ee3	0.2002521
62	0x3e5ea731	0.21743466
63	0x3e713063	0.23553614

linear_layers.3.weight f4 [4, 64]
0	0x3e2af066	0.16693267
1	0x3f1686c3	0.5879938
2	0xbe063733	-0.13106994
3	0x3ec443d9	0.38333014
4	0x3ec8839c	0.3916291
5	0xbf30530d	-0.68876725
6	0x3f169d18	0.58833456
7	0x3dc20d83	0.094752334
8	0x3d93b743	0.07212689
9	0x3ec3adab	0.38218436
10	0xbc8164d7	-0.015795154
11	0x3ceffd64	0.02929563
12	0xbeed9c42	-0.46408278
13	0x3f5f06d5	0.871198
14	0x3e2abe63	0.1667419
15	0xba2563b8	-0.000630911
16	0x3c0ed5b8	0.008717947
17	0xbef2e8b2	-0.47443157
18	0xbe457639	-0.1928338
19	0xbf0605f6	-0.52352846
20	0x3e8c0ebb	0.27354988
21	0x3e8e359b	0.27775273
22	0xbf040914	-0.5157635
23	0x3c8d5992	0.017254625
24	0x3e2b9c17	0.16758762
25	0xbf06d4cc	-0.5266845
26	0x3eddd612	0.43327385
27	0x3ed48f5d	0.41515628
28	0x3bb10e08	0.005403284
29	0xbebccd85	-0.3687555
30	0xbe7d3581	-0.24727441
31	0xbee7c415	-0.45266786
32	0xbdf14de9	-0.11782438
33	0x3e9c6748	0.30547547
34	0xbc06ab9b	-0.008219625
35	0x3f36bfc4	0.7138636
36	0xbef02986	-0.4690668
37	0x3d40f79f	0.04711115
38	0x3f4197c6	0.7562221
39	0x3dd0a152	0.101870194
40	0x3f9085ff	1.1290892
41	0xbf82a1cc	-1.0205626
42	0xbdc97c21	-0.09838129
43	0x3ea735e6	0.3265831
44	0x3bd270ac	0.006422123
45	0x3c0c3fb3	0.008560109
46	0xbed9fe15	-0.42576662
47	0xbeb2d286	-0.34926242
48	0xbf7b605b	-0.981939
49	0x3b86065d	0.004090114
50	0xbdddf66c	-0.10838017
51	0xbdd7ea35	-0.10542718
52	0xbe54ba15	-0.2077411
53	0xbedcbc68	-0.43112493
54	0x3cd0db5a	0.02549522
55	0x3ecf8c29	0.4053662
56	0x3f121d1f	0.57075685
57	0x3cf663b1	0.030076833
58	0x3ed2aa1f	0.41145417
59	0xbead4364	-0.33840477
60	0xbf859164	-1.0434995
61	0x3f1ed810	0.62048435
62	0xbc256314	-0.010094423
63	0xbd9857c6	-0.074386165
64	0x3f543602	0.8289491
65	0xbc9c689a	-0.019092847
66	0x3f2c7467	0.67365116
67	0x3f0d3b15	0.5516828
68	0xbe657176	-0.22406563
69	0x3d135a6f	0.035974916
70	0x3f328ded	0.6974781
71	0xbf04ed41	-0.5192452
72	0xbf52c621	-0.8233357
73	0x3e929fdc	0.28637588
74	0xbec3ce6a	-0.3824342
75	0x3f06c596	0.5264524
76	0x3debbfa6	0.115111634
77	0xbf322056	-0.6958059
78	0x3ebd42b5	0.36964956
79	0x3f54a3c1	0.8306237
80	0x3ef56cfc	0.4793471
81	0x3f14629e	0.5796298
82	0xbeaa0cb2	-0.3321281
83	0xbee900ab	-0.45508322
84	0xbec5df40	-0.3864689
85	0xbebffdf3	-0.37498435
86	0xbf24e29d	-0.64408284
87	0x3eb04de1	0.34434417
88	0xbeaae79b	-0.33379826
89	0x3f063198	0.52419424
90	0xbf186948	-0.59535646
91	0xbea1d555	-0.31608072
92	0xbeb8edf9	-0.3611906
93	0x3e993ca1	0.2992907
94	0x3eb3ed91	0.35142186
95	0xbdab352d	-0.08359752
96	0x3ed897fc	0.42303455
97	0xbf267577	-0.6502299
98	0xbe9cb321	-0.30605415
99	0x3f26c66f	0.65146536
100	0xbf171279	-0.5901256
101	0x3ece0fb5	0.4024636
102	0xbf480aa9	-0.78141266
103	0x3f015c39	0.50531346
104	0x3eb4bf20	0.35302067
105	0x3e5b1bc8	0.21397316
106	0xbeac898b	-0.33698687
107	0x3ed8b2a8	0.42323804
108	0xbeb453ae	-0.35220093
109	0xbeb1913a	-0.34681112
110	0x3cd1ed9a	0.025625993
111	0x3f0fbf2a	0.5615107
112	0xbf341fb4	-0.70360875
113	0xbeb8b76d	-0.36077443
114	0xbefa107c	-0.48840702
115	0xbea85c61	-0.3288298
116	0xbeaed44e	-0.3414635
117	0xbe04788e	-0.12936613
118	0xbebab32a	-0.36464816
119	0x3dab2801	0.083572395
120	0x3dd217df	0.10258459
121	0x3ed33789	0.41253307
122	0xbce2fdd0	-0.027708918
123	0xbeaeac47	-0.34115812
124	0x3ef20ebd	0.4727687
125	0xbdea8b53	-0.11452355
126	0x3edc2bde	0.43002218
127	0xbf20960d	-0.6272896
128	0x3e3086de	0.17238948
129	0x3f1a0275	0.6016
130	0xbe099cf4	-0.13438779
131	0x3eb8e936	0.36115426
132	0x3ec2538e	0.37954372
133	0xbf23fa96	-0.6405424
134	0x3f130c16	0.57440317
135	0x3dbf6e71	0.09347237
136	0x3d9e29bc	0.07722804
137	0x3ec1837f	0.37795636
138	0xbc295ced	-0.010337097
139	0x3c160e75	0.00915872
140	0xbeee0e2e	-0.46495193
141	0x3f453627	0.77035755
142	0x3e3b5aec	0.18296403
143	0xbcf2d7f1	-0.029643985
144	0x3bb1a7b5	0.0054216036
145	0xbeec1e64	-0.46116936
146	0xbe4b610e	-0.19861242
147	0xbefd7383	-0.4950219
148	0x3e857c99	0.26071623
149	0x3e904195	0.28175035
150	0xbf0205a9	-0.50789887
151	0x3c36ed5b	0.011164988
152	0x3e363691	0.17794253
153	0xbf061fb2	-0.52392113
154	0x3edd84da	0.4326542
155	0x3ed5aa96	0.4173171
156	0x3ae7e429	0.0017691898
157	0xbeb695ec	-0.35661256
158	0xbe80269e	-0.25029463
159	0xbeeb9bdf	-0.46017358
160	0xbdf6299b	-0.12019654
161	0x3e92e0af	0.28687045
162	0xbca848a6	-0.020542454
163	0x3f31da34	0.69473577
164	0xbee960ae	-0.45581573
165	0x3d3ef357	0.046618786
166	0x3f2da7cf	0.6783418
167	0x3dfa85b4	0.12232533
168	0x3f60b24b	0.87772053
169	0xbf6550ab	-0.89576215
170	0xbdca9f84	-0.098937064
171	0x3eac3624	0.33635056
172	0x3b27edda	0.0025623948
173	0x3c65b842	0.014020981
174	0xbee11270	-0.4395938
175	0xbeac637c	-0.3366965
176	0xbf55c8f1	-0.8350974
177	0x3b5919a5	0.0033126858
178	0xbddc1c1e	-0.107475504
179	0xbdd411fd	-0.103549935
180	0xbe58af70	-0.21160674
181	0xbedd16dc	-0.43181503
182	0x3cb19d64	0.021681495
183	0x3ed04bfb	0.40682968
184	0x3f095008	0.53637743
185	0x3c9ef4ea	0.019403894
186	0x3ed54cd9	0.41660193
187	0xbeb4130c	-0.35170782
188	0xbf606b2f	-0.8766355
189	0x3f12ff57	0.5742087
190	0xbcd0eda0	-0.025503933
191	0xbdb7aa9f	-0.0896809
192	0x3f58dab5	0.8470872
193	0xbd162188	-0.03665307
194	0x3f2666b1	0.65000445
195	0x3f010661	0.5040036
196	0xbe8614f4	-0.2618786
197	0xbd220144	-0.03955199
198	0x3f23cb21	0.63981825
199	0xbf06d8ca	-0.52674544
200	0xbf3a5411	-0.72784525
201	0x3eada1cc	0.33912504
202	0xbecb8396	-0.3974883
203	0x3f0d2bb9	0.5514484
204	0x3e161fa2	0.14660504
205	0xbf23f9a4	-0.64052796
206	0x3ecd6b3a	0.4012087
207	0x3f471a34	0.7777436
208	0x3efc30ca	0.49255973
209	0x3f129069	0.572516
210	0xbeb7975a	-0.3585766
211	0xbee69b2c	-0.45040262
212	0xbebb6227	-0.36598322
213	0xbeb814ca	-0.3595336
214	0xbf18b780	-0.59655
215	0x3ec27d52	0.37986237
216	0xbea8a29c	-0.3293656
217	0x3eed1b30	0.46309805
218	0xbf106ac9	-0.5641294
219	0xbeaae909	-0.33380917
220	0xbed89706	-0.42302722
221	0x3ea2de68	0.31810308
222	0x3ed60354	0.41799414
223	0xbccf7f59	-0.025329279
224	0x3ebf9fc5	0.37426582
225	0xbf2a8964	-0.6661589
226	0xbea49f12	-0.3215261
227	0x3f0d4bb8	0.5519366
228	0xbf142edc	-0.57884
229	0x3ec19be4	0.37814248
230	0xbf0f9230	-0.5608244
231	0x3ef9079e	0.48638624
232	0x3ea701bb	0.32618508
233	0x3ec3378b	0.38128313
234	0xbe9a2624	-0.30107224
235	0x3ec98a9d	0.39363566
236	0xbec1f2e5	-0.37880626
237	0xbea8b410	-0.32949877
238	0x3d32ad5e	0.043622367
239	0x3f08294a	0.53188
240	0xbf0e0fb5	-0.5549272
241	0xbeb5d0dd	-0.35510913
242	0xbefcb5cc	-0.4935745
243	0xbe9957a5	-0.2994968
244	0xbeac6f3b	-0.33678612
245	0xbe13e8b9	-0.14444245
246	0xbeb3cd97	-0.3511779
247	0x3de3b6e9	0.11118872
248	0x3e25774a	0.16158786
249	0x3ec13def	0.37742564
250	0xbc05c573	-0.008164751
251	0xbea69692	-0.3253675
252	0x3ea5655d	0.32303897
253	0xbde6030c	-0.1123105
254	0x3ede51e7	0.43421862
255	0xbf15e33f	-0.58549875

linear_layers.3.bias f4 [4]
0	0xbc86e28e	-0.016465452
1	0x3dfd669f	0.12373089
2	0xbc94958e	-0.01813772
3	0x3ddeb1f5	0.10873786
