models/model_long_conv_x10_cuda_100_epochs_extra_graph/model_long_conv_x10_cuda_100_epochs_extra_graph\model.pth (torch, 227370 bytes, 14 tensors)

conv_layers.0.0.conv.weight f4 [16, 10, 3, 3]
00000000: eea0 0080 6f99 0080 b389 0080 548b 0080
00000010: 328b 0000 07ae 0000 618a 0080 44ac 0080
00000020: a696 0000 58a2 0080 a7a7 0000 c1a2 0080
00000030: 0e91 0000 918a 0080 8f91 0000 3ea0 0000
00000040: d8a7 0080 c78c 0080 2c8a 0080 0f89 0000
00000050: 068e 0080 408a 0080 988d 0000 2c9c 0000
00000060: 6fa4 0000 4f94 0000 0491 0000 e2aa 0000
00000070: da9d 0000 f68a 0000 7a94 0080 cd8e 0000
00000080: 1e8c 0080 2e8e 0000 a799 0080 8f95 0080
00000090: 478f 0080 a08d 0080 8596 0080 87ac 0080
000000a0: 6b89 0000 1c90 0080 379b 0080 0c93 0000
000000b0: 0695 0000 169b 0000 e69a 0000 ef89 0080
000000c0: fe92 0000 1489 0080 ba8f 0000 3393 0000
000000d0: 2990 0080 2c8a 0000 b3ae 0000 1c96 0000
000000e0: e492 0080 c588 0080 b58c 0000 1b90 0080
000000f0: b38a 0080 e489 0080 d18c 0000 cf8d 0080
00000100: b7ae 0000 2a8b 0000 59a8 0080 9293 0000
00000110: 9f93 0080 9389 0080 4f95 0080 4389 0080
00000120: 778b 0080 fc89 0080 29ad 0000 0490 0080
00000130: 1d9b 0000 538f 0000 5590 0080 8289 0080
00000140: 7f8a 0000 1292 0000 558b 0000 3b8f 0080
00000150: e590 0000 2e9d 0080 b98f 0000 b08a 0000
00000160: 2295 0000 1b90 0000 8d8e 0080 d58a 0000
00000170: eb91 0000 529b 0000 cb88 0080 4b94 0080
00000180: 5a8c 0000 228a 0000 9d89 0000 1592 0080
00000190: 8ea5 0000 908e 0080 1391 0000 4f9c 0000
000001a0: ed89 0000 7daf 0000 f18b 0080 258d 0080
000001b0: dd8a 0000 3f93 0000 0f89 0000 98a0 0080
000001c0: 538a 0080 1b8f 0080 239a 0000 a98e 0000
000001d0: 3089 0080 7b8c 0080 e98c 0080 dca7 0000
000001e0: 0489 0000 c094 0000 008f 0000 8f89 0080
000001f0: b096 0080 b38c 0000 198b 0080 2f8d 0000
00000200: 8394 0080 ca9f 0080 d890 0000 208f 0000
00000210: a79b 0080 008a 0080 a8a6 0000 34a2 0080
00000220: 1b89 0000 738e 0000 b289 0000 acad 0000
00000230: 7faa 0080 d190 0000 9699 0000 7290 0080
00000240: 089a 0080 65a6 0080 5194 0080 9989 0000
00000250: f58e 0000 ca8e 0080 1f9b 0000 79ad 0000
00000260: 348a 0080 9295 0080 738e 0080 f688 0000
00000270: 888c 0000 5e8d 0000 178b 0080 f190 0080
00000280: 238a 0000 36ae 0080 2089 0000 908d 0080
00000290: be9e 0000 798c 0080 0c89 0000 bc94 0080
000002a0: 4e8e 0080 888b 0000 01a7 0080 508f 0000
000002b0: 17ad 0080 819a 0080 d68c 0080 5aa3 0080
000002c0: 6daf 0080 1e9b 0000 438d 0080 2b90 0000
000002d0: 6e9a 0000 1398 0080 1089 0080 05a8 0000
000002e0: 6f8f 0000 59ad 0080 ba88 0000 19a0 0000
000002f0: e69b 0080 c999 0080 ab8a 0080 1f8a 0000
00000300: f78a 0000 8da3 0080 4c98 0080 468a 0080
00000310: 978e 0000 ff89 0080 c989 0000 6fa7 0080
00000320: 7f89 0000 6c8b 0000 7891 0080 d899 0000
00000330: 0089 0000 f295 0080 8b93 0000 2da0 0000
00000340: 3b92 0080 758a 0000 e5a5 0080 3fa2 0000
00000350: e99d 0080 7c94 0080 51af 0000 a694 0000
00000360: dc9a 0080 5597 0000 27a9 0080 8698 0080
00000370: 039a 0080 6f93 0000 fc98 0000 c599 0000
00000380: 9e9d 0000 4f99 0000 59ae 0000 3897 0080
00000390: 919e 0080 bc9e 0000 af8b 0080 4b98 0080
000003a0: eca1 0080 cc8b 0000 4996 0080 6289 0080
000003b0: 7092 0000 808b 0000 0190 0080 858b 0000
000003c0: a9ad 0000 7d96 0080 fb98 0080 95a1 0080
000003d0: 288d 0080 8d95 0000 9594 0080 fa95 0000
000003e0: b58e 0000 588e 0000 5291 0000 47a9 0000
000003f0: 4aaa 0080 3bac 0080 9d98 0000 a693 0000
-5.773e-41 -5.5042e-41 -4.9397e-41 -4.9982e-41 4.9934e-41 6.2429e-41 -4.9641e-41 -6.1797e-41
5.4042e-41 -5.8238e-41 6.0142e-41 -5.8385e-41 5.2036e-41 -4.9708e-41 5.2217e-41 5.7484e-41
-6.0211e-41 -5.0501e-41 -4.9567e-41 4.9167e-41 -5.0948e-41 -4.9595e-41 5.0794e-41 5.6024e-41
5.8988e-41 5.3203e-41 5.2022e-41 6.1301e-41 5.6626e-41 4.985e-41 -5.3263e-41 5.1227e-41
-5.0265e-41 5.1004e-41 -5.512e-41 -5.3652e-41 -5.1398e-41 -5.0805e-41 -5.3996e-41 -6.1891e-41
4.9296e-41 -5.1697e-41 -5.568e-41 5.275e-41 5.346e-41 5.5634e-41 5.5567e-41 -4.9481e-41
5.2731e-41 -4.9174e-41 5.156e-41 5.2805e-41 -5.1715e-41 4.9567e-41 6.267e-41 5.3849e-41
-5.2694e-41 -4.9064e-41 5.0476e-41 -5.1695e-41 -4.9756e-41 -4.9466e-41 5.0515e-41 -5.0871e-41
6.2676e-41 4.9923e-41 -6.0392e-41 5.2938e-41 -5.2956e-41 -4.9352e-41 -5.3562e-41 -4.924e-41
-5.003e-41 -4.95e-41 6.2118e-41 -5.1663e-41 5.5644e-41 5.1415e-41 -5.1777e-41 -4.9329e-41
4.9683e-41 5.24e-41 4.9983e-41 -5.1381e-41 5.1978e-41 -5.6385e-41 5.1558e-41 4.9752e-41
5.3499e-41 5.1695e-41 -5.1138e-41 4.9804e-41 5.2346e-41 5.5718e-41 -4.9072e-41 -5.3197e-41
5.0349e-41 4.9553e-41 4.9366e-41 -5.2404e-41 5.939e-41 -5.1142e-41 5.2043e-41 5.6073e-41
4.9478e-41 6.2953e-41 -5.0202e-41 -5.0633e-41 4.9815e-41 5.2822e-41 4.9167e-41 -5.761e-41
-4.9621e-41 -5.1337e-41 5.5294e-41 5.1177e-41 -4.9214e-41 -5.0395e-41 -5.0549e-41 6.0217e-41
4.9152e-41 5.3361e-41 5.1299e-41 -4.9347e-41 -5.4056e-41 5.0473e-41 -4.9899e-41 5.0647e-41
-5.3276e-41 -5.7322e-41 5.196e-41 5.1344e-41 -5.5838e-41 -4.9505e-41 5.9785e-41 -5.8188e-41
4.9184e-41 5.1101e-41 4.9396e-41 6.2302e-41 -6.1162e-41 5.195e-41 5.5096e-41 -5.1817e-41
-5.5256e-41 -5.9691e-41 -5.3206e-41 4.9361e-41 5.1283e-41 -5.1223e-41 5.5647e-41 6.223e-41
-4.9578e-41 -5.3656e-41 -5.1101e-41 4.9132e-41 5.0413e-41 5.0713e-41 -4.9896e-41 -5.1995e-41
4.9554e-41 -6.2495e-41 4.9191e-41 -5.0783e-41 5.6946e-41 -5.0392e-41 4.9163e-41 -5.3356e-41
-5.105e-41 5.0054e-41 -5.991e-41 5.1411e-41 -6.2093e-41 -5.5426e-41 -5.0522e-41 -5.86e-41
-6.2931e-41 5.5646e-41 -5.0675e-41 5.1718e-41 5.5399e-41 -5.4554e-41 -4.9169e-41 6.0274e-41
5.1454e-41 -6.2185e-41 4.9048e-41 5.7432e-41 -5.5926e-41 -5.5168e-41 -4.9745e-41 4.9549e-41
4.9851e-41 -5.8671e-41 -5.4634e-41 -4.9603e-41 5.1152e-41 -4.9504e-41 4.9428e-41 -6.0064e-41
4.9324e-41 5.0015e-41 -5.2184e-41 5.5189e-41 4.9146e-41 -5.379e-41 5.2928e-41 5.746e-41
-5.2458e-41 4.9669e-41 -5.9512e-41 5.8203e-41 -5.6647e-41 -5.3266e-41 6.2892e-41 5.3325e-41
-5.5553e-41 5.4288e-41 -6.068e-41 -5.4715e-41 -5.5249e-41 5.2889e-41 5.488e-41 5.5162e-41
5.6542e-41 5.4997e-41 6.2544e-41 -5.4247e-41 -5.6883e-41 5.6943e-41 -5.0109e-41 -5.4632e-41
-5.8087e-41 5.015e-41 -5.3912e-41 -4.9284e-41 5.2532e-41 5.0043e-41 -5.1659e-41 5.005e-41
6.2298e-41 -5.3985e-41 -5.4879e-41 -5.7965e-41 -5.0637e-41 5.3649e-41 -5.3301e-41 5.3801e-41
5.1194e-41 5.1063e-41 5.2131e-41 6.0725e-41 -6.1088e-41 -6.1785e-41 5.4747e-41 5.2966e-41

conv_layers.0.0.conv.bias f4 [16]
00000000: 368a 0000 7389 0000 5b89 0000 c888 0000
00000010: 9889 0000 dc88 0080 e089 0000 dd89 0080
00000020: a59a 0080 38a1 0080 1e89 0000 3589 0000
00000030: 6489 0000 7d89 0000 d089 0000 ec89 0000
4.9581e-41 4.9307e-41 4.9274e-41 4.9068e-41 4.936e-41 -4.9096e-41 4.946e-41 -4.9456e-41
-5.5476e-41 -5.7834e-41 4.9188e-41 4.922e-41 4.9286e-41 4.9322e-41 4.9438e-41 4.9477e-41

conv_layers.2.0.conv.weight f4 [32, 16, 3, 3]
00000000: 0492 0000 fc97 0080 418d 0080 7b8d 0000
00000010: 4490 0080 d291 0080 258b 0080 348a 0080
00000020: 1494 0000 769e 0080 db90 0000 9aa6 0080
00000030: e79a 0000 ed89 0000 398f 0000 efa6 0080
00000040: dc94 0000 988a 0000 4f8b 0000 ca8a 0000
00000050: fe8c 0000 298a 0000 d98c 0000 228b 0000
00000060: d98a 0000 1e8a 0000 458d 0000 4e92 0000
00000070: 358c 0080 108b 0000 789a 0080 0a8c 0080
00000080: 3894 0000 cb8d 0080 ad94 0000 eb8d 0000
00000090: 6b90 0080 9c8e 0000 188d 0080 1293 0080
000000a0: 1e9a 0080 928c 0080 408a 0000 d795 0000
000000b0: 6392 0000 968d 0080 2da6 0080 a690 0080
000000c0: d18e 0080 ed91 0000 f297 0080 828e 0000
000000d0: 2690 0080 748a 0080 b988 0080 648e 0080
000000e0: 818a 0080 388f 0080 098f 0000 00a0 0000
000000f0: 549c 0000 ad8a 0080 f08e 0000 d98e 0080
00000100: 088b 0000 e290 0000 db92 0000 1394 0080
00000110: 7090 0000 828f 0000 b991 0000 d097 0000
00000120: 8f95 0080 15a6 0000 f894 0080 a78d 0000
00000130: a28e 0080 9492 0080 2bac 0000 e593 0080
00000140: eb94 0000 968a 0000 158e 0080 4f8c 0080
00000150: d28b 0080 098e 0080 4e90 0000 9c8f 0000
00000160: c398 0000 ea8f 0000 c68e 0000 268e 0080
00000170: 238f 0080 2791 0080 9e8e 0080 3d90 0000
00000180: 2e90 0080 9f8a 0080 d28e 0080 7cab 0000
00000190: b793 0080 78a0 0080 1090 0000 8891 0080
000001a0: e78c 0000 128b 0080 45a4 0080 1390 0000
000001b0: 188e 0080 f594 0000 9fa9 0080 a88c 0000
000001c0: a48e 0000 8492 0080 978b 0000 af94 0000
000001d0: 8c94 0080 548d 0080 de8c 0080 9689 0080
000001e0: 228c 0080 428b 0080 a88c 0080 318a 0080
000001f0: 3c8a 0080 228c 0080 058a 0000 bf8b 0000
00000200: 5d8b 0000 5289 0080 ba89 0080 e991 0080
00000210: 248c 0000 458b 0000 278a 0000 bb8c 0000
00000220: 7f8b 0080 c48a 0080 d78a 0000 7889 0080
00000230: ec88 0000 f589 0000 ed8b 0000 f78d 0000
00000240: f992 0000 3b91 0080 5490 0000 b28c 0000
00000250: 5b8a 0000 f089 0080 2ca9 0080 a595 0000
00000260: 7395 0000 2d8d 0080 798b 0000 c989 0000
00000270: 7489 0080 788d 0000 dc88 0000 1e8f 0000
00000280: ad8a 0000 458e 0080 628b 0080 f08b 0080
00000290: e089 0080 308a 0080 0e8a 0080 3889 0080
000002a0: d88b 0080 9b8a 0080 738b 0080 d594 0080
000002b0: ca92 0000 2a90 0080 2e8a 0000 c08b 0080
000002c0: 318b 0080 4792 0000 5791 0000 9192 0000
000002d0: 8989 0000 e58c 0000 6394 0000 df8b 0000
000002e0: a38d 0000 8d8a 0000 f68c 0000 c68e 0000
000002f0: 4e8d 0000 198c 0080 c68e 0000 478f 0000
00000300: 0a90 0080 628b 0080 388a 0000 1d97 0080
00000310: f88c 0000 7089 0080 db8c 0000 bf89 0000
00000320: eb8b 0000 c88c 0000 9c8a 0000 128b 0000
00000330: b58b 0000 e78b 0000 028d 0000 b78e 0000
00000340: 298d 0000 a68a 0000 b08b 0000 9f8e 0000
00000350: 7da4 0080 478d 0000 9c8a 0000 af8b 0000
00000360: ee8c 0000 2a8a 0080 938f 0080 218d 0080
00000370: 3894 0000 f38c 0080 8c89 0000 c788 0080
00000380: 1b8d 0000 4289 0080 648e 0080 288f 0080
00000390: f18d 0080 88a3 0080 0e8e 0000 b199 0080
000003a0: 2097 0080 7da4 0080 028e 0080 c18c 0080
000003b0: fb8d 0080 218c 0080 de8a 0080 ae8a 0080
000003c0: a18b 0080 8c8d 0080 ad8d 0080 e790 0000
000003d0: 2492 0080 6a8c 0000 ff88 0080 2f8f 0000
000003e0: 7e90 0080 cb89 0000 a090 0000 ec90 0000
000003f0: 2b8c 0080 3e8d 0000 5189 0000 b189 0000
5.238e-41 -5.4522e-41 -5.0672e-41 5.0754e-41 -5.1753e-41 -5.231e-41 -4.9916e-41 -4.9578e-41
5.312e-41 -5.6845e-41 5.1964e-41 -5.9765e-41 5.5568e-41 4.9478e-41 5.1379e-41 -5.9884e-41
5.34e-41 4.9718e-41 4.9975e-41 4.9788e-41 5.0578e-41 4.9563e-41 5.0527e-41 4.9911e-41
4.9809e-41 4.9547e-41 5.0678e-41 5.2484e-41 -5.0297e-41 4.9886e-41 -5.5413e-41 -5.0237e-41
5.3171e-41 -5.0866e-41 5.3335e-41 5.091e-41 -5.1807e-41 5.1159e-41 -5.0615e-41 -5.2759e-41
-5.5287e-41 -5.0427e-41 4.9595e-41 5.3752e-41 5.2514e-41 -5.0791e-41 -5.9613e-41 -5.189e-41
-5.1233e-41 5.2348e-41 -5.4508e-41 5.1122e-41 -5.1711e-41 -4.9668e-41 -4.9047e-41 -5.108e-41
-4.9686e-41 -5.1377e-41 5.1311e-41 5.7397e-41 5.608e-41 -4.9747e-41 5.1276e-41 -5.1244e-41
4.9875e-41 5.1974e-41 5.2682e-41 -5.3119e-41 5.1814e-41 5.1481e-41 5.2275e-41 5.446e-41
-5.3652e-41 5.9579e-41 -5.344e-41 5.0815e-41 -5.1167e-41 -5.2582e-41 6.1762e-41 -5.3055e-41
5.3422e-41 4.9715e-41 -5.097e-41 -5.0333e-41 -5.0158e-41 -5.0953e-41 5.1767e-41 5.1517e-41
5.48e-41 5.1627e-41 5.1217e-41 -5.0993e-41 -5.1348e-41 -5.2071e-41 -5.1161e-41 5.1743e-41
-5.1722e-41 -4.9728e-41 -5.1234e-41 6.1517e-41 -5.299e-41 -5.7565e-41 5.168e-41 -5.2207e-41
5.0546e-41 -4.9889e-41 -5.8929e-41 5.1684e-41 -5.0974e-41 5.3436e-41 -6.0849e-41 5.0458e-41
5.117e-41 -5.256e-41 5.0075e-41 5.3338e-41 -5.3289e-41 -5.0699e-41 -5.0534e-41 -4.9357e-41
-5.027e-41 -4.9956e-41 -5.0458e-41 -4.9574e-41 -4.9589e-41 -5.027e-41 4.9512e-41 5.0131e-41
4.9994e-41 -4.9261e-41 -4.9407e-41 -5.2343e-41 5.0273e-41 4.996e-41 4.956e-41 5.0485e-41
-5.0042e-41 -4.978e-41 4.9806e-41 -4.9314e-41 4.9118e-41 4.949e-41 5.0196e-41 5.0927e-41
5.2724e-41 -5.2099e-41 5.1775e-41 5.0472e-41 4.9633e-41 -4.9483e-41 -6.0687e-41 5.3682e-41
5.3612e-41 -5.0644e-41 5.0033e-41 4.9428e-41 -4.9309e-41 5.075e-41 4.9096e-41 5.1341e-41
4.9747e-41 -5.1037e-41 -5.0001e-41 -5.02e-41 -4.946e-41 -4.9572e-41 -4.9525e-41 -4.9225e-41
-5.0166e-41 -4.9722e-41 -5.0025e-41 -5.3391e-41 5.2658e-41 -5.1716e-41 4.957e-41 -5.0133e-41
-4.9932e-41 5.2474e-41 5.2138e-41 5.2578e-41 4.9338e-41 5.0543e-41 5.3231e-41 5.0176e-41
5.081e-41 4.9703e-41 5.0567e-41 5.1217e-41 5.069e-41 -5.0258e-41 5.1217e-41 5.1398e-41
-5.1671e-41 -5.0001e-41 4.9584e-41 -5.4209e-41 5.057e-41 -4.9303e-41 5.053e-41 4.9414e-41
5.0193e-41 5.0503e-41 4.9724e-41 4.9889e-41 5.0117e-41 5.0188e-41 5.0584e-41 5.1196e-41
5.0639e-41 4.9738e-41 5.011e-41 5.1163e-41 -5.9007e-41 5.0681e-41 4.9724e-41 5.0109e-41
5.0556e-41 -4.9564e-41 -5.1505e-41 -5.0628e-41 5.3171e-41 -5.0563e-41 4.9343e-41 -4.9066e-41
5.0619e-41 -4.9239e-41 -5.108e-41 -5.1355e-41 -5.0919e-41 -5.8664e-41 5.096e-41 -5.5134e-41
-5.4213e-41 -5.9007e-41 -5.0943e-41 -5.0493e-41 -5.0933e-41 -5.0269e-41 -4.9816e-41 -4.9749e-41
-5.009e-41 -5.0777e-41 -5.0824e-41 5.1981e-41 -5.2425e-41 5.0371e-41 -4.9145e-41 5.1365e-41
-5.1834e-41 4.9431e-41 5.1882e-41 5.1988e-41 -5.0283e-41 5.0668e-41 4.926e-41 4.9394e-41

conv_layers.2.0.conv.bias f4 [32]
00000000: e589 0080 fa88 0000 0c8a 0000 cd88 0080
00000010: 2289 0080 c488 0080 9489 0000 ad8d 0080
00000020: 9089 0000 e989 0080 4689 0000 9cad 0080
00000030: 0c89 0000 0389 0000 fc89 0000 e188 0080
00000040: 2d89 0000 ec89 0080 b289 0000 4689 0080
00000050: 6d89 0080 d688 0000 219e 0080 ff88 0000
00000060: 1593 0080 fc89 0000 6289 0000 fe88 0080
00000070: 17ad 0080 1089 0080 bb89 0080 1c89 0000
-4.9467e-41 4.9138e-41 4.9522e-41 -4.9075e-41 -4.9194e-41 -4.9062e-41 4.9354e-41 -5.0824e-41
4.9348e-41 -4.9473e-41 4.9244e-41 -6.228e-41 4.9163e-41 4.915e-41 4.95e-41 -4.9103e-41
4.921e-41 -4.9477e-41 4.9396e-41 -4.9244e-41 -4.9299e-41 4.9087e-41 -5.6726e-41 4.9145e-41
-5.2763e-41 4.95e-41 4.9284e-41 -4.9144e-41 -6.2093e-41 -4.9169e-41 -4.9408e-41 4.9186e-41

conv_layers.4.0.conv.weight f4 [32, 32, 3, 3]
00000000: 3790 0080 7f93 0080 ae89 0080 9c8a 0080
00000010: 7990 0080 7693 0080 7f8e 0080 5d94 0080
00000020: 0c91 0080 d79f 0080 b98b 0080 85aa 0080
00000030: 8b8b 0080 778a 0080 8c89 0080 328c 0000
00000040: f989 0000 e98b 0000 9a8e 0000 a88e 0000
00000050: f788 0000 9b8f 0000 d08f 0000 d889 0000
00000060: 0489 0000 738c 0000 6e8a 0000 3096 0000
00000070: 6296 0000 248f 0000 a88c 0080 298c 0000
00000080: c09c 0080 5c9c 0080 6d8c 0000 c6a3 0000
00000090: dc92 0080 3f9b 0000 998c 0000 8b8d 0000
000000a0: 08a5 0080 5a8a 0000 7096 0000 d497 0000
000000b0: b88c 0080 8b8d 0000 918f 0000 758a 0000
000000c0: 928a 0000 4589 0080 2489 0000 318a 0000
000000d0: 008d 0000 f98d 0000 5b8e 0000 328d 0000
000000e0: c08d 0080 6f94 0080 6395 0080 b28d 0000
000000f0: fd88 0080 028c 0000 4090 0080 cb8a 0000
00000100: be8b 0000 c289 0000 328c 0000 5a89 0000
00000110: f589 0000 138c 0000 5c8c 0000 478a 0000
00000120: 828b 0080 bd8c 0080 b18d 0080 908d 0080
00000130: f88d 0080 948a 0080 5d8a 0080 278f 0080
00000140: 208f 0080 8c89 0000 da8c 0000 e289 0000
00000150: 8f8d 0000 0f8f 0000 1f8e 0000 178b 0000
00000160: ad90 0000 208d 0000 468a 0080 b88c 0080
00000170: b08a 0080 8689 0000 a68b 0000 c9ae 0000
00000180: bc8a 0080 fe8a 0080 2589 0080 2b89 0080
00000190: 6089 0080 f988 0080 218b 0080 4d8a 0080
000001a0: 8489 0080 438c 0080 538d 0080 1389 0080
000001b0: 1390 0080 ac90 0080 eb89 0080 c98d 0000
000001c0: 938b 0080 4f8a 0080 dc8d 0000 d58d 0080
000001d0: fc8e 0000 fb8c 0000 4c8e 0080 c590 0000
000001e0: c689 0000 ab89 0000 bc88 0080 ef8a 0000
000001f0: 9290 0000 c68e 0000 1a8a 0080 548c 0080
00000200: 748f 0000 f588 0000 e08a 0080 d08b 0080
00000210: e28f 0080 3090 0080 ab8d 0080 7b9b 0080
00000220: ca90 0000 1f98 0000 6298 0000 0996 0080
00000230: f888 0080 ba9d 0080 178f 0080 d595 0080
00000240: 2689 0000 8b8b 0000 fd88 0000 be8c 0000
00000250: bc89 0000 2a8d 0000 578e 0000 288e 0000
00000260: ad89 0000 519f 0000 73a3 0000 6ba6 0080
00000270: b498 0000 8a9c 0000 348b 0000 0b91 0080
00000280: 7698 0080 ad90 0000 d58d 0000 e58f 0080
00000290: bd8a 0000 b18a 0000 0098 0080 9599 0080
000002a0: a49a 0080 8895 0000 95ad 0000 5d90 0080
000002b0: f88a 0080 ba8d 0080 c592 0080 5c91 0000
000002c0: 058c 0080 7089 0080 5490 0080 d88e 0080
000002d0: 298f 0080 658e 0080 988c 0080 e38c 0080
000002e0: 1a89 0080 bb8d 0080 138e 0080 c08d 0080
000002f0: 2c89 0080 65a1 0000 a58a 0080 7897 0080
00000300: 8da0 0080 2fa4 0000 439d 0000 fda0 0080
00000310: 4198 0000 d0a3 0000 f99a 0000 e8a2 0000
00000320: f588 0000 498c 0080 368a 0080 588c 0080
00000330: 8189 0080 b089 0080 798a 0080 6d8b 0000
00000340: db89 0080 7c90 0080 7fa5 0000 4f90 0080
00000350: a89c 0000 1e95 0080 cd8c 0080 ec91 0080
00000360: 02a9 0080 f791 0000 de90 0000 b290 0080
00000370: fb88 0080 7890 0080 488e 0080 0f92 0080
00000380: 9890 0080 a68d 0000 b48b 0000 dd8c 0000
00000390: 0b8a 0000 6c8b 0080 1089 0080 5d8c 0000
000003a0: 6d8b 0000 5c8d 0000 8a8c 0080 258d 0080
000003b0: 568b 0080 4f8c 0080 a38b 0080 b48c 0080
000003c0: d08b 0080 ba8c 0080 4d8f 0080 e38b 0080
000003d0: a68a 0080 548d 0080 f38c 0080 f08c 0080
000003e0: e689 0080 ab8c 0080 6b8c 0080 ef8b 0080
000003f0: 3d8f 0080 e789 0000 789d 0080 7a89 0080
-5.1735e-41 -5.2912e-41 -4.939e-41 -4.9724e-41 -5.1827e-41 -5.2899e-41 -5.1118e-41 -5.3223e-41
-5.2033e-41 -5.734e-41 -5.0123e-41 -6.1171e-41 -5.0059e-41 -4.9672e-41 -4.9343e-41 5.0293e-41
4.9495e-41 5.019e-41 5.1156e-41 5.1175e-41 4.9134e-41 5.1516e-41 5.159e-41 4.9449e-41
4.9152e-41 5.0384e-41 4.9659e-41 5.3877e-41 5.3947e-41 5.1349e-41 -5.0458e-41 5.028e-41
-5.6231e-41 -5.6091e-41 5.0375e-41 5.8751e-41 -5.2683e-41 5.5692e-41 5.0437e-41 5.0776e-41
-5.9202e-41 4.9631e-41 5.3967e-41 5.4466e-41 -5.048e-41 5.0776e-41 5.1502e-41 4.9669e-41
4.971e-41 -4.9243e-41 4.9197e-41 4.9574e-41 5.0581e-41 5.093e-41 5.1068e-41 5.0651e-41
-5.085e-41 -5.3248e-41 -5.359e-41 5.083e-41 -4.9142e-41 5.0225e-41 -5.1747e-41 4.979e-41
5.013e-41 4.9418e-41 5.0293e-41 4.9272e-41 4.949e-41 5.0249e-41 5.0351e-41 4.9605e-41
-5.0046e-41 -5.0487e-41 -5.0829e-41 -5.0783e-41 -5.0929e-41 -4.9712e-41 -4.9635e-41 -5.1353e-41
-5.1344e-41 4.9343e-41 5.0528e-41 4.9463e-41 5.0782e-41 5.132e-41 5.0983e-41 4.9896e-41
5.19e-41 5.0626e-41 -4.9603e-41 -5.048e-41 -4.9752e-41 4.9334e-41 5.0096e-41 6.2701e-41
-4.9769e-41 -4.9861e-41 -4.9198e-41 -4.9207e-41 -4.9281e-41 -4.9137e-41 -4.991e-41 -4.9613e-41
-4.9331e-41 -5.0316e-41 -5.0698e-41 -4.9173e-41 -5.1684e-41 -5.1898e-41 -4.9476e-41 5.0863e-41
-5.007e-41 -4.9616e-41 5.089e-41 -5.088e-41 5.1293e-41 5.0574e-41 -5.1047e-41 5.1934e-41
4.9424e-41 4.9386e-41 -4.9051e-41 4.984e-41 5.1862e-41 5.1217e-41 -4.9542e-41 -5.034e-41
5.1461e-41 4.9131e-41 -4.9819e-41 -5.0155e-41 -5.1615e-41 -5.1725e-41 -5.0821e-41 -5.5776e-41
5.194e-41 5.4571e-41 5.4665e-41 -5.3822e-41 -4.9135e-41 -5.6582e-41 -5.1331e-41 -5.375e-41
4.92e-41 5.0059e-41 4.9142e-41 5.0489e-41 4.941e-41 5.064e-41 5.1062e-41 5.0996e-41
4.9389e-41 5.7152e-41 5.8635e-41 -5.97e-41 5.478e-41 5.6156e-41 4.9937e-41 -5.2032e-41
-5.4693e-41 5.19e-41 5.088e-41 -5.162e-41 4.977e-41 4.9753e-41 -5.4527e-41 -5.5095e-41
-5.5475e-41 5.3642e-41 6.227e-41 -5.1788e-41 -4.9853e-41 -5.0842e-41 -5.2651e-41 5.2145e-41
-5.023e-41 -4.9303e-41 -5.1775e-41 -5.1243e-41 -5.1356e-41 -5.1082e-41 -5.0436e-41 -5.054e-41
-4.9183e-41 -5.0843e-41 -5.0967e-41 -5.085e-41 -4.9208e-41 5.7897e-41 -4.9736e-41 -5.4337e-41
-5.7595e-41 5.8898e-41 5.6415e-41 -5.7752e-41 5.4618e-41 5.8765e-41 5.5594e-41 5.844e-41
4.9131e-41 -5.0325e-41 -4.9581e-41 -5.0346e-41 -4.9327e-41 -4.9393e-41 -4.9675e-41 5.0017e-41
-4.9453e-41 -5.1831e-41 5.9369e-41 -5.1768e-41 5.6198e-41 -5.3493e-41 -5.051e-41 -5.2347e-41
-6.0629e-41 5.2362e-41 5.1969e-41 -5.1907e-41 -4.914e-41 -5.1826e-41 -5.1041e-41 -5.2396e-41
-5.187e-41 5.0814e-41 5.0116e-41 5.0532e-41 4.952e-41 -5.0015e-41 -4.9169e-41 5.0353e-41
5.0017e-41 5.071e-41 -5.0416e-41 -5.0633e-41 -4.9984e-41 -5.0333e-41 -5.0092e-41 -5.0475e-41
-5.0155e-41 -5.0483e-41 -5.1407e-41 -5.0182e-41 -4.9738e-41 -5.0699e-41 -5.0563e-41 -5.0559e-41
-4.9469e-41 -5.0462e-41 -5.0372e-41 -5.0199e-41 -5.1384e-41 4.947e-41 -5.6489e-41 -4.9317e-41

conv_layers.4.0.conv.bias f4 [32]
00000000: dc88 0080 9a89 0080 2789 0080 d489 0080
00000010: 1a89 0080 d989 0080 2c89 0000 7b89 0000
00000020: 3989 0000 c088 0000 8789 0080 cb88 0080
00000030: f889 0000 1689 0080 c789 0080 c989 0000
00000040: e189 0080 e789 0080 d989 0080 3489 0080
00000050: c389 0080 dd88 0080 7b89 0080 d788 0080
00000060: 2389 0080 1189 0080 9f89 0080 cd88 0000
00000070: 9289 0000 088a 0000 5589 0080 1589 0080
-4.9096e-41 -4.9362e-41 -4.9201e-41 -4.9443e-41 -4.9183e-41 -4.945e-41 4.9208e-41 4.9319e-41
4.9226e-41 4.9057e-41 -4.9336e-41 -4.9072e-41 4.9494e-41 -4.9177e-41 -4.9425e-41 4.9428e-41
-4.9462e-41 -4.947e-41 -4.945e-41 -4.9219e-41 -4.942e-41 -4.9097e-41 -4.9319e-41 -4.9089e-41
-4.9195e-41 -4.917e-41 -4.9369e-41 4.9075e-41 4.9351e-41 4.9516e-41 -4.9265e-41 -4.9176e-41

conv_layers.5.0.conv.weight f4 [32, 32, 3, 3]
00000000: 52a2 0000 1497 0080 008e 0080 1d8a 0000
00000010: ac90 0000 3c92 0000 3492 0000 3b99 0000
00000020: 2e9c 0000 3a96 0000 658d 0080 5889 0000
00000030: 9a98 0080 a9ac 0080 b990 0080 568b 0080
00000040: 648e 0000 708e 0080 2789 0080 938f 0080
00000050: f48d 0080 208f 0080 0a89 0080 2c89 0080
00000060: 838c 0080 508a 0080 158a 0080 6d8a 0080
00000070: 0a8b 0080 ef8a 0080 598a 0080 3d8a 0080
00000080: 4e8a 0080 338a 0080 7a8a 0080 a089 0080
00000090: 0889 0080 178b 0080 1ba6 0000 4da8 0000
000000a0: 3f94 0000 ea90 0000 2095 0080 2892 0080
000000b0: 4a91 0080 a98f 0000 d78d 0000 d18b 0000
000000c0: caa9 0080 2992 0080 dc9a 0080 8591 0000
000000d0: 4f8e 0000 6b8f 0000 86a1 0080 22ae 0000
000000e0: 0b9c 0000 aa97 0000 1d8e 0080 73aa 0000
000000f0: 0a95 0000 fc9c 0000 e199 0080 ae98 0000
00000100: 8997 0000 818f 0000 d8a3 0080 0691 0000
00000110: 3ea6 0080 b28c 0000 3092 0000 c593 0000
00000120: e58f 0080 4d96 0080 d388 0000 c98c 0080
00000130: ed99 0080 8b96 0080 afaa 0080 1e8c 0080
00000140: c48b 0000 3689 0080 0f89 0080 e188 0080
00000150: e488 0080 1989 0080 488a 0080 6789 0000
00000160: 8d89 0000 268a 0000 148c 0000 6193 0000
00000170: 2e8e 0000 ae8f 0000 8089 0000 ee92 0000
00000180: 0495 0000 ff89 0000 c890 0000 618b 0080
00000190: e388 0080 6f8b 0080 888c 0000 358b 0000
000001a0: 4b8d 0000 958d 0000 3598 0000 a68a 0080
000001b0: d695 0080 c590 0080 11a7 0080 7294 0080
000001c0: 2193 0080 1b93 0080 b88e 0000 9e8f 0000
000001d0: c38b 0000 5a8a 0080 f389 0080 788a 0080
000001e0: 228b 0080 288a 0080 e38a 0080 768b 0080
000001f0: ff88 0080 f689 0080 f28d 0080 b78b 0080
00000200: 958b 0080 958d 0080 838c 0080 bc8a 0080
00000210: 0d8a 0080 fd88 0080 b290 0080 678a 0000
00000220: d188 0000 a789 0000 bf89 0000 d189 0000
00000230: ff89 0000 c988 0000 718b 0000 3e8d 0000
00000240: df98 0080 1792 0080 3699 0080 3191 0080
00000250: 3594 0080 3a8e 0080 dba6 0000 ce89 0080
00000260: 6292 0080 8e8d 0080 0e9c 0000 e68a 0080
00000270: 2189 0000 3a89 0000 a28c 0000 f98c 0080
00000280: 7d8a 0080 d788 0080 548d 0000 d98c 0000
00000290: cc88 0000 408a 0000 248a 0000 298d 0000
000002a0: 288c 0000 428a 0000 448a 0000 c28e 0080
000002b0: 488d 0080 1389 0080 df8d 0000 428a 0000
000002c0: 2189 0000 7a8b 0080 6a8b 0080 2d96 0000
000002d0: 0893 0000 d290 0000 6e8f 0000 2290 0000
000002e0: 9091 0000 ba88 0000 af90 0000 8a90 0000
000002f0: e492 0000 ee8d 0000 388b 0000 df8c 0000
00000300: ca8a 0080 778e 0080 3e89 0080 1d90 0000
00000310: 078c 0000 da89 0000 8f8c 0080 d48d 0080
00000320: 2f8c 0080 9d8c 0080 198b 0080 0f8d 0080
00000330: 7b8b 0080 198e 0080 588e 0080 d38c 0080
00000340: c888 0080 5f8e 0080 db89 0080 468e 0080
00000350: e28c 0080 3f8b 0080 148e 0080 808e 0080
00000360: cb8b 0000 7989 0000 958a 0000 1089 0000
00000370: ba8b 0000 fb8a 0000 fc8a 0000 fb88 0000
00000380: 4a89 0000 c689 0000 bf8b 0000 028a 0000
00000390: 7b8a 0000 f28a 0000 998b 0000 5b8a 0000
000003a0: 5a8a 0000 f988 0000 379b 0000 9a89 0000
000003b0: 5e99 0000 1e9a 0000 8892 0000 d696 0000
000003c0: 978d 0000 4899 0080 6d8b 0000 d48d 0000
000003d0: 538b 0000 4189 0000 0a8e 0000 318c 0000
000003e0: b490 0000 d58d 0000 4e8d 0000 f189 0000
000003f0: 5c96 0080 58a3 0000 f28c 0000 3394 0080
5.823e-41 -5.4197e-41 -5.094e-41 4.9546e-41 5.1898e-41 5.2459e-41 5.2448e-41 5.4969e-41
5.6027e-41 5.3891e-41 -5.0723e-41 4.927e-41 -5.4743e-41 -6.1939e-41 -5.1917e-41 -4.9984e-41
5.108e-41 -5.1097e-41 -4.9201e-41 -5.1505e-41 -5.0923e-41 -5.1344e-41 -4.916e-41 -4.9208e-41
-5.0406e-41 -4.9617e-41 -4.9534e-41 -4.9658e-41 -4.9878e-41 -4.984e-41 -4.963e-41 -4.959e-41
-4.9614e-41 -4.9577e-41 -4.9676e-41 -4.937e-41 -4.9158e-41 -4.9896e-41 5.9587e-41 6.0375e-41
5.318e-41 5.1985e-41 -5.3496e-41 -5.2431e-41 -5.212e-41 5.1536e-41 5.0883e-41 5.0157e-41
-6.0909e-41 -5.2432e-41 -5.5553e-41 5.2203e-41 5.1051e-41 5.1449e-41 -5.7944e-41 6.2467e-41
5.5978e-41 5.4407e-41 -5.098e-41 6.1146e-41 5.3465e-41 5.6315e-41 -5.5201e-41 5.4771e-41
5.436e-41 5.148e-41 -5.8776e-41 5.2025e-41 -5.9636e-41 5.0472e-41 5.2442e-41 5.301e-41
-5.162e-41 -5.3918e-41 4.9083e-41 -5.0504e-41 -5.5218e-41 -5.4005e-41 -6.123e-41 -5.0265e-41
5.0138e-41 -4.9222e-41 -4.9167e-41 -4.9103e-41 -4.9107e-41 -4.9181e-41 -4.9606e-41 4.929e-41
4.9344e-41 4.9558e-41 5.025e-41 5.287e-41 5.1004e-41 5.1543e-41 4.9326e-41 5.2708e-41
5.3457e-41 4.9504e-41 5.1938e-41 -5e-41 -4.9106e-41 -5.002e-41 5.0413e-41 4.9938e-41
5.0686e-41 5.079e-41 5.4602e-41 -4.9738e-41 -5.3751e-41 -5.1934e-41 -5.9932e-41 -5.3252e-41
-5.278e-41 -5.2771e-41 5.1198e-41 5.152e-41 5.0137e-41 -4.9631e-41 -4.9487e-41 -4.9673e-41
-4.9911e-41 -4.9561e-41 -4.9823e-41 -5.0029e-41 -4.9145e-41 -4.9491e-41 -5.092e-41 -5.012e-41
-5.0073e-41 -5.079e-41 -5.0406e-41 -4.9769e-41 -4.9523e-41 -4.9142e-41 -5.1907e-41 4.965e-41
4.908e-41 4.938e-41 4.9414e-41 4.9439e-41 4.9504e-41 4.9069e-41 5.0022e-41 5.0668e-41
-5.484e-41 -5.2407e-41 -5.4962e-41 -5.2085e-41 -5.3167e-41 -5.1021e-41 5.9856e-41 -4.9435e-41
-5.2512e-41 -5.078e-41 5.5982e-41 -4.9827e-41 4.9193e-41 4.9228e-41 5.045e-41 -5.0571e-41
-4.968e-41 -4.9089e-41 5.0699e-41 5.0527e-41 4.9073e-41 4.9595e-41 4.9556e-41 5.0639e-41
5.0279e-41 4.9598e-41 4.96e-41 -5.1212e-41 -5.0682e-41 -4.9173e-41 5.0894e-41 4.9598e-41
4.9193e-41 -5.0035e-41 -5.0012e-41 5.3873e-41 5.2745e-41 5.1952e-41 5.1453e-41 5.1705e-41
5.2218e-41 4.9048e-41 5.1903e-41 5.1851e-41 5.2694e-41 5.0915e-41 4.9942e-41 5.0535e-41
-4.9788e-41 -5.1107e-41 -4.9233e-41 5.1698e-41 5.0232e-41 4.9452e-41 -5.0423e-41 -5.0878e-41
-5.0288e-41 -5.0443e-41 -4.9899e-41 -5.0602e-41 -5.0036e-41 -5.0975e-41 -5.1063e-41 -5.0518e-41
-4.9068e-41 -5.1073e-41 -4.9453e-41 -5.1038e-41 -5.0539e-41 -4.9952e-41 -5.0968e-41 -5.112e-41
5.0148e-41 4.9316e-41 4.9714e-41 4.9169e-41 5.0124e-41 4.9857e-41 4.9858e-41 4.914e-41
4.925e-41 4.9424e-41 5.0131e-41 4.9508e-41 4.9677e-41 4.9844e-41 5.0078e-41 4.9633e-41
4.9631e-41 4.9137e-41 5.568e-41 4.9362e-41 5.5018e-41 5.5287e-41 5.2566e-41 5.411e-41
5.0793e-41 -5.4987e-41 5.0017e-41 5.0878e-41 4.998e-41 4.9237e-41 5.0954e-41 5.0291e-41
5.191e-41 5.088e-41 5.069e-41 4.9484e-41 -5.3939e-41 5.8597e-41 5.0562e-41 -5.3164e-41

conv_layers.5.0.conv.bias f4 [32]
00000000: 1889 0000 d588 0000 2289 0000 6f89 0000
00000010: 5e89 0000 ba89 0000 4d89 0000 f489 0000
00000020: 1d89 0080 db88 0000 f089 0000 bb88 0000
00000030: 7389 0000 5089 0080 4389 0000 e889 0000
00000040: b389 0000 7f89 0000 8089 0080 2589 0000
00000050: b988 0000 6a89 0000 7c89 0000 bf89 0000
00000060: 1f89 0080 ac89 0000 5589 0080 9989 0000
00000070: fe88 0000 e788 0000 ef88 0000 c788 0000
4.918e-41 4.9086e-41 4.9194e-41 4.9302e-41 4.9278e-41 4.9407e-41 4.9254e-41 4.9488e-41
-4.9187e-41 4.9094e-41 4.9483e-41 4.905e-41 4.9307e-41 -4.9258e-41 4.924e-41 4.9471e-41
4.9397e-41 4.9324e-41 -4.9326e-41 4.9198e-41 4.9047e-41 4.9295e-41 4.932e-41 4.9414e-41
-4.919e-41 4.9387e-41 -4.9265e-41 4.9361e-41 4.9144e-41 4.9111e-41 4.9123e-41 4.9066e-41

conv_layers.7.0.conv.weight f4 [16, 32, 3, 3]
00000000: 7e8b 0080 ea88 0080 5389 0080 3d8f 0000
00000010: fd89 0080 eb88 0000 3f94 0080 c79b 0080
00000020: 8899 0080 9a90 0080 a18d 0080 098d 0080
00000030: 9d8d 0080 c790 0080 49a4 0080 ff8d 0000
00000040: 98a1 0000 8a9e 0000 638b 0000 6c8b 0080
00000050: 159f 0000 fd8a 0000 e48b 0000 5e89 0000
00000060: 0b8b 0000 de89 0000 e388 0000 458f 0000
00000070: 2c8b 0000 188d 0000 ea8c 0080 eb8e 0080
00000080: 0d8a 0080 dd89 0080 7a90 0080 578a 0080
00000090: 118e 0000 ac8c 0000 6689 0000 ce8c 0080
000000a0: f788 0080 d789 0080 7690 0000 4a90 0000
000000b0: e289 0000 7f8c 0080 d28a 0080 d98b 0080
000000c0: 7989 0080 4a8b 0080 3e8a 0080 738e 0000
000000d0: 028e 0000 3d8b 0000 678b 0000 ef8b 0000
000000e0: 738a 0000 9d8a 0000 a18a 0000 2a8b 0000
000000f0: d288 0080 ec8b 0000 3889 0080 fd9c 0000
00000100: 098b 0000 0999 0000 0589 0000 a48b 0000
00000110: 4790 0000 ba8a 0080 1f8f 0080 ab8f 0000
00000120: 5a8d 0080 7a8d 0080 8c8a 0080 a489 0000
00000130: ea8a 0000 2c8c 0000 418d 0080 af8d 0080
00000140: 1789 0080 818a 0000 008a 0000 1589 0000
00000150: 3b89 0000 b08a 0000 488c 0000 408b 0000
00000160: af8a 0000 008e 0000 3389 0000 3a8c 0000
00000170: 108b 0000 71a9 0000 1d8a 0080 ac8c 0080
00000180: 3d8b 0080 df8c 0080 718f 0080 9b89 0080
00000190: 568a 0080 5f8a 0080 b789 0000 2c8b 0000
000001a0: 0889 0000 9f89 0000 d88b 0000 aa8c 0000
000001b0: 998a 0080 8f91 0080 3d8e 0080 3889 0000
000001c0: 4390 0000 f58c 0000 8791 0000 3895 0000
000001d0: 1c9e 0000 1b89 0080 2e89 0080 798a 0080
000001e0: e28b 0080 3b8a 0080 088b 0080 7e89 0080
000001f0: 8889 0080 3689 0000 068e 0000 a78e 0000
00000200: 048e 0000 e28c 0080 438a 0080 cb8d 0080
00000210: 0a8b 0000 d48a 0080 5c8d 0000 0f8d 0000
00000220: a58a 0000 1c8b 0000 b68c 0000 c38c 0000
00000230: 6289 0000 d889 0000 558c 0000 e18e 0000
00000240: 418c 0000 878b 0000 d38a 0000 788c 0080
00000250: 408d 0080 cf8b 0080 bf8d 0000 5f8c 0000
00000260: 9a89 0000 308a 0000 b28c 0000 278d 0000
00000270: 9c8c 0000 aa8b 0000 748c 0000 748c 0080
00000280: 168a 0080 7b8c 0080 278c 0080 3d8c 0080
00000290: 5c8a 0080 5f8a 0000 108d 0000 8689 0000
000002a0: 5b8f 0080 129a 0080 d994 0080 de8a 0000
000002b0: f98c 0000 088b 0000 9b8c 0000 b389 0000
000002c0: b189 0000 998c 0080 349d 0000 4bac 0000
000002d0: 888e 0000 a98c 0000 f88d 0000 ca9b 0000
000002e0: 9789 0080 8f8e 0080 0389 0000 d691 0000
000002f0: be8c 0000 498b 0080 2e89 0080 558a 0080
00000300: 008a 0080 ce8a 0080 af89 0080 2d8b 0000
00000310: 898f 0000 f98b 0000 3389 0080 1e8c 0080
00000320: 428e 0080 5f8e 0080 2e8d 0080 208d 0080
00000330: 8f8b 0080 a08d 0080 e88c 0080 8c97 0080
00000340: 37a2 0080 1e8a 0080 da88 0080 368b 0080
00000350: 5389 0080 c588 0080 508b 0080 2089 0080
00000360: 0a8b 0080 cd8a 0080 bf8a 0080 978a 0080
00000370: 588b 0080 2e89 0080 f388 0000 c08c 0000
00000380: f58b 0000 788b 0080 c3a1 0080 408c 0080
00000390: 6c89 0000 ff8c 0000 d888 0000 2f8c 0000
000003a0: daac 0000 8a91 0000 288d 0080 478b 0080
000003b0: b48c 0080 5b8c 0080 0889 0080 7c8b 0080
000003c0: ba89 0000 ca88 0000 da8b 0000 c989 0080
000003d0: ee8a 0080 718c 0080 1d8d 0080 1b8a 0000
000003e0: ac89 0080 87a6 0080 9192 0000 0390 0000
000003f0: 798a 0000 fe89 0000 0f8b 0000 ce8a 0080
-5.004e-41 -4.9116e-41 -4.9263e-41 5.1384e-41 -4.9501e-41 4.9117e-41 -5.318e-41 -5.5882e-41
-5.5077e-41 -5.1873e-41 -5.0807e-41 -5.0594e-41 -5.0801e-41 -5.1936e-41 -5.8934e-41 5.0939e-41
5.7969e-41 5.6873e-41 5.0003e-41 -5.0015e-41 5.7068e-41 4.986e-41 5.0183e-41 4.9278e-41
4.9879e-41 4.9457e-41 4.9106e-41 5.1395e-41 4.9925e-41 5.0615e-41 -5.055e-41 -5.127e-41
-4.9523e-41 -4.9456e-41 -5.1828e-41 -4.9627e-41 5.0964e-41 5.0464e-41 4.9289e-41 -5.0511e-41
-4.9134e-41 -4.9448e-41 5.1823e-41 5.1761e-41 4.9463e-41 -5.04e-41 -4.98e-41 -5.0168e-41
-4.9316e-41 -4.9968e-41 -4.9592e-41 5.1101e-41 5.0943e-41 4.9949e-41 5.0008e-41 5.0199e-41
4.9666e-41 4.9725e-41 4.973e-41 4.9923e-41 -4.9082e-41 5.0195e-41 -4.9225e-41 5.6317e-41
4.9876e-41 5.4899e-41 4.9153e-41 5.0094e-41 5.1757e-41 -4.9766e-41 -5.1342e-41 5.1538e-41
-5.0707e-41 -5.0752e-41 -4.9701e-41 4.9376e-41 4.9833e-41 5.0284e-41 -5.0672e-41 -5.0826e-41
-4.9179e-41 4.9686e-41 4.9505e-41 4.9176e-41 4.9229e-41 4.9752e-41 5.0323e-41 4.9953e-41
4.975e-41 5.094e-41 4.9218e-41 5.0304e-41 4.9886e-41 6.0784e-41 -4.9546e-41 -5.0464e-41
-4.9949e-41 -5.0535e-41 -5.1457e-41 -4.9364e-41 -4.9626e-41 -4.9638e-41 4.9403e-41 4.9925e-41
4.9158e-41 4.9369e-41 5.0166e-41 5.0461e-41 -4.972e-41 -5.2217e-41 -5.1025e-41 4.9225e-41
5.1751e-41 5.0566e-41 5.2205e-41 5.353e-41 5.6719e-41 -4.9184e-41 -4.9211e-41 -4.9675e-41
-5.018e-41 -4.9588e-41 -4.9875e-41 -4.9323e-41 -4.9337e-41 4.9222e-41 5.0948e-41 5.1174e-41
5.0946e-41 -5.0539e-41 -4.9599e-41 -5.0866e-41 4.9878e-41 -4.9802e-41 5.071e-41 5.0602e-41
4.9736e-41 4.9903e-41 5.0478e-41 5.0496e-41 4.9284e-41 4.9449e-41 5.0342e-41 5.1255e-41
5.0314e-41 5.0053e-41 4.9801e-41 -5.039e-41 -5.0671e-41 -5.0154e-41 5.0849e-41 5.0356e-41
4.9362e-41 4.9572e-41 5.0472e-41 5.0636e-41 5.0441e-41 5.0102e-41 5.0385e-41 -5.0385e-41
-4.9536e-41 -5.0395e-41 -5.0277e-41 -5.0308e-41 -4.9634e-41 4.9638e-41 5.0604e-41 4.9334e-41
-5.1426e-41 -5.527e-41 -5.3396e-41 4.9816e-41 5.0571e-41 4.9875e-41 5.044e-41 4.9397e-41
4.9394e-41 -5.0437e-41 5.6394e-41 6.1807e-41 5.113e-41 5.046e-41 5.0929e-41 5.5887e-41
-4.9358e-41 -5.114e-41 4.915e-41 5.2316e-41 5.0489e-41 -4.9966e-41 -4.9211e-41 -4.9624e-41
-4.9505e-41 -4.9794e-41 -4.9392e-41 4.9927e-41 5.1491e-41 5.0213e-41 -4.9218e-41 -5.0265e-41
-5.1032e-41 -5.1073e-41 -5.0646e-41 -5.0626e-41 -5.0064e-41 -5.0805e-41 -5.0548e-41 -5.4365e-41
-5.8192e-41 -4.9547e-41 -4.9093e-41 -4.994e-41 -4.9263e-41 -4.9064e-41 -4.9976e-41 -4.9191e-41
-4.9878e-41 -4.9792e-41 -4.9773e-41 -4.9717e-41 -4.9987e-41 -4.9211e-41 4.9128e-41 5.0492e-41
5.0207e-41 -5.0032e-41 -5.8029e-41 -5.0312e-41 4.9298e-41 5.058e-41 4.909e-41 5.0288e-41
6.2007e-41 5.221e-41 -5.0637e-41 -4.9963e-41 -5.0475e-41 -5.035e-41 -4.9158e-41 -5.0038e-41
4.9407e-41 4.907e-41 5.0169e-41 -4.9428e-41 -4.9839e-41 -5.0381e-41 -5.0622e-41 4.9543e-41
-4.9387e-41 -5.9739e-41 5.2578e-41 5.1662e-41 4.9675e-41 4.9502e-41 4.9885e-41 -4.9794e-41

conv_layers.7.0.conv.bias f4 [16]
00000000: 1689 0080 cc5b 7b9c aa80 2cbc fad0 1380
00000010: ad89 0080 236e 5bae d14f 0580 a78a 0080
00000020: 14fd 1bac dd48 423c 4a8b 0080 c928 c2ac
00000030: a6c8 2d80 1b31 8ab2 a35e 50a6 8ae9 6e80
-4.9177e-41 -8.316758e-22 -0.010528723 -1.819841e-39 -4.9389e-41 -4.9892656e-11 -4.8781e-40 -4.9739e-41
-2.2167311e-12 0.011858192 -4.9968e-41 -5.5183397e-12 -4.204576e-39 -1.6087645e-08 -7.2292753e-16 -1.0185683e-38

linear_layers.0.weight f4 [64, 400]
00000000: 7b08 0200 99f3 0100 ca52 0400 ffb0 0200
00000010: 33ae 0080 7b93 0000 02a6 0000 b219 0100
00000020: a0c1 0200 8113 0600 68c4 0200 fd8e 0080
00000030: fe63 0300 0dc6 0200 670d 0100 bd02 0200
00000040: 2c98 0000 1215 0600 29a7 0200 b71c 0600
00000050: b65a 0400 22c0 0200 0799 0080 a8ff 0000
00000060: 7360 0400 e321 0780 55f4 0480 8906 0780
00000070: 09fa 0480 f700 0580 56fa 0680 6f87 0780
00000080: 1d04 0780 9760 0880 ad68 0680 ce0e 0780
00000090: 3409 0880 640e 0880 8fc8 0780 099e 0680
000000a0: de40 0880 9746 0880 1f65 0880 5bd6 0780
000000b0: 5366 0680 4e98 0680 7341 0880 4aa4 0780
000000c0: 53ab 0780 e491 0780 5f1a cb1b 5f1a cb1b
000000d0: 5f1a cb1b 5f1a cb1b 5f1a cb1b b91a cb1b
000000e0: b91a cb1b b91a cb1b b91a cb1b b91a cb1b
000000f0: b91a cb1b b91a cb1b b91a cb1b b91a cb1b
00000100: b91a cb1b b91a cb1b b91a cb1b b91a cb1b
00000110: b91a cb1b b91a cb1b c31a cb1b c31a cb1b
00000120: b91a cb1b c31a cb1b b91a cb1b f698 0000
00000130: 74af 0080 9248 0080 fd25 0080 4157 0300
00000140: 3da3 0080 e873 0080 1888 0080 ed51 0100
00000150: 38d8 0100 f2a6 0080 03bf 0080 6e3b 0300
00000160: 4663 0100 8156 0100 3d6a 0100 6beb 0100
00000170: 5b97 0000 25d9 0100 6d54 0080 a690 0000
00000180: cb2c 0100 c544 0080 814a 0300 3b23 0300
00000190: b1b7 0100 3b40 0100 28e1 0200 0399 0080
000001a0: 3fa3 0100 8399 0400 c21c 0300 1da5 0080
000001b0: c049 0080 174a 0080 d34c 0080 1903 0300
000001c0: 1699 0000 0c5b 0000 017f 0080 8250 0100
000001d0: 8d41 0100 4f77 0080 fc5d 0000 fcce 0080
000001e0: 1197 0000 e087 0080 6531 0300 9bce 0100
000001f0: ad56 0000 94e2 7f8e cce2 7f8e b8e2 7f8e
00000200: dbe2 7f8e b3e2 7f8e 39e2 7f8e 17e2 7f8e
00000210: 42e2 7f8e e7e1 7f8e 2ae2 7f8e 42e2 7f8e
00000220: 21e2 7f8e 0fe2 7f8e 15e2 7f8e 0fe2 7f8e
00000230: 9fe1 7f8e cee1 7f8e 1ae2 7f8e cfe1 7f8e
00000240: 06e2 7f8e 25e6 7f8e b2e6 7f8e 3fe6 7f8e
00000250: a6e6 7f8e a7e6 7f8e 568d 0000 4cb9 0000
00000260: 0ea5 0000 c812 0680 3d63 0080 a980 0080
00000270: a3c6 0000 7050 0000 18ca 0180 dec4 0000
00000280: d281 0080 6d61 0480 629d 0080 6ac8 0080
00000290: 3fcf 0280 a1ca 0080 ed4b 0180 5a21 0380
000002a0: 5098 0480 d099 0480 0f7e 0080 c595 0480
000002b0: a249 0000 ac3b 0180 787a 0000 0794 0000
000002c0: a1a4 0000 10c1 0480 f30e 0680 8f8a 0080
000002d0: 11c8 0000 9674 0480 b255 0380 5e0b 0280
000002e0: 05f2 0180 a849 0380 d4b9 0080 1359 0380
000002f0: b29f 0480 58f6 0180 a1fd 0080 0e9d 0080
00000300: 94b9 0080 e805 0180 da01 0280 bc22 0680
00000310: 9958 0380 08f7 0180 62ae 0280 9f06 0280
00000320: 60f5 930d fef4 930d 60f5 930d 0bf5 930d
00000330: f1f4 930d bb3c 940d 573c 940d 2c3d 940d
00000340: 683b 940d bb3c 940d ee42 940d b742 940d
00000350: de40 940d bc42 940d 8642 940d 5e42 940d
00000360: 1c42 940d bd40 940d bf42 940d 5543 940d
00000370: 6154 930d e052 930d c754 930d 7054 930d
00000380: 1255 930d cfb5 8d34 cfb5 8d34 cfb5 8d34
00000390: cfb5 8d34 cfb5 8d34 cfb5 8d34 cab5 8d34
000003a0: cab5 8d34 cab5 8d34 cab5 8d34 cfb5 8d34
000003b0: cfb5 8d34 cfb5 8d34 cfb5 8d34 cfb5 8d34
000003c0: cfb5 8d34 cfb5 8d34 cfb5 8d34 cfb5 8d34
000003d0: cfb5 8d34 cfb5 8d34 cfb5 8d34 cfb5 8d34
000003e0: cfb5 8d34 cfb5 8d34 534d 0380 450a 0180
000003f0: aa0e 0480 439d 0080 2791 0080 edaa 0000
1.86713e-40 1.79222e-40 3.97041e-40 2.47165e-40 -6.2491e-41 5.2906e-41 5.9552e-41 1.01053e-40
2.5313e-40 5.5801e-40 2.54128e-40 -5.1295e-41 3.11377e-40 2.54718e-40 9.6643e-41 1.84653e-40
5.4589e-41 5.58572e-40 2.43637e-40 5.61314e-40 3.99883e-40 2.52595e-40 -5.4896e-41 9.1712e-41
4.01941e-40 -6.55005e-40 -4.54992e-40 -6.45193e-40 -4.57038e-40 -4.59524e-40 -6.40817e-40 -6.91433e-40
-6.44324e-40 -7.69334e-40 -5.88564e-40 -6.4816e-40 -7.37985e-40 -7.39846e-40 -7.14795e-40 -6.07705e-40
-7.57954e-40 -7.60007e-40 -7.7096e-40 -7.19745e-40 -5.8772e-40 -6.0565e-40 -7.58163e-40 -7.01784e-40
-7.04308e-40 -6.95184e-40 3.3600575e-22 3.3600575e-22 3.3600575e-22 3.3600575e-22 3.3600575e-22 3.3600802e-22
3.3600802e-22 3.3600802e-22 3.3600802e-22 3.3600802e-22 3.3600802e-22 3.3600802e-22 3.3600802e-22 3.3600802e-22
3.3600802e-22 3.3600802e-22 3.3600802e-22 3.3600802e-22 3.3600802e-22 3.3600802e-22 3.3600827e-22 3.3600827e-22
3.3600802e-22 3.3600827e-22 3.3600802e-22 5.4872e-41 -6.2941e-41 -2.6033e-41 -1.3628e-41 3.06807e-40
-5.8559e-41 -4.158e-41 -4.8821e-41 1.21225e-40 1.694e-40 -5.9889e-41 -6.8522e-41 2.96826e-40
1.27448e-40 1.22867e-40 1.29947e-40 1.76288e-40 5.4296e-41 1.69732e-40 -3.0286e-41 5.189e-41
1.07904e-40 -2.467e-41 3.02233e-40 2.88145e-40 1.57732e-40 1.14877e-40 2.64442e-40 -5.489e-41
1.50397e-40 4.22412e-40 2.85823e-40 -5.9231e-41 -2.6457e-41 -2.6578e-41 -2.756e-41 2.76618e-40
5.4917e-41 3.2661e-41 -4.556e-41 1.20716e-40 1.1535e-40 -4.28e-41 3.3715e-41 -7.4252e-41
5.4192e-41 -4.8743e-41 2.93226e-40 1.65952e-40 3.1093e-41 -3.154027e-30 -3.1540375e-30 -3.1540338e-30
-3.1540404e-30 -3.1540328e-30 -3.1540099e-30 -3.1540035e-30 -3.1540116e-30 -3.1539945e-30 -3.154007e-30 -3.1540116e-30
-3.1540054e-30 -3.154002e-30 -3.1540031e-30 -3.154002e-30 -3.153981e-30 -3.1539898e-30 -3.154004e-30 -3.15399e-30
-3.1540003e-30 -3.1541987e-30 -3.1542252e-30 -3.1542036e-30 -3.154223e-30 -3.1542232e-30 5.0702e-41 6.6472e-41
5.921e-41 -5.5775e-40 -3.56e-41 -4.6155e-41 7.1257e-41 2.8856e-41 -1.64333e-40 7.0623e-41
-4.6571e-41 -4.02292e-40 -5.6458e-41 -7.1895e-41 -2.58017e-40 -7.269e-41 -1.19073e-40 -2.87471e-40
-4.21981e-40 -4.2252e-40 -4.5221e-41 -4.21069e-40 2.6414e-41 -1.13242e-40 4.3934e-41 5.3102e-41
5.9058e-41 -4.366e-40 -5.56376e-40 -4.9705e-41 7.177e-41 -4.09165e-40 -3.06248e-40 -1.87749e-40
-1.78656e-40 -3.0193e-40 -6.6663e-41 -3.0746e-40 -4.2463e-40 -1.80207e-40 -9.0985e-41 -5.634e-41
-6.6573e-41 -9.3954e-41 -1.84335e-40 -5.63473e-40 -3.0729e-40 -1.80454e-40 -2.46228e-40 -1.86046e-40
9.118646e-31 9.118554e-31 9.118646e-31 9.118566e-31 9.118542e-31 9.135825e-31 9.1357305e-31 9.135931e-31
9.135506e-31 9.135825e-31 9.137317e-31 9.137265e-31 9.13682e-31 9.13727e-31 9.137219e-31 9.137182e-31
9.137119e-31 9.136789e-31 9.137273e-31 9.137414e-31 9.079888e-31 9.079526e-31 9.079984e-31 9.079902e-31
9.080054e-31 2.639558e-07 2.639558e-07 2.639558e-07 2.639558e-07 2.639558e-07 2.639558e-07 2.6395566e-07
2.6395566e-07 2.6395566e-07 2.6395566e-07 2.639558e-07 2.639558e-07 2.639558e-07 2.639558e-07 2.639558e-07
2.639558e-07 2.639558e-07 2.639558e-07 2.639558e-07 2.639558e-07 2.639558e-07 2.639558e-07 2.639558e-07
2.639558e-07 2.639558e-07 -3.03245e-40 -9.552e-41 -3.72602e-40 -5.6415e-41 -5.2071e-41 6.1317e-41

linear_layers.0.bias f4 [64]
00000000: a49d 99b8 73e9 0bb3 022e 1bb9 17aa ceba
00000010: ad3a d7ba 2a67 0fb6 309a 59ba 3aa9 8eb7
00000020: c59b 3eba 5ed4 55af aceb 27a8 a4a4 ffb4
00000030: 1c9a 60b9 7afd 27b0 8bdc 77b3 184e a0af
00000040: 4715 8bb8 cf0b 30b1 ee40 70b4 d67e d6b9
00000050: 2908 93b9 7a76 12a4 376d 0cbc 322f 19ba
00000060: d4dc f3a6 4df8 02b9 d4e2 aeb1 166b 90bc
00000070: d13a 57a4 f8d8 bebb bf7f 61b3 141b 649e
00000080: 87bb 8cb7 1c69 dfad ff78 ddb7 d19d 93ae
00000090: 0f9f 11af 6725 aaae dbaa 64ad 295e 15b7
000000a0: 927a 4abc f8e5 cca9 7b3c d8b1 2ec8 b8b6
000000b0: ef81 8fb4 69e5 1bb7 4b41 e3b9 1152 f4b5
000000c0: 92fc 2ca4 51db 29bb ca2d 68bb b941 6fbb
000000d0: 182d ccba 6e0e 98ac 94da 86b2 270c 65bc
000000e0: 4477 26b2 fa22 b9a5 4599 46b3 2638 e5b8
000000f0: 3641 e4b6 27e6 8fb4 1e23 51b4 d769 49b9
-7.3249714e-05 -3.257578e-08 -0.00014799091 -0.0015767243 -0.0016420685 -2.136871e-06 -0.0008300869 -1.7006521e-05
-0.0007271136 -1.9447685e-10 -9.3214654e-15 -4.7617243e-07 -0.00021419715 -6.111446e-10 -5.770975e-08 -2.915932e-10
-6.632e-05 -2.5618083e-09 -2.2375363e-07 -0.0004091176 -0.00028044105 -3.1759057e-17 -0.008570961 -0.00058435195
-1.6921368e-15 -0.00012490265 -5.089854e-09 -0.017629188 -4.6670513e-17 -0.0058242045 -5.250308e-08 -1.2075819e-20
-1.6776625e-05 -2.5398843e-11 -2.6401596e-05 -6.71282e-11 -1.3244182e-10 -7.737349e-11 -1.2998237e-11 -8.903015e-06
-0.012358325 -9.099313e-14 -6.293303e-09 -5.5069313e-06 -2.6730365e-07 -9.292134e-06 -0.0004334546 -1.8203301e-06
-3.751049e-17 -0.0025918076 -0.0035427683 -0.003650768 -0.0015577404 -4.321702e-12 -1.5699051e-08 -0.013979948
-9.68959e-09 -3.2116085e-16 -4.6239865e-08 -0.000109300294 -6.802521e-06 -2.6803284e-07 -1.9477417e-07 -0.00019208282

linear_layers.3.weight f4 [4, 64]
00000000: d2e8 b636 f89a 3832 0714 da37 e0e7 eb37
00000010: 6eff 2f38 b761 5034 5431 a538 5172 5d36
00000020: c0a8 0d38 6356 bc2e 3598 a827 4861 8f34
00000030: cf87 ef37 b2b7 fa2f c731 ad31 e019 012f
00000040: b207 e636 5fc9 b72f 553a 6133 7eb8 b137
00000050: a57c c93a e305 7a23 4256 c0ba 0cb7 8fba
00000060: 8768 e526 1902 23b7 3879 0a30 6aa6 88bb
00000070: 274a 40a2 459e b7bb 6315 a932 361d 1821
00000080: 6096 5736 f398 3d2d ee8d c536 6a32 1bae
00000090: c5ea 562d cae8 d02c be00 032c a85e d835
000000a0: c39b 113a 4d31 3b29 e054 9730 73fc 9b34
000000b0: 4ba5 4633 f8c7 ff35 7af1 ac38 49a9 0135
000000c0: db22 6b24 9fdc 1e39 3005 ebb9 7a59 d939
000000d0: d4fb 3639 1e24 ba2c be95 e431 84d1 0cbc
000000e0: 5aac 1130 8abe d424 9918 8332 4602 f337
000000f0: db63 ad35 b1dc 9933 da68 2d33 a346 1b38
00000100: 239a 39b7 0f2a b6b2 324a 98b8 a74b 1eba
00000110: d74e 83ba be09 67b5 d4f5 2ab9 2080 cdb6
00000120: d486 31b9 6419 d8ad c9cb 14a7 7acd 2db4
00000130: 83a1 29b8 5131 daaf c0a3 8db2 ff88 43af
00000140: c2e2 0db7 1d79 18b1 823e 23b3 2f80 ceb8
00000150: aede f2bb 9012 95a3 b56a 24bb 8430 0ebc
00000160: 5510 8fa7 0b64 f8b8 de43 1fb1 d17b 273d
00000170: c40e 3ea2 b8ef b23a 0dd4 95b2 ce1e 6ea0
00000180: db28 8cb6 beff a9ac 5bf0 1eb7 3ef3 8cae
00000190: 9b1d d8ae 274f adad 2741 04ad 41c5 73b6
000001a0: 773e 5aba 3dee cfa8 c945 a2b1 27a8 edb5
000001b0: 75e2 0cb4 ff94 91b6 39e6 3ab9 f28d 69b5
000001c0: 5da9 5e24 5b11 e0b9 153f 04bb 7c74 8dba
000001d0: caa0 95b9 bb57 292c 520b 2db2 36f5 92bc
000001e0: 9c10 bdb1 1312 00a6 5a4d 9cb2 b0d6 5db7
000001f0: c955 f2b5 9a14 fbb3 0594 34b3 85fa 73b8
00000200: 1144 e636 0f4c 2032 f94d ab37 ce21 f738
00000210: cd55 8d38 0956 d233 bd36 9d38 fb29 4336
00000220: c182 7138 01ea 5b2e a500 6927 c5a9 5434
00000230: 596c bb37 5962 d42f df7c 2c31 c103 cf2e
00000240: 6e6c c436 1656 ce2f 87b7 2333 e05c f337
00000250: b6e0 63bc bc3b ba22 e167 97ba c3df fb3a
00000260: 0e53 e526 cfd3 7437 367c b8af fcc8 b339
00000270: 0c53 1ea3 407d 94bb 24bf 9c32 bbe0 0f21
00000280: 9730 2736 a90c 0a2d 4471 9336 23a3 4dae
00000290: e163 882c 7697 37ac add2 b62b fef7 2835
000002a0: fd8a 713a f7c3 b928 97bb 9d30 de93 9633
000002b0: 4034 3d33 c586 9735 9d18 7338 8fd4 c534
000002c0: bf8e baa3 aa3f 3539 3992 c3b9 2df4 d239
000002d0: 231b 4439 1ecd 032c 9c98 b831 d812 4ebc
000002e0: 8edf 8a2e a042 9f25 13b7 3e32 6c1d 6837
000002f0: b7e0 9635 c4d0 8f33 bab8 c532 89b3 2138
00000300: 618a 4bb7 d647 eab2 384a 95b8 a749 fa3a
00000310: 6dd1 60ba 14b6 bfb5 8764 28b9 c65b 47b7
00000320: 2883 48b9 0f8e c1ae ae4c 08a8 86f8 a3b4
00000330: d70c 8cb8 3757 38b0 ba9d 1cb3 4a49 0aaf
00000340: 28cc 30b7 5919 59b1 d5ea adb3 46ba e0b8
00000350: dd35 ac3c 68b0 bda3 4394 a6ba abe1 193c
00000360: 70d0 91a7 5598 adb8 db03 8db1 06cc 9c3c
00000370: 394a 18a4 a52a 9f3a 9cde 78b2 c274 0aa1
00000380: b935 cfb6 351e 9fad ee49 27b7 f222 87ae
00000390: 8c22 11af cb12 63ae 8b39 31ad 21b4 25b6
000003a0: 7ac6 45ba e176 8ea9 b591 82b1 c418 1eb6
000003b0: 5278 0bb4 4c5f 6db6 277f c1b8 dd37 3db5
000003c0: 662f c0a4 7480 b2b9 f290 d1ba 3045 01ba
000003d0: e40f b5b9 4008 afac a59d e3b1 82fb 8ebc
000003e0: b517 dcb1 3955 28a5 d5a1 12b3 0d80 51b7
000003f0: ee8c 05b6 1d80 7ab4 6bc1 93b3 b2f3 84b8
5.4511265e-06 1.0745445e-08 2.5996951e-05 2.8122158e-05 4.196114e-05 1.9407058e-07 7.877001e-05 3.2998107e-06
3.377418e-05 8.5645956e-11 4.679439e-15 2.6706607e-07 2.8554261e-05 4.5605258e-10 5.0406217e-09 1.1741674e-10
6.85543e-06 3.343059e-10 5.2439947e-08 2.1185955e-05 0.001537223 1.3553774e-17 -0.0014674144 -0.0010964586
1.5918399e-15 -9.7160455e-06 5.037637e-10 -0.0041702287 -2.6060108e-18 -0.005603584 1.9683915e-08 5.1538264e-19
3.2125026e-06 1.0777368e-11 5.8875803e-06 -3.5287696e-11 1.2216621e-11 5.9375603e-12 1.8616632e-12 1.6120803e-06
0.00055545213 4.1565103e-14 1.1010819e-09 2.905468e-07 4.62508e-08 1.9057179e-06 8.2465776e-05 4.830259e-07
5.0987026e-17 0.00015150242 -0.00044826558 0.0004145613 0.00017450686 5.2904478e-12 6.652697e-09 -0.008594874
5.299562e-10 9.226313e-17 1.5261593e-08 2.8968916e-05 1.2918566e-06 7.164761e-08 4.0375063e-08 3.7020665e-05
-1.1062747e-05 -2.1206715e-08 -7.261745e-05 -0.0006038495 -0.0010018003 -8.606838e-07 -0.00016304041 -6.124392e-06
-0.00016930263 -2.4567633e-11 -2.0649598e-15 -1.6186632e-07 -4.044316e-05 -3.968901e-10 -1.6489025e-08 -1.7783817e-10
-8.457051e-06 -2.2187756e-09 -3.8008245e-08 -9.8467215e-05 -0.0074117994 -1.6162474e-17 -0.0025088016 -0.008678559
-3.970818e-15 -0.00011844196 -2.3176123e-09 0.040889565 -2.5757618e-18 0.0013651764 -1.7442312e-08 -2.0169577e-19
-4.1770813e-06 -4.831662e-12 -9.473496e-06 -6.4096714e-11 -9.827802e-11 -1.9702974e-11 -7.517798e-12 -3.6324639e-06
-0.0008325348 -2.3084936e-14 -4.722754e-09 -1.7706815e-06 -1.31209e-07 -4.338682e-06 -0.00017824107 -8.700582e-07
4.8282033e-17 -0.0004273754 -0.0020179201 -0.0010792161 -0.00028539292 2.4065045e-12 -1.0072499e-08 -0.017939191
-5.5025122e-09 -4.4433416e-16 -1.8195966e-08 -1.3222612e-05 -1.8055372e-06 -1.1691846e-07 -4.204414e-08 -5.816903e-05
6.862458e-06 9.3305195e-09 2.0421097e-05 0.000117841744 6.7393856e-05 9.794537e-08 7.496539e-05 2.90817e-06
5.758065e-05 5.0002672e-11 3.2335595e-15 1.98058e-07 2.234259e-05 3.8632456e-10 2.5100275e-09 9.413937e-11
5.853878e-06 3.753235e-10 3.8118312e-08 2.9011106e-05 -0.013908556 5.0478647e-18 -0.0011551344 0.0019216466
1.5912579e-15 1.4592849e-05 -3.3557662e-10 0.00034291286 -8.582783e-18 -0.0045315325 1.8247711e-08 4.8747713e-19
2.4913222e-06 7.847203e-12 4.3941272e-06 -4.6756498e-11 3.8764413e-12 -2.6089942e-12 1.2990352e-12 6.2945753e-07
0.0009214131 2.0624112e-14 1.147657e-09 7.011816e-08 4.4052513e-08 1.12896e-06 5.7958638e-05 3.6848766e-07
-2.0226616e-17 0.00017285222 -0.00037302243 0.00040236246 0.00018702126 1.8730083e-12 5.3724545e-09 -0.012577735
6.315225e-11 2.762725e-16 1.1101082e-08 1.3835128e-05 1.1241272e-06 6.696931e-08 2.3017822e-08 3.8552596e-05
-1.2131962e-05 -2.7273853e-08 -7.118698e-05 0.0019095436 -0.0008576129 -1.4283601e-06 -0.00016059178 -1.1882692e-05
-0.00019122346 -8.8018585e-11 -7.566144e-15 -3.054194e-07 -6.678112e-05 -6.706275e-10 -3.6465032e-08 -1.2577064e-10
-1.0537951e-05 -3.1592065e-09 -8.098656e-08 -0.000107158485 0.021021778 -2.0566132e-17 -0.001270898 0.009392182
-4.0471573e-15 -8.277657e-05 -4.1040784e-09 0.019140255 -3.3022615e-17 0.0012143446 -1.4486115e-08 -4.6910746e-19
-6.175335e-06 -1.8089622e-11 -9.971189e-06 -6.145297e-11 -1.3199947e-10 -5.1630516e-11 -1.0074062e-11 -2.4691765e-06
-0.0007544529 -6.326689e-14 -3.800063e-09 -2.355825e-06 -1.2989156e-07 -3.5371222e-06 -9.226641e-05 -7.048928e-07
-8.334702e-17 -0.0003404651 -0.0015988632 -0.0004931269 -0.0003453485 -4.974715e-12 -6.6244916e-09 -0.017453913
-6.405538e-09 -1.4600552e-16 -3.414046e-08 -1.2487185e-05 -1.9900576e-06 -2.3329672e-07 -6.8804034e-08 -6.339642e-05

linear_layers.3.bias f4 [4]
00000000: 7de6 d53b c124 513b 4915 9a3b 98bc 853b
0.0065277205 0.0031912776 0.0047022444 0.00408132
