models/model_1728763229025/model_1728763229025\model.pth (torch, 275722 bytes, 32 tensors)

conv_layers.0.0.conv.weight f4 [16, 2, 3, 3]
000000 25 d8 45 3e 6b e0 60 3d 08 50 8e 3e 97 7a 40 3e
       0.19320734 0.05490152 0.27795434 0.18796764
000010 a2 45 b1 be f5 6f bc 3d 05 0e 46 3e 86 62 19 be
       -0.34623438 0.092010416 0.19341286 -0.1497899
000020 74 93 88 bc 1e 1e cd bd db e6 7c bc 39 0c 38 bf
       -0.016671874 -0.1001551 -0.0154359 -0.7189365
000030 01 99 8b be 14 00 27 bf 72 f6 fc be ff 60 ca be
       -0.2726517 -0.65234494 -0.49406773 -0.39527127
000040 09 eb e6 3d 21 67 5b 3d 89 b9 f4 3d d5 f8 4a 39
       0.11275298 0.05356515 0.119494505 0.00019356918
000050 4b d2 f7 3d 9f 24 90 3c bd 51 d7 3c e5 3a aa bc
       0.12100657 0.017595587 0.026284093 -0.020780036
000060 6e 17 43 3d 0a 09 d8 bd f6 b2 48 3d d2 d6 93 3e
       0.047629766 -0.10548599 0.048998795 0.28874832
000070 94 2b 2f 3e 00 77 42 3e e3 f8 30 3e 87 c3 a3 3d
       0.17106467 0.18990707 0.17282443 0.07996278
000080 13 4c f2 3d 05 d6 67 bf 7a 12 63 bf 00 4e b4 3d
       0.11830916 -0.9056094 -0.8870007 0.0880394
000090 03 5f 0b 3d 9e 3c a6 3d 05 47 78 3d f9 50 b2 bd
       0.034026157 0.081170306 0.060614605 -0.087068506
0000a0 09 c7 58 3d c2 ad ab bc 22 2c 54 3d 03 ce 9e 3d
       0.05292419 -0.020956878 0.0517999 0.07754137
0000b0 26 50 e6 3d ea e8 16 3e ee 14 ea be f9 50 3e 3e
       0.11245756 0.14737287 -0.45719093 0.18585576
0000c0 e6 70 1f 3d da 14 40 bf c3 40 32 bf 83 f7 50 be
       0.038926028 -0.75031817 -0.6963007 -0.20406918
0000d0 77 0f 19 bf f5 ba 16 bf 28 d0 25 be 91 5a 20 be
       -0.5978922 -0.58879024 -0.16192687 -0.15659548
0000e0 ed b6 e8 bd 1f 77 35 3d 5d 70 dc bc 2b 23 1e bd
       -0.11363015 0.044303056 -0.026909048 -0.038607758
0000f0 df aa f1 3c b5 8a 35 3d b1 ec 9e bc 4d 67 12 bf
       0.029500423 0.044321734 -0.019399973 -0.57188874
000100 57 cf 49 bf 90 ff 4c bf bb 8d 15 3e 82 bb 36 bd
       -0.78832 -0.8007746 0.14604847 -0.044612415
000110 96 ae fb be 02 e4 91 3e 22 5b 22 bd 3b 2a 41 3e
       -0.49156636 0.2849427 -0.039637692 0.18863766
000120 c4 03 14 3f ed 66 e4 3e 44 7b 92 3f df 00 b7 3c
       0.57818246 0.44609776 1.1443868 0.022339283
000130 eb f7 06 3e 04 74 98 3e 53 7a be 3d 46 28 89 3e
       0.1318051 0.29776013 0.09300675 0.2678854
000140 82 7c ea 3e 7d 43 8b 3d 4f 70 8c bc e6 f1 24 3e
       0.45798117 0.06799982 -0.017143397 0.16107902
000150 0f 78 7d 3c 9f 5a 77 bc 09 4a 07 3d 0e fa 62 3e
       0.015470519 -0.015097289 0.03302959 0.22165701
000160 be fa 7d 3c f5 65 76 3e 7c 71 e5 bd 92 96 6b be
       0.015501676 0.24062331 -0.11203286 -0.23006657
000170 8d 78 1e be 84 19 e3 be a8 40 09 bf bd ec 87 be
       -0.15475674 -0.44355404 -0.5361428 -0.26547804
000180 6b 6e 17 3f 45 da c5 3e 34 d4 22 3f e9 e3 cc bd
       0.5915286 0.3864309 0.63605046 -0.10004408
000190 5c ac 84 be 57 35 98 3d 0b 06 11 bd 54 10 24 bc
       -0.2591275 0.07432049 -0.035406154 -0.010013659
0001a0 5b ec 96 bb ea 81 85 bc 97 d8 97 3a d5 fd 2e bc
       -0.0046058125 -0.0162973 0.0011584935 -0.010680635
0001b0 49 f5 48 3e a1 f3 1a be cd 03 7e be 13 62 19 3f
       0.19624819 -0.15132 -0.24806137 0.59915274
0001c0 69 52 2a 3e f6 11 33 bd b1 54 1f 3f af a1 63 be
       0.16633 -0.0437183 0.62238604 -0.22229646
0001d0 07 6a 02 be a8 57 97 3e 4f e6 9f 3c 54 16 c2 3d
       -0.12735759 0.29559064 0.019519 0.09476915
0001e0 83 50 42 bc 15 6b f2 3d c7 01 55 3c 4c f7 f3 bd
       -0.011860016 0.118368305 0.013000912 -0.119124025
0001f0 a8 e3 b0 be fc 86 45 be d0 b8 20 be be a8 bf 3c
       -0.34548688 -0.19289774 -0.156955 0.023395892
000200 aa 91 98 3d 72 f6 88 3c 87 c7 e8 3d 99 62 db 3d
       0.07449658 0.016719077 0.11366182 0.107121654
000210 73 10 6e bd 1a bb 63 3c 9a 2e fd 3c 37 da 41 bf
       -0.058121156 0.013899589 0.03090601 -0.75723594
000220 37 f9 44 bf 3b f4 15 3c 3b e4 88 be ef f1 ff 3d
       -0.7694277 0.009152467 -0.26736626 0.12497317
000230 01 81 f8 3d 33 e5 55 bf 2d 55 20 bf 5b 25 6e 3d
       0.121339805 -0.83552855 -0.6262997 0.058141094
000240 f0 56 4f be 9a aa b4 3c da 77 d5 3c 24 5c 93 3d
       -0.20248008 0.022054005 0.026058126 0.07195309
000250 17 bc 2b bb 1e cf 07 3c bc b3 1d 3d 1c 44 2c 3c
       -0.002620464 0.008289127 0.038501486 0.010514285
000260 42 51 2c 3d 0f 39 b3 be 4a 21 0d bf 35 4b 06 bf
       0.04206968 -0.3500447 -0.5512892 -0.52458507
000270 97 61 ae be db 3d b3 be 7c 00 c8 be 34 ba 86 be
       -0.3405883 -0.3500813 -0.3906287 -0.26313937
000280 d0 88 9f be 94 1d ae be c4 da ca be 9e d5 19 bf
       -0.31159067 -0.3400694 -0.3962003 -0.6009158
000290 f2 5f df be 9c 39 c3 3c 7f a9 05 3e f2 70 55 3e
       -0.43627888 0.023831181 0.13052939 0.20843866
0002a0 f1 4d f4 be a4 a3 d4 be 70 e9 70 be 7b a8 8f 3d
       -0.47715715 -0.41531098 -0.2352655 0.07014557
0002b0 62 ba d0 3d a6 2f 90 3c d3 15 f8 be c9 16 0c bf
       0.101918 0.017600846 -0.4845415 -0.5472227
0002c0 49 be 02 bf 23 e0 e7 3d fa fa f8 3d ef c4 04 3e
       -0.510716 0.113220476 0.12157245 0.12965749
0002d0 1d 50 4a bf c2 d1 67 3e 49 cb 1f be 19 55 d2 bd
       -0.79028493 0.2263861 -0.15604891 -0.10270137
0002e0 7f a2 a1 3e 80 bf 24 3d 4f 2c 15 bf b8 1b 6b 3e
       0.31569287 0.04022169 -0.58270735 0.22959793
0002f0 e3 3e f6 bc 2d f1 32 bd f3 f1 58 3d b8 87 17 bf
       -0.030059284 -0.043687034 0.052965116 -0.59191465
000300 5a f8 75 3d e0 07 36 3d c8 41 82 be 4f 8a 83 be
       0.0600513 0.044441104 -0.25440812 -0.2569146
000310 ec 1d 97 3d 8b 39 64 be a7 cb 06 3f f1 2a 36 3e
       0.07378754 -0.22287576 0.526545 0.17789818
000320 1a 08 68 3e 91 c2 d1 3e 31 70 b3 bd 8b 94 88 3e
       0.2265934 0.40968755 -0.08761633 0.2667583
000330 bd b4 b0 3c 59 d3 c0 3e 8c 8a 82 bd a3 61 60 3e
       0.021570558 0.37661245 -0.06374082 0.21912245
000340 34 7c 90 3e 9a b7 8e 3e 2d 61 b7 bd 5b c4 cc be
       0.2821976 0.27874452 -0.08954082 -0.39993557
000350 ba 6f 56 be 1d 41 8a 3e eb dc 97 3e 38 99 61 3e
       -0.20941058 0.27002802 0.29660735 0.22031105
000360 89 7b 66 3d d2 91 0f 3e d7 76 1d 3d 2a 4c 6c 3d
       0.056270156 0.1402047 0.038443413 0.057689823
000370 90 f6 3d 3d 8f bb 9b bc 0a dd bf 3d fc 15 98 3d
       0.04637772 -0.019010333 0.09368332 0.07426068
000380 a9 6b 26 3d 86 b7 f3 be a4 39 06 3f a4 5b 02 be
       0.040630016 -0.47600955 0.524317 -0.1273027
000390 49 4b 07 bf ab 35 ca be 38 a5 e9 3d 68 79 d8 bd
       -0.5284925 -0.3949407 0.11408466 -0.105700314
0003a0 98 9b 1a 3f c2 77 14 be 38 22 07 bf c5 03 04 bf
       0.6039367 -0.14498809 -0.5278659 -0.5156825
0003b0 da 19 68 3e ce 87 3b bf 40 85 0e bf 48 be 16 bf
       0.22666112 -0.73254097 -0.55672073 -0.58884096
0003c0 9c 29 16 bf fa 48 51 bf 4f f1 df be 5a c6 93 3c
       -0.5865724 -0.8175198 -0.4373879 0.018038917
0003d0 e2 50 75 3d 7f 0f 99 3d 7b 3f 5c bd 8c 7d 22 bd
       0.05989159 0.07473659 -0.053771477 -0.039670512
0003e0 63 62 24 bd 7f bb cf 3c 06 2a fd 3c d0 41 b1 3c
       -0.04013289 0.02535796 0.030903827 0.021637827
0003f0 6d 72 6a be ff 65 0d bf fe b5 e7 be a6 66 4b bf
       -0.22895212 -0.5523376 -0.45256037 -0.79453504

conv_layers.0.1.weight f4 [16]
000000 b9 a5 71 3f 80 5e ed 3e 6f fd 7c 3f b8 3a 4d 3f
       0.943935 0.4636116 0.9882421 0.8016772
000010 f0 c9 a2 3e f7 e7 c7 3e 64 75 71 3e 48 53 8c 3f
       0.3179469 0.39044163 0.23579937 1.0962915
000020 32 68 06 3f 72 7c 68 3f e9 97 1b 3f d6 be 9d 3e
       0.5250274 0.9081489 0.6077867 0.3080966
000030 66 bf c2 3e 52 5c 4f 3f 4f c1 54 3f e5 e2 17 3f
       0.3803665 0.81000245 0.83107466 0.5933059

conv_layers.0.1.bias f4 [16]
000000 ea 10 1d be b0 23 57 be 00 e6 36 bd 89 e4 4f 3d
       -0.15338483 -0.21009707 -0.04465294 0.050755057
000010 64 66 f2 3d 56 ba b4 bd 7c 95 07 3e c5 d4 4c bd
       0.11835936 -0.08824603 0.13240618 -0.0500076
000020 bf 56 7e 3e 4a 77 98 bd 38 19 27 be 46 df 11 c0
       0.24837779 -0.074446276 -0.16318214 -2.2792525
000030 19 90 83 be b6 be c7 3d 98 03 2d be a7 49 4d bb
       -0.25695875 0.09753172 -0.16895902 -0.0031324418

conv_layers.0.1.running_mean f4 [16]
000000 08 92 17 bb e8 18 0b ba 91 b2 38 bb e3 cf 1b bb
       -0.0023127813 -0.00053061405 -0.0028182606 -0.0023775033
000010 b2 aa 25 3b 6b 7e de b9 e8 0e 92 39 cd 7e 3e bb
       0.0025278744 -0.00042437328 0.00027858396 -0.0029067278
000020 c3 df 64 bb 43 05 0d bb cf 75 d1 ba 07 08 f3 3a
       -0.0034923411 -0.0021518029 -0.0015980544 0.0018541821
000030 a4 6b 8c b9 86 d0 13 bb 1e 50 f4 ba f7 9f aa ba
       -0.0002678308 -0.002255471 -0.00186396 -0.0013017644

conv_layers.0.1.running_var f4 [16]
000000 64 58 c1 39 4d 5a d3 39 d8 a0 06 3a aa e7 06 3a
       0.00036877685 0.00040312335 0.0005135662 0.0005146215
000010 3e aa 7f 39 dc 03 08 39 72 7d 06 39 79 54 17 3a
       0.00024382115 0.00012971408 0.00012825968 0.000577278
000020 6c be d6 39 c1 46 9e 39 4b e6 5d 39 67 13 62 39
       0.00040959136 0.00030188824 0.00021161993 0.00021560267
000030 8e 65 8c 39 e2 7f 81 39 a2 02 6a 39 9d bd 22 39
       0.00026778545 0.00024700077 0.0002231696 0.0001552016

conv_layers.2.0.conv.weight f4 [32, 16, 3, 3]
000000 9a 68 b0 3d 30 40 ad bb cc 28 ba 3d d9 cf 80 3e
       0.08613701 -0.0052871928 0.09089813 0.25158575
000010 3e 93 6b 3d 5e 43 72 3d 39 8d e4 3d 26 6c aa bd
       0.057513468 0.059146278 0.111597486 -0.08321409
000020 cb 0c 42 3e 98 9d 38 3e ad eb 2f 3e 3e ae 90 3d
       0.18950193 0.18028867 0.17179747 0.07064484
000030 f3 b2 0d bd 35 b5 4c be d7 89 cd bd a5 1d 29 be
       -0.034594487 -0.19991 -0.100360565 -0.16515215
000040 83 ea af be 04 d3 a0 be d1 76 b2 bc cf 87 10 3e
       -0.34358606 -0.31410992 -0.021785172 0.14114307
000050 16 f4 9f 3e c4 5f 8f 3c e0 72 99 3e 43 40 71 3d
       0.3124091 0.01750172 0.29970455 0.058899175
000060 d2 65 d3 bb 6a d6 7e 3c 4f d0 e1 3c 1f 85 04 3e
       -0.006451347 0.01555405 0.02756515 0.12941407
000070 25 c6 98 3e 4b 79 b4 bc 70 d6 7c 3d 9e bc 28 be
       0.29838672 -0.022030493 0.06172794 -0.16478202
000080 9c 66 f1 3b 4b eb 53 be 7a ac 6a 3c 77 bc a9 bd
       0.0073669683 -0.20695226 0.014323348 -0.082879
000090 e5 cb ec be c9 5e 39 bf 4a c2 ea bc ba 84 92 bd
       -0.4624931 -0.72410256 -0.028657097 -0.07154222
0000a0 0b bd 3a be 80 ab f6 be d2 42 2e 3e f9 70 85 3d
       -0.18236177 -0.4817772 0.17017677 0.065156884
0000b0 e3 af 5e 3e a9 76 44 3e 43 0f 46 3e c3 c7 4c 3e
       0.21746783 0.1918589 0.1934176 0.19998078
0000c0 8e df ad 3d de 87 96 3e c1 a5 b9 3e 14 e1 45 3e
       0.08489905 0.29400533 0.36259273 0.19324142
0000d0 30 2c 4b bc 5a a7 47 3e 42 8a 4a bd 6a 86 ac bd
       -0.012400672 0.19497433 -0.04944826 -0.08424075
0000e0 da f1 af be bf 24 3e bd 8b eb 01 be 9a 8a 7d 3d
       -0.34364206 -0.046421763 -0.12687509 0.06189976
0000f0 f7 80 fd 3d f7 bc 58 bd 24 39 5d be 38 3e b1 3e
       0.12378114 -0.052914586 -0.21603829 0.34617782
000100 fe d7 8b 3e d0 48 71 3e 88 62 05 be 15 9f 8a 3e
       0.27313226 0.23562932 -0.13025868 0.27074495
000110 98 30 cc 3c fc d3 43 be 74 35 46 3e 4b 35 17 3e
       0.024925515 -0.19123834 0.19356328 0.14766423
000120 18 c3 1d 3b b5 cf 19 be 18 d8 75 be b1 1c 4e 3c
       0.0024072584 -0.1502064 -0.24008214 0.012580083
000130 2d 8e be bd e7 af 18 bb 13 1c 59 be f7 d3 25 be
       -0.09304462 -0.0023298205 -0.21202116 -0.1619414
000140 0a cb 20 bd 28 99 39 bd 67 92 83 3e 4f 06 90 3e
       -0.039256133 -0.045312077 0.25697634 0.28129813
000150 09 70 ab 3e 40 a7 60 3e 25 76 4b 3e bb ec 7a 3d
       0.33483914 0.21938801 0.19869287 0.06126092
000160 7a 4a 2b be 1e 3d 84 3d 68 46 31 3d 4c 0d 4c 3d
       -0.1672763 0.0645697 0.043280035 0.04981737
000170 59 36 3b 3e 02 a9 9b bd 6a 29 97 3d 48 1e 7d 3c
       0.1828245 -0.07600595 0.07380946 0.015449114
000180 e4 83 14 be 56 5f 23 bd 24 fe c8 bd 55 80 bf bd
       -0.14503437 -0.03988584 -0.098140985 -0.09350649
000190 fb 39 34 3b 02 25 94 bb 24 c5 15 be 40 9b 36 be
       0.002750038 -0.0045210132 -0.14625984 -0.1783266
0001a0 3f 00 25 bd 0d 7e 24 be 56 48 bf 3c 7b 14 bb 3d
       -0.040283438 -0.1606371 0.023349922 0.09134766
0001b0 95 a3 9e 3d 18 64 ce bd 4a ee 16 be a2 65 71 3d
       0.077460445 -0.10077685 -0.14739338 0.058934815
0001c0 d4 2c 2a be 61 d5 b6 bc 77 da 4e be 85 3e c6 bd
       -0.16618663 -0.022318544 -0.20200525 -0.096798934
0001d0 88 03 be bd 04 a5 0c 3d 76 f1 31 3e a7 a7 cf 3e
       -0.09278017 0.03433706 0.17377266 0.40557596
0001e0 29 c2 b3 be 82 3e 06 bd 47 e4 05 3c ec 76 f4 3d
       -0.3510907 -0.032774456 0.008172101 0.11936745
0001f0 f5 0e bd 3d 96 50 37 3d ef 47 03 3f 42 2c a3 3e
       0.092313685 0.044754587 0.51281637 0.31869704
000200 ea cc a9 3b ae 23 32 be 92 af 51 bd 49 b1 92 bd
       0.0051818984 -0.17396423 -0.051192828 -0.07162721
000210 34 32 e0 be f5 76 74 be c0 cc 9e bb 99 6d 8d 3e
       -0.43788302 -0.23873504 -0.0048461854 0.2762268
000220 a1 6b 0c 3e 1f f7 0a 3e 96 d4 39 3e bd 4f be 3d
       0.13712932 0.13570832 0.18147501 0.092925526
000230 39 08 8f 3e b0 73 cc 3d 8c 20 9b 3e 34 dc 99 3e
       0.2793596 0.09983003 0.3029827 0.30050814
000240 46 5c 68 bd d2 d5 4a 3d 64 38 e0 bc 61 7d bb 3d
       -0.056728624 0.04952032 -0.02737064 0.091547735
000250 d6 90 bf 3d 2b 6f 1f 3e c2 ae 92 3e c5 e3 8b 3e
       0.09353797 0.15569751 0.28648955 0.27322212
000260 79 c7 a6 3d f4 0f 24 3d 24 02 e2 bc ae b5 d8 bd
       0.08143515 0.040054277 -0.027588911 -0.10581528
000270 dc 6b 60 3e ee ff 0c 3e b4 b2 71 3e 8e 13 cb bc
       0.21916145 0.13769504 0.23603326 -0.024789598
000280 ee 5a 6a 3e d1 56 35 3e 65 db 63 be 70 24 04 be
       0.2288625 0.17708899 -0.22251661 -0.12904525
000290 40 92 da 3c 9a 18 48 be 26 e1 28 be 32 f3 5f bd
       0.026681066 -0.19540635 -0.16492137 -0.05467529
0002a0 9c 96 47 bd 1a fd 4f 3b df 9c bb ba 08 e3 e2 3d
       -0.048727617 0.0031736554 -0.0014313719 0.11078459
0002b0 c6 f5 27 bd fc 3a c4 3d c6 84 44 bd ee 7b 60 bc
       -0.041005872 0.09581563 -0.047978185 -0.013701422
0002c0 f8 9e 7f 3d fd 9d 9c be 78 3a a1 be f4 d4 b0 bc
       0.062407464 -0.30589285 -0.3148992 -0.021585919
0002d0 19 0b 72 be 83 77 02 3f fc 8c b0 be 74 52 4e 3e
       -0.23637046 0.5096361 -0.34482563 0.20148641
0002e0 51 4f 07 3e 8a ba 9b 3e d2 2a 5f 3e 4a 92 b8 3e
       0.1321385 0.30415756 0.21793678 0.3604911
0002f0 80 7e a0 3e 07 9e e8 3e 82 9c da 3e 27 f2 b8 3e
       0.31346512 0.45433065 0.4269753 0.36122248
000300 35 5d eb 3d fa 73 c4 3d 56 a3 ec 3e e2 7d 27 3e
       0.11492387 0.09592433 0.46218365 0.16356614
000310 ca 03 b3 3e 45 b2 0a bf cf c8 4a 3d e9 22 e9 3d
       0.34963828 -0.5417827 0.049507912 0.11383612
000320 9e d7 6e 3c bf 01 8d 3c e3 4c a3 3c ee d4 4b 3d
       0.014577774 0.017212747 0.019934123 0.049763612
000330 c8 a0 27 3e a2 a6 93 bd 26 07 e6 bd e7 9f ba 3d
       0.16369927 -0.07209517 -0.11231832 0.0911253
000340 30 d5 df 3c f5 77 b0 bc c8 2a cf 3c e4 84 f7 bd
       0.027323335 -0.021541575 0.025288954 -0.12085894
000350 9f 45 10 3e 71 86 82 3c ef 0e 24 3d 23 29 96 3d
       0.14089058 0.015933247 0.040053304 0.07332065
000360 de 29 ff 3d 5c 04 5b 3c b2 7b 9c 3d f1 c2 e0 bc
       0.124591574 0.013367739 0.076407805 -0.027436705
000370 79 0c 7e bd bb 56 25 be bc 8f 10 be e7 69 31 bd
       -0.062023614 -0.16146366 -0.1411733 -0.043313887
000380 20 fb 1f be 5a e0 c1 bd 05 97 a3 bd d5 9e 04 3e
       -0.1562314 -0.0946662 -0.07987789 0.12951215
000390 c4 f1 cc bd 9f 3f 0b 3d 2f 09 ab 3d 38 31 94 3d
       -0.10007051 0.03399622 0.08351361 0.0723595
0003a0 95 3f ae bc d8 e6 98 3c a0 3d a3 3c a8 6a 98 3e
       -0.021270553 0.018664762 0.019926846 0.29768872
0003b0 b8 50 9c bd 1f 99 34 be 14 c7 10 3d ea 8a 8f bc
       -0.076325834 -0.17636536 0.035346106 -0.017522294
0003c0 57 65 19 3e 27 70 33 3d c7 2a 24 3d c5 65 87 3d
       0.14980064 0.04380813 0.04007986 0.06611208
0003d0 bf d7 9f 3c cd 7a 17 3d 5a 2b af bd 1f 6d 40 bd
       0.019512055 0.036982346 -0.085531905 -0.046979066
0003e0 3b 80 73 be f5 4c 23 bd 45 1f c9 bd f7 0c 18 3c
       -0.23779385 -0.039868314 -0.09820417 0.009280435
0003f0 cc 53 02 3e 49 8d 12 3e 9d d1 d5 3c f0 98 26 bd
       0.12727278 0.14311709 0.026100928 -0.040673196

conv_layers.2.1.weight f4 [32]
000000 3e d6 36 3f 7e 24 20 40 9b 39 64 3f 43 cf d3 3f
       0.7142066 2.5022273 0.891504 1.6547626
000010 73 a4 14 3f 81 07 b5 3f 61 54 22 3f a6 74 23 3f
       0.5806343 1.4142915 0.6341 0.63849866
000020 65 73 aa 3e 58 57 45 3f e9 8b 0d 3f f2 64 3d 3f
       0.33291164 0.770864 0.5529161 0.73982155
000030 e5 eb 80 3f 7d 2a 7f 3f 1d 2b 20 3f 2f c0 84 3f
       1.0071989 0.99674207 0.62565786 1.037115
000040 a1 8c 9b 3f 61 9c 45 3f 0c 07 34 3f d3 a0 bf 3e
       1.2152292 0.7719174 0.7032325 0.37427387
000050 73 b7 86 3e e6 4b 43 3f 36 db 6e 3f 4e 39 2b 3f
       0.26311836 0.76287687 0.9330324 0.66884315
000060 30 6e a5 3e 02 3c b3 3f 24 40 d3 3f b3 37 59 3f
       0.3231063 1.4002688 1.6503949 0.84850615
000070 ed d2 4e 3f ed 37 5a 3f 05 80 4d 3f 09 36 83 3f
       0.807906 0.85241586 0.8027347 1.0250865

conv_layers.2.1.bias f4 [32]
000000 54 3b 01 3f cb 01 7f 3e 1d 8f 45 3e ed b3 11 3f
       0.5048115 0.24903028 0.19292875 0.5691517
000010 88 cd 92 3d 54 c9 56 3e bd bd d8 3c 9c 1b 02 3e
       0.07168108 0.20975238 0.026457662 0.12705845
000020 b4 a6 06 be e9 b9 05 be de de 3f 3e da bf 70 be
       -0.1314953 -0.130592 0.18737361 -0.23510686
000030 a4 e5 28 be d9 87 be 3e 73 d1 92 be 15 4d 99 3e
       -0.16493851 0.3721302 -0.28675422 0.2994162
000040 f6 2a a2 3d 15 83 9b be 4e cc 8b 3d 91 8e 35 bf
       0.079183504 -0.30373445 0.068260774 -0.70920664
000050 69 45 21 be d1 df 8b 3e be 88 0b 39 ff 55 f4 bd
       -0.15749134 0.27319196 0.00013307013 -0.11930465
000060 4e 7a 92 be f6 11 d4 3e f6 c7 6b be 53 61 a7 3d
       -0.28608936 0.41419953 -0.23025498 0.0817286
000070 77 7c 7a bc 94 57 69 3d 83 2d f9 3d bd f7 28 3e
       -0.015288464 0.056968287 0.12166884 0.16500755

conv_layers.2.1.running_mean f4 [32]
000000 6e 86 94 3c 1d 78 39 bd 25 9e 8e bd 92 06 4d bc
       0.018130507 -0.045280565 -0.069637574 -0.0125137735
000010 3c 1b 6d bb 90 f9 c6 bd 6f 1e 9f bd 4c 06 0c bd
       -0.0036179563 -0.09715569 -0.077694766 -0.034185693
000020 29 33 7a be c3 91 e8 bd 82 f2 12 bd ce c9 25 be
       -0.24433579 -0.11355927 -0.035875805 -0.16190264
000030 c5 dc 65 be 14 e9 c9 bd ac 3e ce bd 03 78 57 bd
       -0.22447498 -0.09858909 -0.100705475 -0.052604686
000040 c1 83 01 bd f9 8e 44 bc 0a 3c 9c bd 49 1f b5 bf
       -0.03161979 -0.011996978 -0.07628639 -1.4150172
000050 74 6d 52 3d 5a 61 73 bd 49 bb fd bd 3c 8e d6 bd
       0.051373914 -0.059419014 -0.123892374 -0.10476348
000060 91 64 bb be 74 3e 96 bd f4 02 d4 bd b6 fc 1e bd
       -0.36600164 -0.07336131 -0.10352126 -0.038815223
000070 2f c6 91 bd 58 36 da bd b7 17 a6 bd 0b da ca bd
       -0.07117879 -0.106548965 -0.08109992 -0.0990487

conv_layers.2.1.running_var f4 [32]
000000 ac 48 25 3e 28 31 bf 3e 2b de 03 3e 1c 0f b5 3d
       0.16141003 0.3734219 0.12877719 0.088407725
000010 d6 25 11 3e 8b 91 8a 3e d4 35 f0 3d c6 7f af 3e
       0.1417459 0.27064165 0.11729017 0.3427717
000020 ee 15 97 3d ca 3d 3a 3e f7 de 2e 3e 7a ac 47 3e
       0.0737723 0.18187633 0.17077242 0.19499388
000030 12 b6 de 3e b2 8e cc 3e 3d 40 b9 3d 6f 30 a3 3e
       0.43498284 0.39952618 0.090454556 0.3187289
000040 a9 39 df 3d b0 2a 4a 3d f1 97 9b 3e 28 34 9e 3e
       0.1089967 0.049357116 0.3038936 0.30899167
000050 5d 06 c3 3d 28 b6 95 3e 98 45 49 3e f0 6d 13 3e
       0.09522698 0.29240537 0.19655454 0.14397407
000060 3f f0 0a 3e d7 09 fe 3e aa d0 b9 3d d2 2d 8a 3e
       0.13568209 0.49616882 0.09073003 0.26988083
000070 46 84 2b 3e 47 00 ca 3e a2 0c 6a 3e 2e 68 a6 3e
       0.16749677 0.39453337 0.22856382 0.32501358

conv_layers.3.conv1d.weight f4 [1, 1, 3]
000000 b6 70 74 c0 0a 2f 2a c0 50 8e 42 be
       -3.8193793 -2.659121 -0.189996

conv_layers.5.0.conv.weight f4 [32, 32, 3, 3]
000000 4a af 2d be 6d 9e 71 be c2 96 ea 3d ea be 15 be
       -0.16961399 -0.23595591 0.11454536 -0.14623609
000010 ee 60 2b 3e 9e 1b 96 3e b6 cf b4 3c bd 8b 26 bd
       0.16736194 0.29317945 0.0220717 -0.04066061
000020 d1 27 6b 3d 69 d0 e9 3d c9 b8 05 3e 14 d7 f3 3e
       0.05741102 0.11416704 0.13058771 0.4762503
000030 94 20 3d be 98 de 7e bd 82 2f 8a be d0 a1 c5 3d
       -0.18469459 -0.062224 -0.2698937 0.09650004
000040 ab 98 44 3d b2 5f 13 be 3b a6 d6 3e a2 4c 94 3e
       0.047997158 -0.14391974 0.419237 0.28964716
000050 28 8c d8 3e 84 13 db bc ea 6e 9e 3d 3e 2a 2d 3e
       0.4229443 -0.026742704 0.07735999 0.16910645
000060 99 69 a2 3d 5c 1b 1a bd 30 f8 80 3e 62 2d 6a be
       0.079302974 -0.03762375 0.25189352 -0.22868875
000070 56 ea 99 3e 41 7d 71 bc e0 a1 a4 bb e6 f2 91 3d
       0.30061597 -0.0147393355 -0.00502418 0.07126407
000080 1a 66 90 3d 5b a7 72 3e 68 28 51 3d f0 4d d7 be
       0.07050724 0.23696654 0.051063925 -0.4205165
000090 b6 f6 84 be 03 91 4f be 3e e2 4f 3e e1 57 a8 3d
       -0.25969476 -0.20270161 0.20301148 0.082198866
0000a0 a6 28 a5 3d ff 35 ba bd 17 2a fe 3c 39 1f 45 3e
       0.08064394 -0.0909233 0.03102593 0.19250192
0000b0 05 24 38 3c 21 2f 67 be 51 cf 53 3e 73 43 c2 3e
       0.0112390565 -0.22576572 0.20684554 0.37942085
0000c0 67 53 79 3c 5a 88 3c 3e a5 e8 52 be 90 48 a2 3c
       0.015217639 0.18411389 -0.2059656 0.019809991
0000d0 b9 49 37 3e 60 c1 7c bd 17 aa 66 bc 61 fb 04 bd
       0.17899217 -0.061707854 -0.0140786385 -0.032466296
0000e0 f7 e5 cc 3d c1 72 27 bd be 77 45 3e 9b 00 bb 3d
       0.100048 -0.040880922 0.1928396 0.09130975
0000f0 54 79 70 3d 73 f1 2f 3e 20 96 21 3e e0 c3 8a bd
       0.058709458 0.1718195 0.15779924 -0.067756414
000100 ef 12 35 bd 45 9f 5c be f4 2e e4 bd 8d f9 f3 bd
       -0.04420751 -0.21545132 -0.11141768 -0.119128324
000110 2a 78 25 be ce 16 08 be 3b cf 1e 3e 9a ae ed bd
       -0.1615912 -0.1328995 0.1550874 -0.11605568
000120 6e 80 bd 3c b1 49 68 be 67 d3 98 3c f6 84 a1 bb
       0.02313253 -0.22684361 0.018655492 -0.0049291803
000130 c7 c0 f7 bd 7f c2 49 3e 17 81 7e bd e2 65 5e 3d
       -0.12097316 0.197031 -0.06213483 0.05429638
000140 c9 83 1c 3e 63 1c a0 3d e2 bf a4 bd 24 58 51 3d
       0.15284647 0.07817914 -0.08044411 0.051109448
000150 55 e1 c9 3e ab a2 46 be 49 14 9b bd 92 77 8e 3d
       0.39429727 -0.1939799 -0.075722285 0.069564
000160 2f 4a 01 3e 03 4e cb 3e 88 65 7f bd 78 4d a3 3d
       0.12625955 0.39707956 -0.062352687 0.0797376
000170 6a d9 aa 3e 47 12 5f 3d c1 af 52 3d cb 47 c9 be
       0.33369 0.05446079 0.051437143 -0.39312586
000180 f6 1f d8 b8 7e 15 2a bd 87 2a e3 bc 99 d4 9e 3e
       -0.00010305636 -0.041524403 -0.02773024 0.31021574
000190 22 1c 22 3d 9a d0 dc bd 83 69 2e 3e e8 ee 71 bd
       0.03957761 -0.10781975 0.17032437 -0.05906573
0001a0 0c c6 03 be 78 a2 85 3e 8e a7 45 3d bc 0d a0 bd
       -0.12868518 0.26100516 0.048255496 -0.078151196
0001b0 38 19 5b 3e e4 59 18 be 15 16 3e 3e bf 11 81 bd
       0.21396339 -0.1487804 0.18563111 -0.06302213
0001c0 6c 07 58 be c9 40 28 be 55 ce 45 be a0 56 07 be
       -0.21096581 -0.16430964 -0.1931699 -0.13216639
0001d0 d3 1a db 3d b5 d1 8d 3e 55 83 a8 bd 35 d1 8e 3e
       0.10698476 0.27699056 -0.082281746 0.27893987
0001e0 96 9f b8 bd c2 5e 27 be 1d e4 2e be dc 8e 9c bd
       -0.090148136 -0.16344741 -0.17079206 -0.07644436
0001f0 ab c8 14 bd 14 57 33 3d fe 2d 98 3e db 36 e7 bd
       -0.036324184 0.043784216 0.2972259 -0.1128976
000200 dc 4e 8e 3e c5 dc b5 3d 8d 3f 33 3b 92 b6 ec bd
       0.2779454 0.08879999 0.0027351112 -0.1155826
000210 76 18 37 3c e9 e4 22 3c 23 a1 7c bd 24 29 4e 3e
       0.011175266 0.009942272 -0.06167711 0.20132881
000220 60 de b9 bd 50 cf 6c 3d 3c ee dd 3b cb 89 be 3d
       -0.09075618 0.057814896 0.0067727845 0.09303626
000230 99 db 6a be 2f 8d 63 3e 16 de 78 3e d7 40 1a 3d
       -0.22935332 0.22221826 0.24303469 0.037659492
000240 6c 46 1b 3e 2c b2 16 3c d7 8e bb be 9e 31 27 be
       0.15163583 0.009197753 -0.36632416 -0.16327521
000250 58 8f 93 3c 97 96 45 3e 82 13 42 3d 09 69 43 bd
       0.018012688 0.19295727 0.047381885 -0.04770759
000260 b4 86 21 be 20 0c 55 3e b5 26 39 3e f2 b1 b3 3e
       -0.15774041 0.20805407 0.18081172 0.350967
000270 f6 5f 34 3c 40 b0 fe 3c 48 ab d9 3c fd 39 a8 3d
       0.011009207 0.031089902 0.026570931 0.082141854
000280 96 16 bb 3d 79 39 a1 3d ed 13 19 bd c2 8d e8 3d
       0.09135167 0.0787229 -0.03737252 0.11355163
000290 2a 9a 57 3d 47 23 11 3e bc 2f 1b bd 19 82 df bc
       0.052637257 0.14173613 -0.03788732 -0.027283715
0002a0 8e 5e d5 3c a3 72 13 3d e6 b5 64 3e 8e 09 07 3d
       0.026046064 0.035997998 0.22335014 0.032968096
0002b0 52 ff 0c be 6a 77 32 3e 03 f6 6f bd 63 bd 8a 3d
       -0.13769272 0.17428365 -0.058584224 0.06774404
0002c0 76 9c 08 3d 1b 1a 45 bd c5 ab 5e bd 82 c2 31 3e
       0.033352338 -0.0481206 -0.05436303 0.17359355
0002d0 de 01 46 3e b5 4a e0 3e 96 50 99 bc 27 b3 e9 bd
       0.1933665 0.43806997 -0.018715184 -0.11411124
0002e0 46 40 18 bd fd 80 81 3b 63 5f 5f bd de 4c 6c 3e
       -0.03717067 0.003952144 -0.054534327 0.23076198
0002f0 37 00 81 3e 38 4c b1 3d 65 18 85 3d 7a d9 c4 3e
       0.25195476 0.08657116 0.064987935 0.3844717
000300 0a c1 0b bd fe ae 3a 3e b6 d9 c1 3d 14 6e bb bd
       -0.034119643 0.18230817 0.09465353 -0.09151855
000310 f0 71 82 3e f5 3d 2e be 38 c7 1e 3e 52 2c 82 be
       0.25477552 -0.17015822 0.15505683 -0.2542444
000320 4f 21 87 be e6 63 27 be 24 61 b8 3d e0 17 94 3e
       -0.263926 -0.16346702 0.09002903 0.28924465
000330 45 dc c0 bc 47 1e 5b be a9 d7 20 bc 97 77 c1 bd
       -0.023542533 -0.21398269 -0.009817042 -0.09446638
000340 db d6 18 3e 49 98 13 be 2c c8 a8 3d ca 51 30 bd
       0.14925711 -0.14413561 0.08241305 -0.04304675
000350 a6 f6 9a bd 4a e4 8a 3c 5c 40 4e 3e 2b 27 86 be
       -0.07566576 0.01695456 0.20141739 -0.26201758
000360 71 56 52 3d ad fe 8b 3d 85 f3 ba bd dc ab 47 be
       0.05135197 0.06835685 -0.09128479 -0.19499153
000370 70 49 10 3e 71 4e 8c 3e 36 f9 a6 3c 1b e2 80 3d
       0.14090514 0.27403596 0.020382505 0.06293126
000380 2e 10 a6 bc 15 03 5a be fb c8 50 3e 23 cb f2 bd
       -0.020271387 -0.21290238 0.20389168 -0.118551515
000390 34 69 fd bd 40 38 0f 3d 4c dc 70 bd 9f 6f d9 bd
       -0.123735815 0.034965754 -0.05880384 -0.10616993
0003a0 d9 60 12 3d c3 34 b2 be 37 a4 4d 3e 8c c7 4d 3e
       0.035736892 -0.3480588 0.20082174 0.20095652
0003b0 30 f8 c2 3d 77 23 a2 3d 42 04 af 3d 47 ef 6a 3d
       0.09519994 0.07916921 0.08545734 0.0573571
0003c0 2a a2 b7 3d 16 77 96 3d 62 c6 2c 3d 92 de 58 3e
       0.08966477 0.073469326 0.04218138 0.21178654
0003d0 b5 03 d8 3d 8c 3f e3 3d 68 cf 32 be 9f a5 46 be
       0.10547582 0.11096105 -0.17461932 -0.19399117
0003e0 54 e2 4c bd 28 8d 3e be 54 83 53 bd 41 1a 0a 3e
       -0.05002053 -0.18608534 -0.051638916 0.13486578
0003f0 e6 25 84 3d 05 fe 46 bd 71 ee 4b 3d 23 af 3e be
       0.06452541 -0.048582096 0.049787942 -0.18621497

conv_layers.5.1.weight f4 [32]
000000 0f 14 ba 3e e0 b8 16 3f 5f fe fa 3e 66 03 2d 3f
       0.36343428 0.58875847 0.49022195 0.6758331
000010 64 36 15 3f 11 60 30 3f 76 cb 18 3f bb 32 2e 3f
       0.5828612 0.68896586 0.59685457 0.6804616
000020 26 9d f7 3e 62 c0 2a 3f ba 2a 2b 3f a7 bf 0c 3f
       0.48362082 0.666998 0.6686207 0.5497994
000030 37 9a 1d 3f ab 1e 2e 3f 9f 05 13 3f e0 c4 15 3f
       0.6156344 0.68015546 0.5743045 0.5850353
000040 3a 54 2d 3f 9e c3 19 3f e7 fd 00 3f 51 2b f9 3e
       0.67706645 0.60064113 0.50387424 0.4866586
000050 bd 72 d5 3e 55 b6 c0 3e 44 0f 02 3f 8d 4b 27 3f
       0.416891 0.37639108 0.50804543 0.65349656
000060 dd ae 0d 3f 50 51 27 3f c2 9e 36 3f 2c 04 13 3f
       0.55344945 0.6535845 0.71335995 0.5742824
000070 38 de c2 3e 12 c4 f6 3e 56 d2 c4 3e 54 c3 09 3f
       0.38060164 0.48196465 0.38441724 0.5381367

conv_layers.5.1.bias f4 [32]
000000 c6 64 cf be 7d 24 86 3c 39 29 6f 3e 28 1a 02 3e
       -0.40506572 0.01637482 0.23355569 0.1270529
000010 34 d8 6b bd a3 21 3f 3d 03 a4 17 bd f1 53 40 3f
       -0.057579234 0.046662938 -0.03702165 0.75128084
000020 d7 de b5 3e ee 0b 96 3c 6e e5 13 bf a8 98 08 be
       0.35521576 0.018316235 -0.57771957 -0.13339484
000030 c4 13 9f bd 82 2e 34 bd 1f a4 81 bd 0c fb 38 be
       -0.07767442 -0.043989666 -0.06330132 -0.18064517
000040 5f 45 a6 bd 20 42 38 3f 59 0b 63 3f 83 b1 ad be
       -0.081187 0.719759 0.8868919 -0.33924493
000050 1a 73 8b be 67 3f 65 bd a0 d1 1d be 20 d9 f3 be
       -0.27236253 -0.05596867 -0.15411997 -0.4762659
000060 78 3a 04 be 7c 67 97 bd c6 6f e2 3e d4 71 0f bf
       -0.12912929 -0.07392785 0.442259 -0.5603306
000070 65 62 c7 be a6 de e4 bd 9c e0 8d be 90 b8 3f be
       -0.38942257 -0.11175279 -0.27710426 -0.18722749

conv_layers.5.1.running_mean f4 [32]
000000 dd 26 3e 3e 98 9e f6 3b c0 1c e2 be e8 ab 0c be
       0.18569513 0.00752623 -0.4416256 -0.13737452
000010 6c d6 37 3d 6c 86 b2 3e 6d f9 ea bd f2 7b 26 be
       0.044882223 0.3486818 -0.114733554 -0.16258219
000020 f5 88 12 be d4 fc 29 be e3 7b 1e 3d b8 5d 2c be
       -0.14310057 -0.16600353 0.038692366 -0.16832626
000030 43 9e a6 be 0e 17 35 be c3 c6 14 3c 75 d4 cb 3d
       -0.3254262 -0.17684576 0.009080592 0.09952632
000040 3e ee 85 bd 50 4f 51 bc 55 87 5a be 54 d0 5c be
       -0.06539582 -0.012775257 -0.21340688 -0.21563846
000050 29 68 d5 be 2c a4 bb bd 64 95 76 3e ea 47 c6 be
       -0.4168103 -0.09162173 0.24080426 -0.3872674
000060 96 59 81 be 97 da 1e be 00 f2 ce bd b0 d6 0f bf
       -0.2526366 -0.15513073 -0.101047516 -0.5618696
000070 9e f3 33 3e 34 43 68 be 24 62 a1 bd 87 64 3d bd
       0.17573401 -0.22681886 -0.07880047 -0.04623845

conv_layers.5.1.running_var f4 [32]
000000 ea ea 7f 3c 0d e8 85 3c 92 84 bf 3c e3 cc ef 3c
       0.015619973 0.016346002 0.023378644 0.029272502
000010 45 a8 9d 3c d2 31 cf 3c 4e 02 bd 3c 77 e3 42 3d
       0.019245276 0.02529231 0.023072388 0.04758021
000020 c4 d7 9b 3c eb 89 eb 3c 6f a1 b8 3c 88 1e 8c 3c
       0.019023784 0.028752288 0.022537915 0.017104402
000030 31 0c 80 3c 79 81 c9 3c 76 3b a5 3c 5e b5 8f 3c
       0.015630813 0.02459787 0.020169955 0.017542537
000040 95 a4 e7 3c 21 23 21 3d 93 85 04 3d fe 90 83 3c
       0.028276721 0.039340142 0.03235395 0.016060349
000050 5c 4a 29 3c ca 23 9c 3c 0f 71 9c 3c b1 d5 6c 3c
       0.01033267 0.019060034 0.01909688 0.014455245
000060 02 8a 82 3c f9 48 b3 3c 37 e1 31 3d c2 97 87 3c
       0.015934948 0.021885382 0.043427672 0.016551856
000070 3c 0a be 3c 4b a9 66 3c 26 a8 28 3c 28 e5 5e 3c
       0.02319824 0.0140784485 0.010293996 0.01360444

conv_layers.6.0.conv.weight f4 [32, 32, 3, 3]
000000 b8 aa 4b 3d 7c d2 d0 3c d8 58 51 3e 64 97 d3 3d
       0.049723357 0.025490992 0.20444047 0.1033161
000010 fe b3 f2 3d 47 20 86 bb e6 d3 6e 3e f2 81 fe 3c
       0.11850737 -0.004093203 0.2332302 0.031067822
000020 81 40 bb 3d 53 88 94 bb a3 db 8b bd ef 83 41 3e
       0.091431625 -0.0045328527 -0.06829002 0.18897985
000030 c3 39 52 3d 05 f7 98 be 18 1b fa bd c6 00 6a 3c
       0.051324617 -0.2987596 -0.12212199 0.014282411
000040 2d 15 14 3e 73 3f 05 be 84 5e 62 3e bb f3 b0 be
       0.14461203 -0.13012485 0.22106367 -0.34560952
000050 d4 11 72 be a9 5b 3f be 76 d5 bf 3d 55 2b 97 3c
       -0.23639613 -0.1868731 0.09366886 0.01845328
000060 03 14 4e be 82 66 c8 bd fb fb 5a bd 00 f4 a7 bb
       -0.20124821 -0.09785177 -0.053462964 -0.0051255226
000070 d3 60 59 3c 07 c9 57 bc 54 3e 2c 3e 51 b1 be bd
       0.013267714 -0.013170487 0.16820651 -0.09311164
000080 e7 f2 94 3d 0e 7d d2 bd 6b 94 34 bd cb 42 b0 3e
       0.072728924 -0.102777585 -0.044086855 0.3442596
000090 a5 7f 1b 3d ec 6c 04 3e 35 63 98 bd 4b 95 ff 3d
       0.03796353 0.12932175 -0.07440797 0.12479647
0000a0 74 ff ef 3d 25 ce 3c bd 8e 6c 70 3c d9 73 5a bc
       0.11718646 -0.046095032 0.014674319 -0.013333284
0000b0 18 b3 8f be 6a bc 6d 3e 0b b6 15 3e 0e ea eb bd
       -0.28066325 0.23216406 0.14620225 -0.11519252
0000c0 f8 dd e0 bd 2c 40 08 be 0d a7 d2 3c f0 b1 0f be
       -0.10979837 -0.1330573 0.025714422 -0.14032722
0000d0 db 3b 02 bf 8f c1 2d 3c 93 b6 84 3d 2b 65 f3 3d
       -0.5087258 0.01060523 0.06480136 0.11884531
0000e0 59 a0 16 ba c7 51 58 bd a9 41 8f be 85 4a 5d 3e
       -0.00057459396 -0.052812364 -0.27979782 0.21610458
0000f0 33 1f 03 be 25 6d 67 bc 16 e3 54 3c 0c 7f 64 bc
       -0.1280487 -0.014125143 0.012993595 -0.013946306
000100 9e 70 df bc e4 d5 b6 b9 6e 10 5a 3e f4 99 95 3d
       -0.02727538 -0.00034873106 0.2129533 0.07304755
000110 24 b6 01 3e 6f 00 82 3e 95 e1 8e bd 5b 07 96 be
       0.12667137 0.25390956 -0.0697662 -0.29302487
000120 1f 91 2e 3e d0 fb 08 bd bb 4f e2 3d 44 90 81 3d
       0.17047547 -0.033443272 0.11050364 0.063263446
000130 0b da 12 be 6e 67 a6 3e 24 27 46 bd 1a 47 0d be
       -0.1434099 0.32500786 -0.04837717 -0.13796654
000140 9e db a4 3d 85 fb 2a 3b 66 50 65 3e 43 48 d7 3d
       0.08049701 0.0026089859 0.22393951 0.1051183
000150 21 74 e6 3d 72 5b 28 3e e7 81 ae 3c eb 3c e7 3d
       0.112526186 0.16441134 0.021302177 0.11290916
000160 12 5e b5 bd fb 16 69 3c 3a 1e 02 3c f5 82 df be
       -0.08855833 0.01422667 0.007941777 -0.436546
000170 d3 df ec 3d 47 23 c2 be 14 6e 20 3c f4 46 9f bd
       0.115661286 -0.3791754 0.00979187 -0.07777205
000180 f9 84 d0 bd b9 c2 a2 bd d7 19 38 be d0 88 12 3e
       -0.101816125 -0.07947297 -0.17978607 0.14310002
000190 aa 89 eb bd b5 12 43 be 49 c3 94 3d 05 bf 05 be
       -0.11500867 -0.19050105 0.0726381 -0.1306115
0001a0 ef 63 22 bd 33 fc 22 be 96 a3 77 3e 8d cf d8 3d
       -0.039646085 -0.15916519 0.24183497 0.10586462
0001b0 cb e0 e0 bd aa 9d f2 bc 36 41 d9 3c 3a 9a ad 3e
       -0.10980376 -0.029616196 0.026520353 0.33906728
0001c0 b3 d4 8d 3d 56 9a b1 be 3d 00 54 3d 81 f3 8c bd
       0.06925335 -0.3468806 0.05175804 -0.06882382
0001d0 c1 38 2a 3e 71 ab 3b 3d 6d 7a 4b 3c 85 fe 39 3d
       0.16623212 0.045817796 0.012419325 0.045408744
0001e0 d7 7b 8f 3d c8 70 8b 3d a5 a2 98 bd f9 48 c7 bd
       0.070060425 0.06808621 -0.07452897 -0.09730715
0001f0 1a 38 d4 3d a1 ed f7 bd e6 75 5a be 4c 42 a5 bb
       0.10362263 -0.12105871 -0.21334037 -0.0050433036
000200 aa 75 e1 bd 04 2b e7 bd 5c 7f 68 3e c5 3d 35 3e
       -0.11008771 -0.112875015 0.22704834 0.17699344
000210 0a 80 dc 3d 59 08 e3 be 1b 52 89 be b4 df 89 3e
       0.10766609 -0.44342306 -0.26820454 0.26928484
000220 62 8a 68 bd 7f 19 2c 3e be 99 94 bd 7b b1 6e 3e
       -0.056772597 0.16806601 -0.072558865 0.23309891
000230 95 71 3d bd 74 e8 0b 3e d1 28 df bd 4e 87 38 be
       -0.0462509 0.13662893 -0.10896457 -0.18020365
000240 10 92 12 3e 58 60 23 be 79 06 fe bb 4d 5e 11 3e
       0.14313531 -0.15954721 -0.0077522364 0.14196129
000250 97 78 bc bc d2 92 81 3d 63 a0 8d be d7 a1 ce be
       -0.02300672 0.06326832 -0.27661428 -0.4035785
000260 2d a6 d8 3e da 4b 31 3e 71 e1 b4 3d ba 2a 11 be
       0.42314282 0.17314091 0.08832062 -0.14176455
000270 ff 81 27 be f1 be 56 3e 8b a5 61 be ae 45 61 be
       -0.16358183 0.20971276 -0.22035806 -0.21999237
000280 2c 63 23 be 5b 0a e5 bd 18 98 3a 3d 0a 2a 28 3e
       -0.159558 -0.11183616 0.045555204 0.16422287
000290 5f 0b 0a 3d dc 22 1a be cd 5b fb 3d bc 3b 97 bd
       0.03370225 -0.1505236 0.12273369 -0.0738444
0002a0 d0 3c ca be 25 c3 2e bf 8c b9 96 3d 9f 76 f4 bc
       -0.3949952 -0.68266517 0.07359609 -0.02984172
0002b0 5d 05 d6 bc dc fd 2f be 3a cc b0 bd 5c 28 9e bd
       -0.026125604 -0.17186683 -0.08632703 -0.07722542
0002c0 4c d0 42 be cd 21 c7 3c d9 2a 78 bd 9a 87 5c 3e
       -0.19024771 0.02430811 -0.060587738 0.21536103
0002d0 20 c1 7e 3c e9 fa 82 3d 22 08 fd bc 8f 7e 0e 3e
       0.015548974 0.063955136 -0.030887667 0.13915466
0002e0 03 f5 86 3e 20 2e e3 bd 8a 4d a0 3e 7e 80 4f 3e
       0.26358804 -0.11092782 0.31309158 0.2026386
0002f0 2e 93 cc 3d de 3b 02 be 40 71 7f 3d fb f1 7a be
       0.0998901 -0.1271815 0.062363863 -0.2450637
000300 65 29 49 bd 3c 0f 95 3d a0 b5 0f bc 0d 1e fc 3e
       -0.049111743 0.07278296 -0.00877133 0.49241677
000310 89 7b e6 be 1a 1e 56 3e fc 97 b3 3d 18 e6 dd 3d
       -0.45016125 0.2090992 0.08769223 0.108349025
000320 6a 75 1f 3e 8e a0 e6 3c ff 08 90 bd 53 df 47 bd
       0.15572134 0.02815273 -0.07032966 -0.048796963
000330 32 53 77 3e 68 f8 87 3d d8 33 69 bd 82 11 e4 3d
       0.2415283 0.066391766 -0.056934208 0.11136152
000340 3e 75 3f 3d 63 ef 83 bd 9e 23 c7 bc c7 5c 19 be
       0.04674267 -0.06442144 -0.024308976 -0.14976798
000350 f2 36 29 bc 52 f3 b1 be 6d 02 83 be 41 6f 17 bc
       -0.010328041 -0.3475595 -0.25587788 -0.009242834
000360 df b8 95 be 64 22 70 bc fa 82 91 bd 38 3e 51 bd
       -0.29242608 -0.014656637 -0.0710506 -0.051084727
000370 20 ff 74 3d 7f 13 3e be a1 2d d7 3c ae 1e 07 be
       0.05981362 -0.18562125 0.026266875 -0.13195297
000380 b3 19 78 be ee 32 ac bd 74 5d ae 3d 89 0c 0f be
       -0.24228553 -0.084081516 0.085139185 -0.13969626
000390 f1 af 31 3e 03 b7 98 3d 77 03 9a 3d 65 60 8b bc
       0.17352273 0.07456782 0.07520192 -0.017013738
0003a0 74 9b a0 be 96 8c e4 bd f1 da 05 bd 8a 70 67 3e
       -0.313686 -0.11159627 -0.032679502 0.22601524
0003b0 c2 a7 48 3e 97 7e b9 bc be 1f 99 3c ca 9a 46 be
       0.19595245 -0.02264337 0.018691894 -0.19394985
0003c0 a2 09 1c be e8 3d 01 bf 81 a5 b6 be 04 98 23 be
       -0.1523805 -0.50485086 -0.35673144 -0.15975958
0003d0 05 0b a3 3d 0d 92 a5 be 34 92 d5 3c b9 45 e3 b9
       0.07961086 -0.3233799 0.026070692 -0.0004334876
0003e0 31 00 88 bd 55 66 63 be 3a a9 3b 3e 26 8c ff bd
       -0.066406615 -0.22207005 0.18326274 -0.12477903
0003f0 36 0a 05 be 8c 25 64 3d d0 d1 b2 bd a4 f9 a5 bd
       -0.12992176 0.05569987 -0.08731425 -0.08104256

conv_layers.6.1.weight f4 [32]
000000 cb 67 3d 3f 2e ce 10 3f 40 cc 82 3f ab 78 32 3f
       0.739865 0.56564605 1.0218582 0.69715375
000010 3c a2 32 3f fe b5 0a 3f 5b 4d 18 3f fb 4f 4b 3f
       0.697788 0.5418395 0.59493035 0.79418916
000020 bf 32 c1 3f ac c1 8b 3f de 74 9a 3f ab 14 83 3f
       1.5093611 1.0918479 1.2066915 1.0240682
000030 5e 8b 7b 3f 02 1b 3b 3f 16 4b 5e 3f f0 72 46 3f
       0.9825953 0.73088086 0.8683332 0.7751913
000040 8e 56 03 3f 29 1c 2b 3f 6b 2c 11 3f 36 b6 24 3f
       0.51303947 0.66839844 0.567084 0.6434053
000050 2f de 9a 3f 07 74 08 3f 44 40 31 3f ed c7 60 3f
       1.2099055 0.53302044 0.69238687 0.8780506
000060 9e 1f 60 3f b7 3d 50 3f 37 0f 32 3f 0c 07 03 40
       0.87548244 0.8134417 0.69554466 2.047305
000070 76 87 d4 3f 06 60 8a 3f 5c 36 3e 3f 22 83 5d 3f
       1.6603839 1.0810554 0.74301696 0.8652822

conv_layers.6.1.bias f4 [32]
000000 03 e5 e3 be b2 76 6b be ea ed 70 bf 3b d9 32 be
       -0.4451066 -0.22994497 -0.9411303 -0.1746568
000010 d8 64 5e be aa aa 52 be c2 9d 71 be 9f a0 b7 be
       -0.21718156 -0.20572916 -0.23595336 -0.35864732
000020 ad 3c 9a bf d5 86 a4 be 8e 39 c0 bf 9b 6d e7 be
       -1.2049767 -0.3213412 -1.5017564 -0.4520081
000030 f6 81 21 bf e7 60 1c bf 27 c0 b6 bf 17 3a 19 bf
       -0.6308893 -0.6108536 -1.427739 -0.59854263
000040 ec 0b db be 31 ed bb be f3 22 5b bf 11 6b 4a bf
       -0.42782533 -0.367044 -0.85600203 -0.7906962
000050 10 e5 54 bf 49 20 36 be 65 82 d2 be 7b 73 9c bf
       -0.8316202 -0.17785753 -0.41115108 -1.2222742
000060 a9 48 e1 be 3e d2 50 bf 5b e6 d7 be 41 e8 a5 bf
       -0.44000748 -0.81570804 -0.42167935 -1.2961503
000070 0e 9e 87 bf e3 f3 9f be 72 28 f3 be 75 4a 99 bf
       -1.059511 -0.31240758 -0.47491795 -1.1975847

conv_layers.6.1.running_mean f4 [32]
000000 7a d9 ee bf 10 45 e6 be 53 56 09 c0 14 1f 25 bf
       -1.8660119 -0.44974566 -2.1458938 -0.64500546
000010 2c 7a 00 bd 28 d7 04 be 72 9b cd 3e 57 bd 4f bf
       -0.031366512 -0.129727 0.40157658 -0.81148285
000020 87 51 42 3f cb 7f 88 bf 8c 1d 08 c0 40 8f 91 bf
       0.7590565 -1.0663999 -2.1268034 -1.1371841
000030 a5 0b 20 c0 f6 29 0b c0 84 99 4a c0 2b 19 d1 bf
       -2.5007107 -2.174436 -3.1656199 -1.6335806
000040 02 4a 25 c0 03 86 f4 be 5a 2e 1c c0 3f 4f 9f be
       -2.582642 -0.47758493 -2.440329 -0.31115147
000050 88 f8 51 c0 89 ed 50 3e 23 29 88 bf b8 c0 d4 bf
       -3.2807941 0.20403112 -1.0637554 -1.6621313
000060 13 29 f8 bf e8 c5 31 c0 59 7f 8c bf 87 e4 a7 c0
       -1.9387535 -2.7777042 -1.0976363 -5.2466464
000070 23 21 24 c0 0c ff d7 bf b8 30 03 bf 5b ff 65 c0
       -2.5645225 -1.6874709 -0.51246214 -3.5937107

conv_layers.6.1.running_var f4 [32]
000000 d9 83 25 3f 2e 57 eb 3e 25 ef e2 3e 67 c5 e3 3e
       0.6465431 0.4596495 0.44323078 0.44486544
000010 28 7c f0 3e 29 8e d6 3e 41 73 ee 3e 1a d4 f7 3e
       0.46969724 0.41905335 0.46572307 0.48404008
000020 61 c1 ee 3e fa df c7 3e 6b d0 d4 3e 53 01 00 3f
       0.4663191 0.39038068 0.4156526 0.5000202
000030 2a 86 c9 3e c2 eb 03 3f 82 37 e4 3e 05 c0 13 3f
       0.39360172 0.5153161 0.445736 0.57714874
000040 e2 87 c4 3e c8 fa ef 3e 4b f5 11 3f db 7f ba 3e
       0.3838492 0.46871018 0.5701491 0.3642567
000050 0c 11 03 3f ff 37 d2 3e ae 00 d1 3e 3b 49 d2 3e
       0.51197886 0.41058347 0.4082083 0.41071495
000060 55 82 ee 3e 53 d9 04 3f 0c 37 c3 3e b1 02 09 3f
       0.4658381 0.5189411 0.38127935 0.5351973
000070 b6 b1 cf 3e 8c c3 e6 3e 86 11 cc 3e c1 a6 1d 3f
       0.4056527 0.45071065 0.3985712 0.6158257

conv_layers.7.conv1d.weight f4 [1, 1, 3]
000000 9f c7 d9 be 15 ab c9 c0 b8 79 c3 bf
       -0.4253511 -6.302134 -1.5271521

conv_layers.9.0.conv.weight f4 [16, 32, 3, 3]
000000 93 e6 80 bb f0 bf 7a 3e 8b c9 aa 3e cd 0d 21 3e
       -0.0039337366 0.24487281 0.3335689 0.15727921
000010 c1 0c 85 3e da 9c 76 3e e8 74 94 b9 7f 46 53 bd
       0.25986293 0.24083272 -0.00028315862 -0.051580902
000020 1c 50 92 bd 47 77 74 3d f9 5a 9a bd 08 21 a4 3d
       -0.07144186 0.059684064 -0.07536883 0.08014113
000030 34 de 95 bd db 28 a0 bd d2 d8 cb bd 38 43 04 3e
       -0.073177725 -0.078202926 -0.099534646 0.12916267
000040 c4 d5 80 3d 10 67 07 3d d1 17 71 3d 6d ab 82 be
       0.062907726 0.033057272 0.058860604 -0.25521412
000050 9a de 83 be d2 70 e8 bd 2c 4e 6e be 26 8d 3a be
       -0.2575577 -0.11349644 -0.23272008 -0.18217906
000060 a4 27 2e 3d 9d 79 66 be d3 8f b7 bd 2c 55 c6 bd
       0.042518273 -0.2250733 -0.08962979 -0.09684214
000070 c7 99 d0 3c d6 ed 85 bc 40 0f af 3d c9 b7 a6 3d
       0.025463952 -0.01634876 0.085478306 0.08140523
000080 5b 2b 02 3e 9d ef 33 bd 87 20 2f 3e 11 e3 9c 3d
       0.12711851 -0.043929685 0.17102252 0.07660497
000090 a0 8b 80 3c df 89 09 3e e7 fb 68 3d c8 b3 a4 3d
       0.015691578 0.134315 0.056880858 0.08042103
0000a0 c0 67 13 3e 58 98 05 3e ab 26 1c bc 7e 2e 12 3e
       0.14395046 0.13046396 -0.009530704 0.14275548
0000b0 b0 10 bd 3d 7f f4 8d 3d 7b cc c3 bb 9d a9 1a bd
       0.092316985 0.069313996 -0.0059753037 -0.037759412
0000c0 36 67 3b bc 33 1e b3 bd 78 76 e8 bd 90 4d 6d bc
       -0.011438182 -0.087459944 -0.11350721 -0.014483824
0000d0 37 d1 89 3d 34 5f 41 3d 2b 31 c0 3b ce 38 69 bd
       0.06729358 0.047209933 0.0058652363 -0.05693894
0000e0 9f 48 d5 3c 08 0a 06 bd f0 b6 51 be ef bf 72 be
       0.026035605 -0.03272441 -0.20479941 -0.2370603
0000f0 36 09 75 3c bd 3e 67 be 83 3e a5 bd b2 31 aa 3d
       0.014955809 -0.22582527 -0.08068564 0.0831026
000100 01 c8 df 3d f2 4b 64 3d d6 7d 0d 3e e2 44 c3 3d
       0.109268196 0.05573649 0.13817534 0.09534623
000110 f7 8e 11 bd f3 6d cf 3d ee 7d f9 3d 75 28 fc 3d
       -0.035536733 0.10128393 0.12182222 0.12312404
000120 34 c0 ea bd 76 71 a4 be 71 e3 ab be d0 b4 43 be
       -0.11462441 -0.32117814 -0.33571962 -0.19111943
000130 8a 4d b2 be d8 d0 a9 be c3 b8 02 be 9d 0e d4 be
       -0.34824783 -0.33167148 -0.12765794 -0.414174
000140 be 1f 8d be 6d ed 20 3e 12 6d a0 3e f4 cd b6 3d
       -0.2756328 0.15715571 0.31333214 0.08926001
000150 27 a8 21 3e 9e 15 a7 3e 2e db 83 3e 3a 86 16 3e
       0.15786801 0.3263368 0.25753158 0.14699641
000160 97 46 a5 3e db 6c 69 3e b2 a0 26 bd 71 d8 69 3e
       0.32280418 0.22795431 -0.040680595 0.22836472
000170 f2 4a 19 3e f5 21 41 3e 86 4c 8e 3e f5 ef 75 3e
       0.14969996 0.1886061 0.27792758 0.24017318
000180 a4 e3 02 3e 81 c0 c9 3e 1b 8d 1a 3e a0 00 e4 bd
       0.1278215 0.3940468 0.1509289 -0.11132932
000190 49 1f 6f bb e4 e2 6c 3d 58 1e 9a bc 2b 03 93 be
       -0.0036487153 0.057833567 -0.018813297 -0.28713354
0001a0 2c 8f 45 be 7a 6e 53 bd 88 69 15 be 7d 5a ce bc
       -0.19292897 -0.05161903 -0.14591038 -0.025189633
0001b0 5b cd 2f 3d a7 ff 1c be bd 8b cb bd 2e e9 b5 bd
       0.04292045 -0.15331899 -0.09938762 -0.08882366
0001c0 a3 91 fc bd c4 00 34 be 5a 4c ba 3d ea 8d 88 be
       -0.123324655 -0.17578417 0.09096594 -0.26670772
0001d0 8e c6 35 be 00 ca d7 bc 73 03 99 3e ff b0 68 3e
       -0.17751524 -0.026341438 0.29885444 0.22723769
0001e0 da 22 76 3d 89 3c bb 3e 6e 4d c5 3e bc 25 81 3c
       0.06009183 0.36569622 0.38535637 0.015765063
0001f0 1d 84 69 3e 3f 2a ea bb 45 be 12 bd 5e 4d 89 3d
       0.22804303 -0.0071461494 -0.035825986 0.0670421
000200 e3 4e 9e 3e a8 52 32 be d4 6c 87 3e 9b 17 a1 3e
       0.3091956 -0.17414343 0.26450217 0.31463322
000210 45 0e e5 bd d5 d9 00 3e e7 c2 6f 3e b4 4e 1e bd
       -0.11184362 0.12583096 0.23414193 -0.038649276
000220 da 01 2f 3e 43 b0 93 3c 07 28 1b 3d a4 0d fb 3d
       0.1709055 0.018028384 0.03787997 0.12258461
000230 47 ce 5e 3c fc 0f f3 bd ca 6b ab 3d 3d 37 2e bd
       0.013598985 -0.11868283 0.083701685 -0.042533148
000240 68 4c aa bc f7 4e 82 bd a0 97 fc bc 20 1b c4 bd
       -0.020788386 -0.063627176 -0.03083402 -0.09575486
000250 73 d7 39 3b d3 bc 82 bc ff 56 95 bd 75 34 f8 3c
       0.0028357178 -0.015959179 -0.07291984 0.030298451
000260 b4 37 23 bd b0 aa af 3d e6 ad 0c 3e 8c 54 01 3e
       -0.039848045 0.08577478 0.13738212 0.12629908
000270 69 31 32 3e 69 07 18 3e 62 c7 5e bc f0 3f 55 3d
       0.17401661 0.14846577 -0.013597341 0.05206293
000280 30 a9 35 3d 44 5c 6d 3d 3b e2 19 3d 0c 25 6b 3e
       0.044350803 0.05794932 0.037569266 0.22963351
000290 10 b8 e8 3c 49 a9 3d 3c df ee 0c 3e be 95 7a 3e
       0.02840808 0.011576005 0.13762997 0.24471185
0002a0 bf a9 64 3b 7e e8 a5 3d 20 44 76 bd 43 52 d4 bd
       0.0034891216 0.08100985 -0.060123563 -0.10367253
0002b0 e3 61 76 be 40 3e 89 be 8d 07 c8 bc 45 27 04 be
       -0.24060778 -0.26805305 -0.024417663 -0.12905605
0002c0 38 53 18 be 2a 23 8c bb b7 6b bd bd cf 05 11 be
       -0.14875495 -0.004276653 -0.092490606 -0.14162372
0002d0 ee 85 13 bd e9 45 89 be 33 52 6d be e8 19 3b be
       -0.036016397 -0.2681115 -0.23175888 -0.18271601
0002e0 10 9e 91 be 81 0c 95 be c1 82 85 bc 70 08 30 be
       -0.28440905 -0.29111102 -0.0162977 -0.17190719
0002f0 35 07 81 be ec f7 a5 bd f5 07 72 bd 9e 2c 21 bd
       -0.2520081 -0.08103928 -0.05908962 -0.03934919
000300 d1 af 6b be ed 7f 7d be 48 8f 08 be c7 1d 96 bc
       -0.23016287 -0.24755831 -0.13335907 -0.018324746
000310 1e ed 00 be d4 5a b9 bd 0a f9 d0 3d 59 d4 92 3d
       -0.12590453 -0.09050527 0.102037504 0.07169408
000320 2d 0d 29 3e 3a 65 b7 3d e7 bd 96 3e a7 cb 87 3e
       0.16508932 0.08954854 0.2944176 0.26522562
000330 af 9f df 3c 0f 74 e0 3d 8b eb fb 3d cd a7 27 be
       0.027297823 0.109596364 0.12300786 -0.16372605
000340 7c b8 8a be 5f 5e 84 be 0c 5a 33 be 06 24 b5 be
       -0.27093875 -0.2585325 -0.17514819 -0.35379046
000350 e8 9f a5 be b8 78 6f be 41 f9 96 be 61 32 b0 be
       -0.3234856 -0.23385894 -0.2948704 -0.34413436
000360 81 ac 1d bd 53 48 00 bd 22 08 77 3d ea 95 88 bd
       -0.03849459 -0.031318974 0.06031049 -0.06669219
000370 93 c5 47 3c 10 e5 1a 3e 20 03 9a bd 95 af aa bc
       0.012193101 0.15126443 -0.07520127 -0.020835677
000380 e5 9a 1f 3d f8 94 22 bd 5f a3 0f bd a5 67 c0 bd
       0.03896608 -0.03969285 -0.035067912 -0.093947686
000390 51 29 1d bd 67 51 cc bc 73 07 26 bd 1f ee 27 bd
       -0.03836948 -0.02494116 -0.040534448 -0.040998574
0003a0 96 4d 3e 3d 0d a4 6c bc 21 29 d4 3c 45 0a 8f bc
       0.04646071 -0.01444341 0.025898518 -0.017460952
0003b0 15 2c e1 3d 02 f6 ec 3b 15 a7 7d 3d 3b 33 d2 3d
       0.10994736 0.007231475 0.06192692 0.10263678
0003c0 2c a5 d0 3a a9 94 72 3d 4d 40 e1 3c c0 0d c3 3d
       0.0015918366 0.059223805 0.027496481 0.09524107
0003d0 0d 4b 85 3e d1 02 3f 3e 3d 75 94 3d 36 35 89 3e
       0.26033822 0.18653418 0.07248924 0.2679841
0003e0 1a 42 78 3e 7e ab f3 3d aa 72 b3 3e 25 56 93 3e
       0.24243966 0.11897944 0.3504842 0.2877666
0003f0 da cb a9 3b 7f 56 93 3e 20 6a 7a 3d 05 11 ea 3d
       0.0051817717 0.2877693 0.061136365 0.114290275

conv_layers.9.1.weight f4 [16]
000000 8f e2 cd 3f 20 e6 22 3f 50 df 3a 3f d1 f4 37 3f
       1.6084765 0.6363239 0.72997 0.71857935
000010 7c 0f 55 3f 9c 83 66 3f 1c 7e 9e 40 66 b0 73 3f
       0.8322675 0.9004457 4.952894 0.9519104
000020 ba 74 5a 3f de 04 14 3f cc 0a 25 3f d3 09 d5 3f
       0.8533436 0.57819927 0.644696 1.6643623
000030 0c 1f 4b 3f 76 7f de 3f 8e 13 88 3f 76 29 53 3f
       0.7934425 1.7382648 1.0630968 0.8248514

conv_layers.9.1.bias f4 [16]
000000 3d 36 b5 bf ae 15 f0 be 89 e7 d0 be 2a fd e1 be
       -1.4157177 -0.4689154 -0.40801647 -0.4413846
000010 92 e1 40 bf 70 f4 27 bf e6 fc 21 c0 53 0e fd be
       -0.75344193 -0.6560736 -2.5310607 -0.4942499
000020 01 b3 64 bf 80 11 d4 be f4 38 1b bf b3 3d cc bf
       -0.8933564 -0.414196 -0.6063378 -1.5956329
000030 8e 57 10 bf c4 71 e8 bf d0 16 89 bf 29 ca 2f bf
       -0.563836 -1.8159719 -1.0710087 -0.68667847

conv_layers.9.1.running_mean f4 [16]
000000 91 19 d9 3b 92 59 47 bd 20 58 34 bc 5f fc 88 bc
       0.006625362 -0.048669405 -0.011007339 -0.016721902
000010 63 ab 2b 3d 8a 34 93 bd b0 80 6a 3b 3b 03 bd bd
       0.041911494 -0.071877554 0.003578227 -0.09229132
000020 a3 4a 20 bc 21 e2 a3 3c 43 f7 f8 bc 1c 5b 39 bd
       -0.00978342 0.020005288 -0.030391341 -0.045252904
000030 cb c2 4b bd aa 26 3d bc 07 c0 42 bd b9 e0 c0 bd
       -0.049746316 -0.011544863 -0.047546413 -0.094178624

conv_layers.9.1.running_var f4 [16]
000000 dd 9a 81 3b 13 4b 1c 3b 51 84 2d 3b 76 cd 09 3b
       0.0039552287 0.0023848459 0.0026476572 0.0021027005
000010 57 4e 2b 3b f7 57 3a 3b 27 ea d3 3b b7 fd 19 3b
       0.0026139223 0.0028433779 0.006467122 0.0023497173
000020 40 6d 12 3b 61 26 1b 3b ea 1e fb 3a c5 b0 4c 3b
       0.002234295 0.0023673999 0.0019158993 0.0031233293
000030 99 c9 13 3b 63 57 4b 3b 24 ee 31 3b 28 b5 5b 3b
       0.0022550581 0.0031027428 0.002715 0.0033524726

conv_layers.10.conv1d.weight f4 [1, 1, 3]
000000 5a 9c 80 bf 1b 79 6e c0 bf 14 02 bf
       -1.0047715 -3.7261417 -0.50812906
