models/model_1726091058579\model.pth (torch, 226941 bytes, 14 tensors)

conv_layers.0.0.conv.weight f4 [16, 10, 3, 3]
0	0x0002f2e1	2.708e-40
1	0x80033fbd	-2.98371e-40
2	0x0001121f	9.8336e-41
3	0x000344a5	3.00132e-40
4	0x0002d463	2.59861e-40
5	0x0001770a	1.34539e-40
6	0x0001b221	1.55736e-40
7	0x0005cf16	5.33466e-40
8	0x00006b71	3.8543e-41
9	0x000253c1	2.13716e-40
10	0x00023712	2.03426e-40
11	0x800070d7	-4.048e-41
12	0x000116bb	9.999e-41
13	0x0001b738	1.57562e-40
14	0x00002eed	1.6834e-41
15	0x8001cbef	-1.64993e-40
16	0x0001d133	1.66882e-40
17	0x8000ea2e	-8.4008e-41
18	0x000426af	3.81219e-40
19	0x0001cfd8	1.66396e-40
20	0x800498e0	-4.22183e-40
21	0x0002ed89	2.68883e-40
22	0x8002a2f0	-2.42122e-40
23	0x8005c695	-5.30415e-40
24	0x80038508	-3.23229e-40
25	0x0002d5b0	2.60328e-40
26	0x00048247	4.14077e-40
27	0x80052df3	-4.75661e-40
28	0x80028634	-2.31814e-40
29	0x00035c48	3.08611e-40
30	0x0004eb8c	4.5184e-40
31	0x8005d6a8	-5.36182e-40
32	0x0005b68c	5.24663e-40
33	0x000195ea	1.45615e-40
34	0x00017034	1.32086e-40
35	0x80006147	-3.4897e-41
36	0x000188e8	1.40948e-40
37	0x000423fa	3.80248e-40
38	0x8001aad8	-1.53123e-40
39	0x800466fa	-4.04283e-40
40	0x8003fd04	-3.66271e-40
41	0x800296e7	-2.37805e-40
42	0x00046c24	4.06136e-40
43	0x80015e9c	-1.25775e-40
44	0x8005ea1a	-5.43157e-40
45	0x0003f3ab	3.62918e-40
46	0x8003be0b	-3.43681e-40
47	0x8004edde	-4.52673e-40
48	0x00000d35	4.738e-42
49	0x8002d813	-2.61184e-40
50	0x800040e4	-2.3278e-41
51	0x0000d01a	7.4653e-41
52	0x80017a52	-1.35716e-40
53	0x8001399d	-1.12503e-40
54	0x0001b8df	1.58155e-40
55	0x00000038	7.8e-44
56	0x8003ee50	-3.60997e-40
57	0x00034069	2.98612e-40
58	0x0005d00c	5.3381e-40
59	0x0002e9a3	2.67484e-40
60	0x0000bcc6	6.7719e-41
61	0x00032c7d	2.91466e-40
62	0x00004fff	2.8697e-41
63	0x00004992	2.6392e-41
64	0x0001f177	1.78457e-40
65	0x0003f5ca	3.63679e-40
66	0x0005851c	5.06928e-40
67	0x80008cb4	-5.0475e-41
68	0x00036bd2	3.14185e-40
69	0x80049e0c	-4.24039e-40
70	0x80026001	-2.18111e-40
71	0x0000fd76	9.0925e-41
72	0x0001f357	1.7913e-40
73	0x000689e4	6.00479e-40
74	0x8001ff19	-1.83347e-40
75	0x0001a734	1.51817e-40
76	0x00011fa6	1.03189e-40
77	0x8005ece6	-5.4416e-40
78	0x0001db29	1.70455e-40
79	0x0000401c	2.2998e-41
80	0x8003c47f	-3.45996e-40
81	0x80007e6d	-4.5353e-41
82	0x0002dcef	2.62927e-40
83	0x80035a6a	-3.07941e-40
84	0x80056589	-4.95601e-40
85	0x000066ad	3.6833e-41
86	0x0005e17c	5.40066e-40
87	0x800061f0	-3.5133e-41
88	0x00063a56	5.7194e-40
89	0x8002910f	-2.35708e-40
90	0x80013fe4	-1.14755e-40
91	0x800311eb	-2.81934e-40
92	0x800281d8	-2.3025e-40
93	0x0000cadb	7.2771e-41
94	0x0001615e	1.26764e-40
95	0x800337f3	-2.95577e-40
96	0x00025513	2.1419e-40
97	0x0000798c	4.3603e-41
98	0x80017330	-1.33157e-40
99	0x0001838a	1.39023e-40
100	0x8000b157	-6.3618e-41
101	0x8005eb24	-5.4353e-40
102	0x8000fa4a	-8.9787e-41
103	0x0002af36	2.46525e-40
104	0x80033a4d	-2.96421e-40
105	0x80034f8d	-3.04044e-40
106	0x0001a286	1.50138e-40
107	0x000421f7	3.79526e-40
108	0x80066b93	-5.89603e-40
109	0x00011d77	1.02405e-40
110	0x8003235b	-2.8819e-40
111	0x80067695	-5.93552e-40
112	0x00004996	2.6398e-41
113	0x8000747a	-4.1784e-41
114	0x00012a29	1.0696e-40
115	0x0002b4b5	2.48496e-40
116	0x0001858a	1.3974e-40
117	0x80049b40	-4.23035e-40
118	0x80036714	-3.12484e-40
119	0x00024d2c	2.11355e-40
120	0x800120bb	-1.03577e-40
121	0x000653f7	5.81134e-40
122	0x8001e2e6	-1.73231e-40
123	0x000308e9	2.78703e-40
124	0x000078a9	4.3285e-41
125	0x0005e0b7	5.3979e-40
126	0x80010b47	-9.5881e-41
127	0x8001bb07	-1.58928e-40
128	0x80042329	-3.79955e-40
129	0x000245f4	2.08765e-40
130	0x80013357	-1.10253e-40
131	0x8003d18d	-3.50679e-40
132	0x8004b92b	-4.33768e-40
133	0x8003985b	-3.30161e-40
134	0x00024a1a	2.10254e-40
135	0x000640ba	5.74232e-40
136	0x80004502	-2.4755e-41
137	0x0001b547	1.56866e-40
138	0x00020def	1.8867e-40
139	0x0000a519	5.9226e-41
140	0x8000ec15	-8.469e-41
141	0x000153d9	1.21914e-40
142	0x00030746	2.78116e-40
143	0x000620db	5.62799e-40
144	0x000330e0	2.9304e-40
145	0x8000c033	-6.8948e-41
146	0x00024fb6	2.12266e-40
147	0x00045dbd	4.00969e-40
148	0x8001c625	-1.62916e-40
149	0x000342e5	2.99504e-40
150	0x800298b7	-2.38455e-40
151	0x8002353b	-2.02766e-40
152	0x0004aaa5	4.28558e-40
153	0x80063679	-5.70554e-40
154	0x8000aa69	-6.1132e-41
155	0x0000174a	8.355e-42
156	0x0002976f	2.37995e-40
157	0x000253c3	2.13719e-40
158	0x0004eebf	4.52988e-40
159	0x800354b2	-3.0589e-40
160	0x000198b3	1.46614e-40
161	0x00019d28	1.48213e-40
162	0x8000084f	-2.98e-42
163	0x8002cd96	-2.57421e-40
164	0x0005eb2b	5.4354e-40
165	0x800246cd	-2.0907e-40
166	0x000215fd	1.91559e-40
167	0x80044fb9	-3.95941e-40
168	0x00044480	3.91915e-40
169	0x000671a8	5.91785e-40
170	0x8001ec55	-1.76615e-40
171	0x8003263f	-2.89227e-40
172	0x00013438	1.10568e-40
173	0x80002673	-1.3793e-41
174	0x800564b1	-4.95299e-40
175	0x80053bee	-4.80676e-40
176	0x0002e4c6	2.6574e-40
177	0x000192be	1.44477e-40
178	0x0004b72b	4.3305e-40
179	0x8002598d	-2.15796e-40
180	0x80047464	-4.09095e-40
181	0x8003a3c2	-3.34252e-40
182	0x00038766	3.24078e-40
183	0x8002fe4b	-2.74894e-40
184	0x0000c3ce	7.0241e-41
185	0x8001b265	-1.55831e-40
186	0x800454d4	-3.97773e-40
187	0x800097cf	-5.4459e-41
188	0x8001f6ad	-1.80326e-40
189	0x8001cae9	-1.64626e-40
190	0x8002aa0f	-2.44677e-40
191	0x80004ebb	-2.8243e-41
192	0x80033056	-2.92846e-40
193	0x80011302	-9.8654e-41
194	0x8005f7ea	-5.48112e-40
195	0x8001510b	-1.20908e-40
196	0x80013d7b	-1.1389e-40
197	0x8004f35d	-4.54644e-40
198	0x80044538	-3.92173e-40
199	0x0001e587	1.74174e-40
200	0x8000ff21	-9.1523e-41
201	0x8002b015	-2.46837e-40
202	0x0003fc33	3.65979e-40
203	0x0001badb	1.58867e-40
204	0x8002a692	-2.43425e-40
205	0x800145b3	-1.16839e-40
206	0x00030417	2.76974e-40
207	0x0005015a	4.59662e-40
208	0x0005fa8d	5.49058e-40
209	0x00047b28	4.11522e-40
210	0x80026870	-2.21136e-40
211	0x8005b24b	-5.23137e-40
212	0x00035a79	3.07962e-40
213	0x0001bd1d	1.59677e-40
214	0x8006a055	-6.08529e-40
215	0x80032a31	-2.90642e-40
216	0x0002fcb6	2.74327e-40
217	0x80046450	-4.03327e-40
218	0x0001669e	1.28648e-40
219	0x0001358f	1.11049e-40
220	0x80003026	-1.7272e-41
221	0x00069e87	6.07882e-40
222	0x000091fa	5.2367e-41
223	0x0000c8da	7.2052e-41
224	0x0004b2fa	4.31547e-40
225	0x8005e00e	-5.39553e-40
226	0x00030144	2.7596e-40
227	0x0000da92	7.8408e-41
228	0x80021350	-1.90599e-40
229	0x00017ae7	1.35925e-40
230	0x00008e80	5.112e-41
231	0x80053630	-4.78616e-40
232	0x00005414	3.0162e-41
233	0x000280c0	2.29858e-40
234	0x0004ebe5	4.51965e-40
235	0x8003fb09	-3.65561e-40
236	0x80001ff1	-1.1458e-41
237	0x0001d71d	1.69004e-40
238	0x0000f729	8.8664e-41
239	0x00002fdf	1.7173e-41
240	0x800676f6	-5.93688e-40
241	0x80013df3	-1.14059e-40
242	0x8002cdf7	-2.57557e-40
243	0x80021943	-1.92733e-40
244	0x0000679b	3.7167e-41
245	0x00023c60	2.0533e-40
246	0x00019fbe	1.4914e-40
247	0x000018c9	8.891e-42
248	0x800309af	-2.7898e-40
249	0x8002d191	-2.58849e-40
250	0x00015c8a	1.25032e-40
251	0x8001a12c	-1.49653e-40
252	0x800263fa	-2.19536e-40
253	0x80022c1f	-1.99499e-40
254	0x000673e8	5.92592e-40
255	0x000375e0	3.17792e-40

conv_layers.0.0.conv.bias f4 [16]
0	0x80040c3e	-3.71734e-40
1	0x8001bb38	-1.58997e-40
2	0x0005e508	5.41338e-40
3	0x00021dac	1.94315e-40
4	0x8003ac4b	-3.37314e-40
5	0x0002ed37	2.68768e-40
6	0x8002f41f	-2.71245e-40
7	0x0000a8f8	6.0615e-41
8	0x00013e3c	1.14161e-40
9	0x0004fab5	4.57279e-40
10	0x0000fdeb	9.1089e-41
11	0x800388a3	-3.24523e-40
12	0x800414c2	-3.74788e-40
13	0x80061fad	-5.62376e-40
14	0x80015caa	-1.25077e-40
15	0x80025d8c	-2.17229e-40

conv_layers.2.0.conv.weight f4 [32, 16, 3, 3]
0	0x80026dcc	-2.23059e-40
1	0x8004a431	-4.26243e-40
2	0x80046995	-4.05218e-40
3	0x8002a82e	-2.44002e-40
4	0x000300e1	2.75822e-40
5	0x00028059	2.29713e-40
6	0x000317c6	2.84035e-40
7	0x800160c8	-1.26554e-40
8	0x8000352c	-1.9074e-41
9	0x000079e5	4.3728e-41
10	0x800598f1	-5.14043e-40
11	0x0001c56e	1.6266e-40
12	0x0001f395	1.79216e-40
13	0x00009b46	5.5702e-41
14	0x80026ba2	-2.22282e-40
15	0x8001affc	-1.54967e-40
16	0x00009378	5.2902e-41
17	0x8000f652	-8.8363e-41
18	0x80055bfb	-4.92174e-40
19	0x00038944	3.24748e-40
20	0x8001d6ef	-1.68939e-40
21	0x0004b913	4.33734e-40
22	0x80064c1b	-5.78314e-40
23	0x80037eaf	-3.20952e-40
24	0x80031fc2	-2.86899e-40
25	0x00035cd1	3.08803e-40
26	0x0002cb55	2.56613e-40
27	0x00060932	5.54312e-40
28	0x80031f56	-2.86748e-40
29	0x00034ae4	3.02372e-40
30	0x8002bf40	-2.52279e-40
31	0x8001d1bb	-1.67073e-40
32	0x80022424	-1.96636e-40
33	0x8000fe7f	-9.1296e-41
34	0x00012471	1.04908e-40
35	0x8005c631	-5.30275e-40
36	0x8001edb7	-1.77112e-40
37	0x0004d224	4.42726e-40
38	0x0003a095	3.33112e-40
39	0x80012706	-1.05834e-40
40	0x80017742	-1.34617e-40
41	0x8004c3b6	-4.3755e-40
42	0x0002a21f	2.41829e-40
43	0x0002e463	2.65601e-40
44	0x8002ec22	-2.6838e-40
45	0x80015b22	-1.24528e-40
46	0x80031455	-2.828e-40
47	0x0004dfef	4.47674e-40
48	0x0006452a	5.75824e-40
49	0x800125ec	-1.0544e-40
50	0x8002f37f	-2.71021e-40
51	0x8002fc16	-2.74102e-40
52	0x00001239	6.537e-42
53	0x800081d8	-4.6579e-41
54	0x8004c1cf	-4.36867e-40
55	0x00066a8e	5.89238e-40
56	0x0000f0c4	8.637e-41
57	0x80034708	-3.00988e-40
58	0x80005ff1	-3.4417e-41
59	0x80024528	-2.0848e-40
60	0x8005dcbd	-5.38363e-40
61	0x8005bfa9	-5.27932e-40
62	0x0000e41a	8.1827e-41
63	0x00020402	1.85109e-40
64	0x00033b2f	2.96738e-40
65	0x80043c17	-3.88898e-40
66	0x000232c0	2.01877e-40
67	0x8000c0d3	-6.9172e-41
68	0x8004fb3b	-4.57466e-40
69	0x800417f8	-3.7594e-40
70	0x000052f6	2.9761e-41
71	0x000320eb	2.87315e-40
72	0x800155c0	-1.22597e-40
73	0x0002b04e	2.46917e-40
74	0x000316d9	2.83703e-40
75	0x00045075	3.96205e-40
76	0x000262cb	2.19111e-40
77	0x00036c6e	3.14404e-40
78	0x80066c6d	-5.89909e-40
79	0x8001d185	-1.66997e-40
80	0x80026f7f	-2.23668e-40
81	0x00007893	4.3254e-41
82	0x00049421	4.2048e-40
83	0x0001487d	1.1784e-40
84	0x8002528e	-2.13286e-40
85	0x000317c8	2.84038e-40
86	0x00069e87	6.07882e-40
87	0x8002fcae	-2.74315e-40
88	0x80038167	-3.21927e-40
89	0x00053b14	4.80371e-40
90	0x800661b9	-5.86069e-40
91	0x8000f49b	-8.7748e-41
92	0x8002bed8	-2.52133e-40
93	0x00036182	3.10486e-40
94	0x00069b76	6.06782e-40
95	0x00038b34	3.25443e-40
96	0x00011516	9.94e-41
97	0x0006a063	6.08549e-40
98	0x80028db9	-2.34512e-40
99	0x000356f1	3.06695e-40
100	0x0000f2e9	8.714e-41
101	0x800201ea	-1.84358e-40
102	0x8000f25a	-8.694e-41
103	0x80064c68	-5.78422e-40
104	0x00064093	5.74178e-40
105	0x80006f42	-3.9912e-41
106	0x80017eb5	-1.3729e-40
107	0x800475b9	-4.09573e-40
108	0x000025cc	1.3559e-41
109	0x0004b510	4.32295e-40
110	0x8002122b	-1.90188e-40
111	0x00032602	2.89141e-40
112	0x0004fb1b	4.57422e-40
113	0x8000205e	-1.1611e-41
114	0x00011ef1	1.02935e-40
115	0x8002ff5a	-2.75274e-40
116	0x8002d211	-2.59029e-40
117	0x0000018f	5.59e-43
118	0x8005dd64	-5.38597e-40
119	0x0001fa13	1.81545e-40
120	0x80038671	-3.23735e-40
121	0x800467e0	-4.04605e-40
122	0x000098f7	5.4873e-41
123	0x0003ac69	3.37356e-40
124	0x000130d9	1.09359e-40
125	0x00042296	3.79749e-40
126	0x80026370	-2.19342e-40
127	0x800344a4	-3.0013e-40
128	0x0001d723	1.69012e-40
129	0x0003afa9	3.38521e-40
130	0x00039b0f	3.31131e-40
131	0x8001621c	-1.2703e-40
132	0x80044426	-3.91789e-40
133	0x800251ee	-2.13062e-40
134	0x8004a719	-4.27285e-40
135	0x0003573c	3.068e-40
136	0x000331f6	2.93429e-40
137	0x80026cd9	-2.22718e-40
138	0x000132f5	1.10115e-40
139	0x8002e801	-2.66898e-40
140	0x80014a10	-1.18404e-40
141	0x0001924a	1.44314e-40
142	0x80031961	-2.84611e-40
143	0x00014872	1.17824e-40
144	0x8003692d	-3.13236e-40
145	0x0004661f	4.03976e-40
146	0x0002043e	1.85193e-40
147	0x80024dcb	-2.11578e-40
148	0x00065a9a	5.83515e-40
149	0x000160c8	1.26554e-40
150	0x80038fd9	-3.2711e-40
151	0x80031466	-2.82824e-40
152	0x800122a2	-1.0426e-40
153	0x000114b2	9.926e-41
154	0x800647fa	-5.76833e-40
155	0x0005f9af	5.48747e-40
156	0x00015e9c	1.25775e-40
157	0x00047a3c	4.11191e-40
158	0x8004adc4	-4.29677e-40
159	0x00054048	4.82237e-40
160	0x000127b7	1.06082e-40
161	0x0003afcb	3.38569e-40
162	0x8004a005	-4.24746e-40
163	0x80068554	-5.98842e-40
164	0x8003a000	-3.32904e-40
165	0x800675bc	-5.93248e-40
166	0x8002b006	-2.46816e-40
167	0x0005d946	5.3712e-40
168	0x8005896a	-5.08472e-40
169	0x0002c00c	2.52564e-40
170	0x0002dcae	2.62836e-40
171	0x0000fb57	9.0164e-41
172	0x000155c7	1.22607e-40
173	0x800061fb	-3.5149e-41
174	0x80017758	-1.34648e-40
175	0x80005755	-3.1329e-41
176	0x8000ec46	-8.4759e-41
177	0x8002b90f	-2.50058e-40
178	0x0004cdfe	4.41238e-40
179	0x00031576	2.83205e-40
180	0x000510e4	4.65237e-40
181	0x8002f055	-2.69886e-40
182	0x8005bb61	-5.26396e-40
183	0x80041902	-3.76313e-40
184	0x00012ac9	1.07184e-40
185	0x8000cb5b	-7.295e-41
186	0x00032683	2.89322e-40
187	0x8003096c	-2.78886e-40
188	0x00034f2e	3.03911e-40
189	0x0002aa8b	2.4485e-40
190	0x0002ee53	2.69166e-40
191	0x8003300e	-2.92745e-40
192	0x00028247	2.30406e-40
193	0x80003822	-2.0137e-41
194	0x800112da	-9.8598e-41
195	0x00009bdc	5.5912e-41
196	0x8001f85b	-1.80929e-40
197	0x00034979	3.01864e-40
198	0x8002c513	-2.54368e-40
199	0x80014ca6	-1.19332e-40
200	0x0005069b	4.61547e-40
201	0x80039e01	-3.32188e-40
202	0x0001f8db	1.81108e-40
203	0x800204e5	-1.85427e-40
204	0x0000c5f0	7.1007e-41
205	0x0004731b	4.08634e-40
206	0x0005d9d4	5.3732e-40
207	0x0003b64b	3.40901e-40
208	0x80063286	-5.69137e-40
209	0x8002d83d	-2.61243e-40
210	0x800058a3	-3.1797e-41
211	0x8001c346	-1.61886e-40
212	0x0003509a	3.04421e-40
213	0x800330e8	-2.93051e-40
214	0x8005bb04	-5.26266e-40
215	0x00063394	5.69516e-40
216	0x000305f4	2.77642e-40
217	0x80014598	-1.16801e-40
218	0x80040092	-3.67547e-40
219	0x80047b80	-4.11645e-40
220	0x00029d3d	2.40077e-40
221	0x8005d038	-5.33872e-40
222	0x000128d4	1.06482e-40
223	0x000641b5	5.74584e-40
224	0x8003c4d6	-3.46118e-40
225	0x00026aac	2.21938e-40
226	0x80018d7c	-1.4259e-40
227	0x00014c86	1.19287e-40
228	0x000366ec	3.12428e-40
229	0x80064f64	-5.79493e-40
230	0x00021f93	1.94998e-40
231	0x80055e9a	-4.93114e-40
232	0x00046457	4.03337e-40
233	0x800340cd	-2.98753e-40
234	0x00046dfe	4.068e-40
235	0x0005e881	5.42584e-40
236	0x8004f7e0	-4.56263e-40
237	0x80026597	-2.20115e-40
238	0x8004bc83	-4.34967e-40
239	0x0003d324	3.5125e-40
240	0x8006040f	-5.52469e-40
241	0x00047198	4.08092e-40
242	0x0001af77	1.5478e-40
243	0x800296ee	-2.37814e-40
244	0x0001164b	9.9833e-41
245	0x800311b2	-2.81854e-40
246	0x000392e5	3.28202e-40
247	0x8002cd89	-2.57403e-40
248	0x8004211c	-3.7922e-40
249	0x80020705	-1.86189e-40
250	0x8005f9bb	-5.48764e-40
251	0x80020fad	-1.89294e-40
252	0x000276cc	2.26287e-40
253	0x0002afed	2.46781e-40
254	0x00032242	2.87796e-40
255	0x8001d037	-1.66529e-40

conv_layers.2.0.conv.bias f4 [32]
0	0x8001b790	-1.57685e-40
1	0x0001f340	1.79097e-40
2	0x00041587	3.75065e-40
3	0x00036785	3.12642e-40
4	0x0000f83f	8.9054e-41
5	0x000652d2	5.80723e-40
6	0x80037e01	-3.20708e-40
7	0x80025ff7	-2.18097e-40
8	0x80059031	-5.10904e-40
9	0x0003c11e	3.44784e-40
10	0x80060255	-5.5185e-40
11	0x0002c511	2.54365e-40
12	0x0005b893	5.2539e-40
13	0x0003454f	3.0037e-40
14	0x0003a942	3.36225e-40
15	0x800510fb	-4.65269e-40
16	0x0000ead8	8.4246e-41
17	0x80026168	-2.18614e-40
18	0x80047798	-4.10244e-40
19	0x000374a9	3.17356e-40
20	0x0000da03	7.8208e-41
21	0x0001073c	9.4431e-41
22	0x0002e74d	2.66646e-40
23	0x8002db52	-2.62348e-40
24	0x80040969	-3.70718e-40
25	0x000675f5	5.93328e-40
26	0x00033421	2.94207e-40
27	0x8003f1af	-3.62206e-40
28	0x00010de3	9.6817e-41
29	0x00016bbe	1.30486e-40
30	0x00064915	5.7723e-40
31	0x8002d4f9	-2.60071e-40

conv_layers.4.0.conv.weight f4 [32, 32, 3, 3]
0	0x8000be5e	-6.8291e-41
1	0x80034cb3	-3.03021e-40
2	0x00044694	3.9266e-40
3	0x8001f84c	-1.80908e-40
4	0x800315a2	-2.83267e-40
5	0x800012ee	-6.79e-42
6	0x00034b9a	3.02627e-40
7	0x0000d05c	7.4745e-41
8	0x8005af8c	-5.22152e-40
9	0x8002b9e9	-2.50363e-40
10	0x00025d44	2.17128e-40
11	0x8004d265	-4.42817e-40
12	0x8001e495	-1.73835e-40
13	0x00016e5d	1.31426e-40
14	0x8003d864	-3.53133e-40
15	0x8001118f	-9.8134e-41
16	0x8002a92c	-2.44358e-40
17	0x00001b59	9.81e-42
18	0x8002e510	-2.65843e-40
19	0x00028f01	2.34971e-40
20	0x8003a0ff	-3.33261e-40
21	0x80028aab	-2.33416e-40
22	0x8003716a	-3.16192e-40
23	0x80025c98	-2.16887e-40
24	0x00068589	5.98916e-40
25	0x0003a887	3.35963e-40
26	0x80028467	-2.31168e-40
27	0x0000c1b5	6.9489e-41
28	0x00065458	5.8127e-40
29	0x00037822	3.18602e-40
30	0x80046d7c	-4.06618e-40
31	0x800043eb	-2.4364e-41
32	0x00063b45	5.72275e-40
33	0x8001b6e7	-1.57448e-40
34	0x0002bf9d	2.52409e-40
35	0x00023cee	2.05528e-40
36	0x0001999c	1.4694e-40
37	0x80024368	-2.07852e-40
38	0x800667fb	-5.88314e-40
39	0x80024e80	-2.11831e-40
40	0x00010107	9.2204e-41
41	0x000159fe	1.24119e-40
42	0x80017eff	-1.37393e-40
43	0x8001693e	-1.29589e-40
44	0x8004dbb9	-4.46164e-40
45	0x80015600	-1.22686e-40
46	0x8004426a	-3.91167e-40
47	0x00026e65	2.23273e-40
48	0x0000743f	4.1701e-41
49	0x00015cbd	1.25104e-40
50	0x80051d4b	-4.69686e-40
51	0x8005950b	-5.12644e-40
52	0x80041ec8	-3.78384e-40
53	0x80009ac9	-5.5526e-41
54	0x8001dbd1	-1.70691e-40
55	0x0002bc33	2.51184e-40
56	0x80049af5	-4.2293e-40
57	0x800210f6	-1.89755e-40
58	0x80033549	-2.94622e-40
59	0x0001cdec	1.65706e-40
60	0x0004eebe	4.52987e-40
61	0x00033183	2.93268e-40
62	0x0002284a	1.98124e-40
63	0x00027c52	2.28269e-40
64	0x0001bbea	1.59246e-40
65	0x80003a71	-2.0965e-41
66	0x80063444	-5.69762e-40
67	0x00058a60	5.08817e-40
68	0x00065879	5.82751e-40
69	0x0002b366	2.48027e-40
70	0x0001412a	1.15212e-40
71	0x8000b17c	-6.367e-41
72	0x0003a099	3.33118e-40
73	0x800305b9	-2.7756e-40
74	0x8004ac09	-4.29057e-40
75	0x0002b6ef	2.49295e-40
76	0x000526bc	4.73073e-40
77	0x8000a823	-6.0316e-41
78	0x800274cb	-2.25568e-40
79	0x0003f7e7	3.64437e-40
80	0x00008a96	4.9715e-41
81	0x00034f9a	3.04062e-40
82	0x800065be	-3.6498e-41
83	0x800072bf	-4.1163e-41
84	0x80003a55	-2.0926e-41
85	0x000522d0	4.71666e-40
86	0x0001f89a	1.81017e-40
87	0x80022f15	-2.00561e-40
88	0x0003a30c	3.33997e-40
89	0x00020aa9	1.87495e-40
90	0x80008bc5	-5.014e-41
91	0x80018faf	-1.4338e-40
92	0x8002fce1	-2.74387e-40
93	0x0000e566	8.2293e-41
94	0x00005af6	3.263e-41
95	0x00035e07	3.09237e-40
96	0x00006cc8	3.9023e-41
97	0x00002d09	1.6156e-41
98	0x80025cb4	-2.16927e-40
99	0x80007c1a	-4.4519e-41
100	0x00068bb4	6.01129e-40
101	0x00000976	3.394e-42
102	0x8001b0a2	-1.552e-40
103	0x00011f15	1.02986e-40
104	0x00038f9e	3.27027e-40
105	0x80045042	-3.96133e-40
106	0x80010b71	-9.594e-41
107	0x8001f910	-1.81182e-40
108	0x00031f08	2.86638e-40
109	0x00040df3	3.72346e-40
110	0x0000ca25	7.2516e-41
111	0x8001fcf4	-1.82578e-40
112	0x80006bfb	-3.8736e-41
113	0x8005aae4	-5.20481e-40
114	0x000140d9	1.15098e-40
115	0x8004c928	-4.39503e-40
116	0x8003972d	-3.29738e-40
117	0x8002c632	-2.5477e-40
118	0x8006622f	-5.86235e-40
119	0x8001c2f7	-1.61776e-40
120	0x800608f4	-5.54225e-40
121	0x00050298	4.60108e-40
122	0x8003bc0a	-3.42962e-40
123	0x8003765d	-3.17967e-40
124	0x8002c236	-2.53341e-40
125	0x80047c41	-4.11916e-40
126	0x00006c6d	3.8896e-41
127	0x8005a949	-5.19906e-40
128	0x00013656	1.11328e-40
129	0x80012208	-1.04044e-40
130	0x00010648	9.4089e-41
131	0x8000f706	-8.8615e-41
132	0x0004af20	4.30165e-40
133	0x8002fd4c	-2.74537e-40
134	0x0003783d	3.1864e-40
135	0x8000cfc3	-7.4531e-41
136	0x0001fc91	1.82439e-40
137	0x0001b948	1.58302e-40
138	0x8002f785	-2.72464e-40
139	0x80066aa7	-5.89273e-40
140	0x8002a50c	-2.42879e-40
141	0x8002a9c3	-2.4457e-40
142	0x8005f792	-5.47989e-40
143	0x80062aa4	-5.6631e-40
144	0x00048698	4.15625e-40
145	0x8000e48a	-8.1984e-41
146	0x80019567	-1.45431e-40
147	0x00046262	4.02635e-40
148	0x8000ff4a	-9.158e-41
149	0x800351b3	-3.04815e-40
150	0x80025ccd	-2.16962e-40
151	0x800546ba	-4.8455e-40
152	0x80014bc1	-1.19011e-40
153	0x000118aa	1.00683e-40
154	0x80068002	-5.96934e-40
155	0x8006972b	-6.05242e-40
156	0x80045dd6	-4.01004e-40
157	0x00002e2c	1.6563e-41
158	0x80053dc6	-4.81338e-40
159	0x80022e3d	-2.00258e-40
160	0x00020e40	1.88783e-40
161	0x80068115	-5.97319e-40
162	0x80013b06	-1.13009e-40
163	0x8005b0c2	-5.22586e-40
164	0x0001d2fb	1.67521e-40
165	0x00025014	2.12398e-40
166	0x8005cfae	-5.33679e-40
167	0x0005ee36	5.44631e-40
168	0x000286be	2.32007e-40
169	0x8000be63	-6.8298e-41
170	0x800197d5	-1.46303e-40
171	0x00011bab	1.01761e-40
172	0x0002771a	2.26397e-40
173	0x0003a477	3.34505e-40
174	0x8000e886	-8.3414e-41
175	0x80049853	-4.21986e-40
176	0x8002ae83	-2.46274e-40
177	0x00011238	9.8371e-41
178	0x000270f8	2.24197e-40
179	0x0002ff7d	2.75323e-40
180	0x000547ca	4.8493e-40
181	0x80036a7c	-3.13706e-40
182	0x0004d121	4.42363e-40
183	0x00039814	3.30062e-40
184	0x0002f6fe	2.72275e-40
185	0x0004f820	4.56352e-40
186	0x0001814c	1.38218e-40
187	0x000401a7	3.67935e-40
188	0x80029287	-2.36235e-40
189	0x80024cec	-2.11265e-40
190	0x8002ac36	-2.45449e-40
191	0x00013a35	1.12716e-40
192	0x0003b34d	3.39827e-40
193	0x80047199	-4.08093e-40
194	0x00017a06	1.35609e-40
195	0x0001c1cf	1.61361e-40
196	0x0004c6a9	4.38608e-40
197	0x80067d11	-5.95878e-40
198	0x0004abcb	4.2897e-40
199	0x800076c6	-4.2608e-41
200	0x8001a310	-1.50331e-40
201	0x0001810e	1.38132e-40
202	0x00006f95	4.0028e-41
203	0x0002bc27	2.51167e-40
204	0x80041fe9	-3.78789e-40
205	0x80008deb	-5.091e-41
206	0x00016bf2	1.30559e-40
207	0x00019f12	1.48899e-40
208	0x800314b4	-2.82933e-40
209	0x80001acc	-9.613e-42
210	0x000070e6	4.05e-41
211	0x0002bcde	2.51424e-40
212	0x000211ff	1.90127e-40
213	0x000428ee	3.82025e-40
214	0x80029f28	-2.40765e-40
215	0x80024c0e	-2.10954e-40
216	0x00008af2	4.9844e-41
217	0x0000e954	8.3702e-41
218	0x000167b1	1.29033e-40
219	0x800227f0	-1.97998e-40
220	0x0005ff8a	5.50848e-40
221	0x8005ca24	-5.31692e-40
222	0x0000fa18	8.9717e-41
223	0x8005c022	-5.28102e-40
224	0x0006311a	5.68627e-40
225	0x0002ba7c	2.50569e-40
226	0x000130b2	1.09304e-40
227	0x80036bb0	-3.14137e-40
228	0x000694da	6.04411e-40
229	0x0004fdcc	4.58387e-40
230	0x80037ed1	-3.21e-40
231	0x80043b91	-3.8871e-40
232	0x0002a41a	2.4254e-40
233	0x0001091b	9.5102e-41
234	0x000668c1	5.88592e-40
235	0x80053447	-4.77931e-40
236	0x00038a57	3.25133e-40
237	0x8001854c	-1.39653e-40
238	0x8004b36d	-4.31708e-40
239	0x0003cec1	3.49676e-40
240	0x800213ad	-1.9073e-40
241	0x00009b46	5.5702e-41
242	0x00013a27	1.12697e-40
243	0x000047e3	2.5788e-41
244	0x0002ee5c	2.69178e-40
245	0x8005e18c	-5.40088e-40
246	0x80015cdb	-1.25146e-40
247	0x00062290	5.63412e-40
248	0x800342f5	-2.99526e-40
249	0x80017840	-1.34973e-40
250	0x00045aac	3.99869e-40
251	0x80015f7a	-1.26086e-40
252	0x8000036e	-1.23e-42
253	0x8006a64b	-6.10668e-40
254	0x80047235	-4.08312e-40
255	0x80009515	-5.348e-41

conv_layers.4.0.conv.bias f4 [32]
0	0x8000abad	-6.1586e-41
1	0x8000308d	-1.7417e-41
2	0x80003c01	-2.1525e-41
3	0x800163fc	-1.27703e-40
4	0x000462b8	4.02756e-40
5	0x80003b81	-2.1346e-41
6	0x0004c889	4.3928e-40
7	0x0000eb20	8.4347e-41
8	0x80010674	-9.415e-41
9	0x000500c5	4.59454e-40
10	0x8004a0bd	-4.25004e-40
11	0x0005cc83	5.32542e-40
12	0x000373a3	3.16989e-40
13	0x8001b1bf	-1.55599e-40
14	0x80008b51	-4.9977e-41
15	0x80022b3a	-1.99178e-40
16	0x80030552	-2.77415e-40
17	0x0004f7ed	4.56281e-40
18	0x8001c2b8	-1.61687e-40
19	0x80041036	-3.73157e-40
20	0x0002aba8	2.4525e-40
21	0x00019850	1.46475e-40
22	0x0001da5a	1.70165e-40
23	0x00036b73	3.14052e-40
24	0x00015eb7	1.25813e-40
25	0x000059c7	3.2206e-41
26	0x0002bf55	2.52308e-40
27	0x8002d170	-2.58803e-40
28	0x80025dfb	-2.17385e-40
29	0x800689f7	-6.00505e-40
30	0x00060cee	5.55651e-40
31	0x0001eb81	1.76318e-40

conv_layers.5.0.conv.weight f4 [32, 32, 3, 3]
0	0x0002d85b	2.61285e-40
1	0x0002a1ee	2.4176e-40
2	0x80013af4	-1.12984e-40
3	0x0003a917	3.36164e-40
4	0x8001a534	-1.51099e-40
5	0x800643c0	-5.75317e-40
6	0x00035163	3.04703e-40
7	0x8005a33a	-5.17732e-40
8	0x80032edb	-2.92315e-40
9	0x8004c693	-4.38577e-40
10	0x0003670a	3.1247e-40
11	0x80035028	-3.04261e-40
12	0x0000dd45	7.9377e-41
13	0x80050243	-4.59989e-40
14	0x000084d1	4.7646e-41
15	0x80021982	-1.92821e-40
16	0x80064cb7	-5.78533e-40
17	0x80002aea	-1.5395e-41
18	0x800608fd	-5.54237e-40
19	0x0004628d	4.02695e-40
20	0x800127dd	-1.06136e-40
21	0x00010afe	9.5779e-41
22	0x80007b34	-4.4197e-41
23	0x800443aa	-3.91615e-40
24	0x0005e904	5.42768e-40
25	0x8002d6c0	-2.60709e-40
26	0x80062382	-5.63751e-40
27	0x800136df	-1.1152e-40
28	0x80022c23	-1.99504e-40
29	0x000147a3	1.17534e-40
30	0x800003d8	-1.379e-42
31	0x80010b1f	-9.5825e-41
32	0x0002ff65	2.75289e-40
33	0x80031d3d	-2.85995e-40
34	0x8002d974	-2.61678e-40
35	0x800370e0	-3.15998e-40
36	0x8001bd93	-1.59842e-40
37	0x00066de3	5.90433e-40
38	0x0003ba75	3.42395e-40
39	0x8005ca11	-5.31665e-40
40	0x0002b905	2.50043e-40
41	0x8001b71f	-1.57527e-40
42	0x8005b89b	-5.25401e-40
43	0x8001bb77	-1.59085e-40
44	0x0003f52c	3.63458e-40
45	0x8000b9c2	-6.6637e-41
46	0x0003fda6	3.66498e-40
47	0x800647eb	-5.76812e-40
48	0x00041f6d	3.78615e-40
49	0x00028e1e	2.34653e-40
50	0x8004b8f2	-4.33688e-40
51	0x8001636d	-1.27503e-40
52	0x0006363f	5.70473e-40
53	0x8003148d	-2.82879e-40
54	0x8001a837	-1.5218e-40
55	0x00014538	1.16667e-40
56	0x00035709	3.06729e-40
57	0x800047cd	-2.5757e-41
58	0x0000e3c0	8.1701e-41
59	0x80033e16	-2.97779e-40
60	0x80039369	-3.28387e-40
61	0x8004fd8e	-4.583e-40
62	0x8002d92b	-2.61576e-40
63	0x00019718	1.46038e-40
64	0x8003247c	-2.88595e-40
65	0x80017486	-1.33636e-40
66	0x000368a1	3.1304e-40
67	0x800058dc	-3.1877e-41
68	0x0005d02d	5.33857e-40
69	0x0005d656	5.36067e-40
70	0x0005cad1	5.31934e-40
71	0x800542a7	-4.83088e-40
72	0x8004872d	-4.15834e-40
73	0x80017ba8	-1.36195e-40
74	0x0002b779	2.49489e-40
75	0x00028788	2.3229e-40
76	0x00067794	5.9391e-40
77	0x80069efc	-6.08046e-40
78	0x0003813b	3.21866e-40
79	0x000238a5	2.03991e-40
80	0x80039f42	-3.32637e-40
81	0x00010c5d	9.627e-41
82	0x000304f3	2.77282e-40
83	0x8003ed77	-3.60693e-40
84	0x000541be	4.82761e-40
85	0x0002277a	1.97833e-40
86	0x00015564	1.22468e-40
87	0x000370eb	3.16014e-40
88	0x80010074	-9.1998e-41
89	0x0003711d	3.16084e-40
90	0x800630ba	-5.68493e-40
91	0x0005401a	4.82173e-40
92	0x8005ca89	-5.31833e-40
93	0x0004845b	4.14822e-40
94	0x80062820	-5.65407e-40
95	0x800679ff	-5.94777e-40
96	0x800319f2	-2.84814e-40
97	0x80010c52	-9.6255e-41
98	0x80024ed9	-2.11956e-40
99	0x0002a2aa	2.42024e-40
100	0x0004b968	4.33853e-40
101	0x8002a9fd	-2.44651e-40
102	0x0001a87a	1.52273e-40
103	0x00011b76	1.01687e-40
104	0x800319ce	-2.84763e-40
105	0x0001c396	1.61999e-40
106	0x800143b8	-1.16128e-40
107	0x00007a80	4.3945e-41
108	0x0001c144	1.61166e-40
109	0x00007337	4.1331e-41
110	0x0002c419	2.54018e-40
111	0x8001eea3	-1.77442e-40
112	0x0002d280	2.59184e-40
113	0x000203c9	1.85029e-40
114	0x0004d7e7	4.44793e-40
115	0x00011609	9.974e-41
116	0x000582db	5.0612e-40
117	0x000143f6	1.16215e-40
118	0x80064d11	-5.78659e-40
119	0x800091cb	-5.23e-41
120	0x0005f4b6	5.46963e-40
121	0x80005ed9	-3.4025e-41
122	0x00065a13	5.83326e-40
123	0x8002eb80	-2.68152e-40
124	0x80065b04	-5.83663e-40
125	0x00031c39	2.85631e-40
126	0x00018c70	1.42215e-40
127	0x00009ebc	5.6943e-41
128	0x80063a58	-5.71943e-40
129	0x80055b0c	-4.91839e-40
130	0x8005cf46	-5.33533e-40
131	0x0002953d	2.37208e-40
132	0x0000e190	8.0917e-41
133	0x00037013	3.15711e-40
134	0x800259df	-2.1591e-40
135	0x0001b64e	1.57234e-40
136	0x8003a9d3	-3.36428e-40
137	0x00002886	1.4537e-41
138	0x80000cc6	-4.582e-42
139	0x00035ac1	3.08063e-40
140	0x0003172b	2.83818e-40
141	0x8000c5eb	-7.1e-41
142	0x0005fc87	5.49767e-40
143	0x0002ce41	2.57661e-40
144	0x80002d27	-1.6198e-41
145	0x80021efd	-1.94787e-40
146	0x80035f1d	-3.09627e-40
147	0x00001b64	9.826e-42
148	0x800652c0	-5.80698e-40
149	0x8001db3d	-1.70483e-40
150	0x80013b11	-1.13025e-40
151	0x80015b0d	-1.24498e-40
152	0x800204b2	-1.85355e-40
153	0x00015da1	1.25423e-40
154	0x00007066	4.0321e-41
155	0x8000b182	-6.3678e-41
156	0x000161b8	1.2689e-40
157	0x80067d42	-5.95947e-40
158	0x00010a4d	9.5531e-41
159	0x80039ba1	-3.31336e-40
160	0x80028855	-2.32578e-40
161	0x8004ddc2	-4.46894e-40
162	0x8004bb34	-4.34498e-40
163	0x00042446	3.80354e-40
164	0x80030379	-2.76752e-40
165	0x000218ed	1.92613e-40
166	0x000647df	5.76795e-40
167	0x80038733	-3.24007e-40
168	0x80000715	-2.54e-42
169	0x80048b25	-4.17258e-40
170	0x0001c9da	1.64246e-40
171	0x800040fd	-2.3313e-41
172	0x800209d1	-1.87192e-40
173	0x8000af4a	-6.2882e-41
174	0x00018e75	1.4294e-40
175	0x80014f28	-1.20231e-40
176	0x0000c160	6.937e-41
177	0x0005dab6	5.37636e-40
178	0x800088c5	-4.9064e-41
179	0x00041784	3.75778e-40
180	0x8005cdfd	-5.33072e-40
181	0x8004ba9a	-4.34282e-40
182	0x80029a80	-2.39095e-40
183	0x8005e52c	-5.41389e-40
184	0x8004d6f5	-4.44454e-40
185	0x8002d152	-2.58761e-40
186	0x00067eba	5.96474e-40
187	0x80063a78	-5.71988e-40
188	0x0000f7ba	8.8868e-41
189	0x80003198	-1.7791e-41
190	0x8005de15	-5.38846e-40
191	0x000671ca	5.91833e-40
192	0x8004fa86	-4.57213e-40
193	0x0002dba4	2.62463e-40
194	0x80011c7d	-1.02055e-40
195	0x80062f6d	-5.68026e-40
196	0x0000568c	3.1047e-41
197	0x8001a916	-1.52492e-40
198	0x0005b157	5.22795e-40
199	0x00016f1b	1.31693e-40
200	0x00036c9b	3.14467e-40
201	0x000085ac	4.7952e-41
202	0x8003472f	-3.01042e-40
203	0x00030eef	2.80864e-40
204	0x00068354	5.98125e-40
205	0x80039c65	-3.3161e-40
206	0x00015e1a	1.25593e-40
207	0x8003a390	-3.34182e-40
208	0x0002686f	2.21135e-40
209	0x80026650	-2.20374e-40
210	0x0005e968	5.42908e-40
211	0x8002e7ce	-2.66827e-40
212	0x0002a514	2.4289e-40
213	0x0000f9ff	8.9682e-41
214	0x8001fda5	-1.82826e-40
215	0x8004877d	-4.15946e-40
216	0x8002b54a	-2.48705e-40
217	0x0003451e	3.00301e-40
218	0x80036a7a	-3.13703e-40
219	0x80029cd3	-2.39929e-40
220	0x8003bb91	-3.42793e-40
221	0x0002c254	2.53383e-40
222	0x8001a205	-1.49957e-40
223	0x80058fa4	-5.10706e-40
224	0x80030495	-2.7715e-40
225	0x800653a1	-5.81013e-40
226	0x0005ada0	5.21462e-40
227	0x80036749	-3.12558e-40
228	0x00003624	1.9422e-41
229	0x0001bfad	1.60596e-40
230	0x80015349	-1.21713e-40
231	0x0004b45d	4.32044e-40
232	0x00011a5f	1.01296e-40
233	0x0001c033	1.60784e-40
234	0x0002f71e	2.7232e-40
235	0x8002a16d	-2.4158e-40
236	0x80029b7d	-2.3945e-40
237	0x00002fec	1.7191e-41
238	0x000040c8	2.3239e-41
239	0x8001d2cb	-1.67454e-40
240	0x00014907	1.18033e-40
241	0x000657ee	5.82556e-40
242	0x00035300	3.05281e-40
243	0x0002f1b3	2.70376e-40
244	0x8003a8ec	-3.36104e-40
245	0x8002bc0b	-2.51128e-40
246	0x0005ae3e	5.21684e-40
247	0x8001af08	-1.54625e-40
248	0x000486fc	4.15765e-40
249	0x00031b33	2.85264e-40
250	0x8001e761	-1.74839e-40
251	0x00044f6d	3.95835e-40
252	0x8000fa83	-8.9867e-41
253	0x80052eda	-4.75985e-40
254	0x8004d867	-4.44973e-40
255	0x80028c4a	-2.33997e-40

conv_layers.5.0.conv.bias f4 [32]
0	0x0003e558	3.5778e-40
1	0x00063d7b	5.73068e-40
2	0x8000938d	-5.2931e-41
3	0x00050341	4.60345e-40
4	0x0003550c	3.06016e-40
5	0x0001d1d2	1.67105e-40
6	0x00015611	1.2271e-40
7	0x800274b6	-2.25539e-40
8	0x0001f6b0	1.8033e-40
9	0x0003b1db	3.39309e-40
10	0x8000fda9	-9.0996e-41
11	0x80018669	-1.40053e-40
12	0x0004ad4c	4.29509e-40
13	0x00006e2d	3.9524e-41
14	0x0000da4e	7.8313e-41
15	0x00015fd8	1.26218e-40
16	0x0000d78d	7.7325e-41
17	0x8005c661	-5.30342e-40
18	0x8005e46f	-5.41124e-40
19	0x800414b9	-3.74776e-40
20	0x0002edd4	2.68988e-40
21	0x000129c4	1.06818e-40
22	0x00013326	1.10184e-40
23	0x000196ca	1.45928e-40
24	0x00028674	2.31904e-40
25	0x8001fc04	-1.82242e-40
26	0x800289ff	-2.33175e-40
27	0x8002cae6	-2.56457e-40
28	0x00008bff	5.0221e-41
29	0x00013835	1.11999e-40
30	0x8001b6ac	-1.57366e-40
31	0x00046322	4.02904e-40

conv_layers.7.0.conv.weight f4 [16, 32, 3, 3]
0	0x0004484d	3.93279e-40
1	0x00011c02	1.01883e-40
2	0x8002e49e	-2.65683e-40
3	0x800123ec	-1.04722e-40
4	0x00028367	2.30809e-40
5	0x8004062d	-3.69557e-40
6	0x0005e7b6	5.423e-40
7	0x00027564	2.25783e-40
8	0x00010b9b	9.5999e-41
9	0x0001af0c	1.5463e-40
10	0x80031e66	-2.86411e-40
11	0x80064f09	-5.79365e-40
12	0x8004397a	-3.8796e-40
13	0x8002daca	-2.62158e-40
14	0x80034e12	-3.03513e-40
15	0x8000448d	-2.4591e-41
16	0x8001cfda	-1.66399e-40
17	0x8003aa21	-3.36537e-40
18	0x0004b5fc	4.32626e-40
19	0x8002923d	-2.36131e-40
20	0x00033113	2.93111e-40
21	0x8003c7a6	-3.47127e-40
22	0x80022e66	-2.00316e-40
23	0x0002e9ee	2.67589e-40
24	0x800172fc	-1.33084e-40
25	0x00024ec8	2.11932e-40
26	0x0004c6c8	4.38651e-40
27	0x8001b9d5	-1.585e-40
28	0x00032296	2.87914e-40
29	0x00015c3d	1.24924e-40
30	0x00022375	1.9639e-40
31	0x8002acb6	-2.45628e-40
32	0x80024c48	-2.11036e-40
33	0x0003ae20	3.37971e-40
34	0x00048b88	4.17396e-40
35	0x00036113	3.1033e-40
36	0x0004e140	4.48146e-40
37	0x0004b675	4.32795e-40
38	0x8004416f	-3.90815e-40
39	0x80014a00	-1.18382e-40
40	0x8002b16d	-2.4732e-40
41	0x80015c39	-1.24919e-40
42	0x00007fa6	4.5792e-41
43	0x00009d5b	5.6449e-41
44	0x0000e38c	8.1628e-41
45	0x80008541	-4.7802e-41
46	0x0002aed3	2.46386e-40
47	0x00001b1c	9.725e-42
48	0x00057fd6	5.05036e-40
49	0x8001b157	-1.55453e-40
50	0x80048203	-4.13981e-40
51	0x80005599	-3.0707e-41
52	0x00034bfa	3.02762e-40
53	0x8004ad17	-4.29435e-40
54	0x80039c39	-3.31549e-40
55	0x800350e0	-3.04519e-40
56	0x0001f24e	1.78758e-40
57	0x8003400d	-2.98484e-40
58	0x8002cf32	-2.57999e-40
59	0x0002c2eb	2.53594e-40
60	0x00039f6e	3.32699e-40
61	0x800398af	-3.30279e-40
62	0x8004dda4	-4.46852e-40
63	0x80020a07	-1.87268e-40
64	0x800661c3	-5.86083e-40
65	0x0003b662	3.40933e-40
66	0x800195de	-1.45598e-40
67	0x8000d98b	-7.804e-41
68	0x80066440	-5.86976e-40
69	0x0000521a	2.9452e-41
70	0x0001eb8d	1.76335e-40
71	0x0000ae35	6.2494e-41
72	0x80064380	-5.75227e-40
73	0x0000cd19	7.3575e-41
74	0x0001978f	1.46204e-40
75	0x0000c4c5	7.0588e-41
76	0x00036097	3.10156e-40
77	0x80049b51	-4.23059e-40
78	0x000216de	1.91874e-40
79	0x0002f35c	2.70972e-40
80	0x80033f41	-2.98198e-40
81	0x0000e467	8.1935e-41
82	0x80010428	-9.3326e-41
83	0x8005c076	-5.2822e-40
84	0x800607bd	-5.53789e-40
85	0x8003b2e1	-3.39676e-40
86	0x0003339f	2.94025e-40
87	0x00031c3d	2.85636e-40
88	0x80053f50	-4.8189e-40
89	0x8002e9da	-2.67561e-40
90	0x0004b770	4.33147e-40
91	0x0003fb1e	3.6559e-40
92	0x8001a73d	-1.51829e-40
93	0x8001cf57	-1.66215e-40
94	0x800079e9	-4.3733e-41
95	0x0001bc36	1.59353e-40
96	0x00017cc7	1.36597e-40
97	0x8005d1ad	-5.34395e-40
98	0x800221bd	-1.95774e-40
99	0x00044a66	3.94031e-40
100	0x00024a03	2.10221e-40
101	0x80010491	-9.3474e-41
102	0x800072fb	-4.1247e-41
103	0x00001464	7.315e-42
104	0x8000fc3b	-9.0483e-41
105	0x00030ab4	2.79346e-40
106	0x000481c5	4.13895e-40
107	0x80019789	-1.46196e-40
108	0x000440b3	3.90552e-40
109	0x00012393	1.04597e-40
110	0x0002cd90	2.57413e-40
111	0x000364fe	3.11736e-40
112	0x0003ee4e	3.60994e-40
113	0x000688c1	6.00071e-40
114	0x0006aefc	6.13786e-40
115	0x00026a77	2.21863e-40
116	0x00031c07	2.85561e-40
117	0x8001ba84	-1.58745e-40
118	0x00021294	1.90336e-40
119	0x8002e3c2	-2.65375e-40
120	0x800076ba	-4.2591e-41
121	0x00013e82	1.14259e-40
122	0x00009d7e	5.6498e-41
123	0x80015c83	-1.25022e-40
124	0x8003e7c7	-3.58653e-40
125	0x8001b3ec	-1.5638e-40
126	0x0000ed12	8.5045e-41
127	0x00025b94	2.16523e-40
128	0x00036377	3.11188e-40
129	0x000163cc	1.27636e-40
130	0x80015242	-1.21344e-40
131	0x00010b8e	9.598e-41
132	0x0001e8a3	1.7529e-40
133	0x80027bce	-2.28084e-40
134	0x80013bb7	-1.13257e-40
135	0x0001360c	1.11224e-40
136	0x8005e9c0	-5.43031e-40
137	0x00027647	2.26101e-40
138	0x80037d4d	-3.20456e-40
139	0x800494e8	-4.2076e-40
140	0x80032216	-2.87734e-40
141	0x80028e37	-2.34688e-40
142	0x00010f7e	9.7393e-41
143	0x8002c562	-2.54479e-40
144	0x80035dfd	-3.09223e-40
145	0x800205b9	-1.85724e-40
146	0x80036118	-3.10337e-40
147	0x800163dd	-1.2766e-40
148	0x0001c7d2	1.63518e-40
149	0x0000bc00	6.7442e-41
150	0x00031202	2.81966e-40
151	0x0001c6f2	1.63204e-40
152	0x8004c519	-4.38047e-40
153	0x00066134	5.85883e-40
154	0x8003584c	-3.07181e-40
155	0x8000f1cb	-8.6739e-41
156	0x80006ca5	-3.8974e-41
157	0x00060043	5.51107e-40
158	0x80036217	-3.10694e-40
159	0x8005f2af	-5.46236e-40
160	0x8002b303	-2.47888e-40
161	0x0001f35c	1.79136e-40
162	0x00025f6f	2.17906e-40
163	0x80039e85	-3.32373e-40
164	0x80066eec	-5.90804e-40
165	0x800528a7	-4.73761e-40
166	0x80051050	-4.6503e-40
167	0x0002fb47	2.73812e-40
168	0x0001b3f7	1.56395e-40
169	0x00036be1	3.14206e-40
170	0x8005f87a	-5.48314e-40
171	0x80024eb5	-2.11906e-40
172	0x00043c9d	3.89086e-40
173	0x8005e7ff	-5.42402e-40
174	0x80030148	-2.75966e-40
175	0x0001a353	1.50425e-40
176	0x00060545	5.52903e-40
177	0x00062b65	5.6658e-40
178	0x80052c30	-4.75029e-40
179	0x0002b33a	2.47965e-40
180	0x800288d4	-2.32756e-40
181	0x80043b7a	-3.88678e-40
182	0x00011802	1.00448e-40
183	0x00067443	5.9272e-40
184	0x00049ef2	4.24361e-40
185	0x000392a5	3.28113e-40
186	0x8006565b	-5.81991e-40
187	0x8000295b	-1.4836e-41
188	0x000346d0	3.00909e-40
189	0x0005ec2a	5.43897e-40
190	0x0002229f	1.9609e-40
191	0x00020676	1.85989e-40
192	0x80010c70	-9.6297e-41
193	0x0003603b	3.10027e-40
194	0x8003a94c	-3.36239e-40
195	0x8002d7a0	-2.61023e-40
196	0x8002eb37	-2.6805e-40
197	0x0004e48c	4.49329e-40
198	0x0000dfaa	8.0236e-41
199	0x0002e117	2.64418e-40
200	0x0005a836	5.1952e-40
201	0x80068952	-6.00274e-40
202	0x8001baba	-1.5882e-40
203	0x0002618e	2.18667e-40
204	0x00036b8e	3.1409e-40
205	0x8000da25	-7.8256e-41
206	0x80042842	-3.81784e-40
207	0x0002f484	2.71387e-40
208	0x0004c61b	4.38409e-40
209	0x80000e18	-5.056e-42
210	0x000348c7	3.01614e-40
211	0x8002cbe8	-2.56819e-40
212	0x8002db18	-2.62267e-40
213	0x0002cfe0	2.58242e-40
214	0x00017fd5	1.37693e-40
215	0x80053689	-4.78741e-40
216	0x0001af6c	1.54765e-40
217	0x00034689	3.0081e-40
218	0x80053747	-4.79007e-40
219	0x80043809	-3.87444e-40
220	0x000001e7	6.82e-43
221	0x00063a39	5.719e-40
222	0x0006215d	5.62981e-40
223	0x800289cb	-2.33102e-40
224	0x800528d2	-4.73821e-40
225	0x8005ce1a	-5.33113e-40
226	0x8005c2f0	-5.29108e-40
227	0x00033b2c	2.96733e-40
228	0x80018957	-1.41104e-40
229	0x000623d8	5.63871e-40
230	0x80038acd	-3.25299e-40
231	0x00019146	1.4395e-40
232	0x0001d523	1.68295e-40
233	0x80034baf	-3.02657e-40
234	0x0001b46c	1.56559e-40
235	0x80002f3b	-1.6943e-41
236	0x80010427	-9.3325e-41
237	0x80025f5e	-2.17882e-40
238	0x8003a0cc	-3.3319e-40
239	0x0001bcd9	1.59581e-40
240	0x80011cb6	-1.02135e-40
241	0x00037edd	3.21016e-40
242	0x80016ad4	-1.30158e-40
243	0x000353ee	3.05615e-40
244	0x8002ca07	-2.56145e-40
245	0x0000b6ed	6.5621e-41
246	0x00005f40	3.4169e-41
247	0x00035efc	3.0958e-40
248	0x0001c078	1.6088e-40
249	0x0004d74e	4.44579e-40
250	0x8004f7ee	-4.56282e-40
251	0x80002bb0	-1.5672e-41
252	0x00049bd1	4.23238e-40
253	0x00027cc7	2.28433e-40
254	0x0003f173	3.62122e-40
255	0x8003f2f1	-3.62657e-40

conv_layers.7.0.conv.bias f4 [16]
0	0x80020b9e	-1.87838e-40
1	0x8001e1f5	-1.72894e-40
2	0x80003e89	-2.2433e-41
3	0x8002db7d	-2.62409e-40
4	0x0002ccae	2.57096e-40
5	0x000057e3	3.1528e-41
6	0x8002efd7	-2.6971e-40
7	0x000167d0	1.29076e-40
8	0x000364fe	3.11736e-40
9	0x80067bcd	-5.95424e-40
10	0x80014836	-1.1774e-40
11	0x8002a547	-2.42961e-40
12	0x00013f76	1.14601e-40
13	0x8003b9dc	-3.4218e-40
14	0x0001c81d	1.63623e-40
15	0x0004f821	4.56354e-40

linear_layers.0.weight f4 [64, 400]
0	0x80029c5f	-2.39766e-40
1	0x8000de57	-7.976e-41
2	0x0001332f	1.10197e-40
3	0x8000f636	-8.8324e-41
4	0x8005ac95	-5.21088e-40
5	0x00059d32	5.15569e-40
6	0x8001f343	-1.79101e-40
7	0x8002d047	-2.58387e-40
8	0x000019d7	9.27e-42
9	0x8001abd2	-1.53473e-40
10	0x80061389	-5.58021e-40
11	0x8004bfc8	-4.3614e-40
12	0x8003435a	-2.99668e-40
13	0x80047f2d	-4.12964e-40
14	0x800288c3	-2.32732e-40
15	0x800247c1	-2.09411e-40
16	0x800328d1	-2.90149e-40
17	0x00046ee1	4.07118e-40
18	0x0000f9a4	8.9554e-41
19	0x8001d7c6	-1.6924e-40
20	0x8004b713	-4.33017e-40
21	0x8005aa4a	-5.20266e-40
22	0x80024d99	-2.11508e-40
23	0x0004529d	3.96978e-40
24	0x80066f02	-5.90835e-40
25	0x8003b78f	-3.41355e-40
26	0x0005f508	5.47078e-40
27	0x0002e3d8	2.65406e-40
28	0x8002868d	-2.31939e-40
29	0x800390ba	-3.27425e-40
30	0x0000aab7	6.1241e-41
31	0x80002a75	-1.5231e-41
32	0x00014357	1.15992e-40
33	0x0003729d	3.16622e-40
34	0x00063d8c	5.73092e-40
35	0x80009625	-5.3862e-41
36	0x8002a660	-2.43355e-40
37	0x8000d8d0	-7.7778e-41
38	0x80005ad3	-3.2582e-41
39	0x8000eb50	-8.4414e-41
40	0x8001a9a6	-1.52694e-40
41	0x0000d8fd	7.7841e-41
42	0x8004fd51	-4.58215e-40
43	0x8001a060	-1.49367e-40
44	0x00032436	2.88497e-40
45	0x800649cc	-5.77486e-40
46	0x0004642a	4.03274e-40
47	0x80011fa5	-1.03187e-40
48	0x8001b76b	-1.57633e-40
49	0x8002e4da	-2.65767e-40
50	0x0005ab14	5.20549e-40
51	0x8000735a	-4.138e-41
52	0x80047f67	-4.13045e-40
53	0x800262ab	-2.19066e-40
54	0x80046e4c	-4.06909e-40
55	0x00036a37	3.13609e-40
56	0x000656eb	5.82193e-40
57	0x80043fcf	-3.90232e-40
58	0x800066bc	-3.6854e-41
59	0x00014442	1.16322e-40
60	0x0001ab50	1.53291e-40
61	0x0004c773	4.38891e-40
62	0x8005b8a3	-5.25413e-40
63	0x8000eb5e	-8.4434e-41
64	0x8000d760	-7.7262e-41
65	0x0004c0c1	4.36489e-40
66	0x00060531	5.52875e-40
67	0x00018f0c	1.43151e-40
68	0x8001aa80	-1.53e-40
69	0x00034236	2.99258e-40
70	0x000138e4	1.12244e-40
71	0x000007ba	2.772e-42
72	0x00006688	3.6781e-41
73	0x000013da	7.121e-42
74	0x80021b46	-1.93455e-40
75	0x8001820d	-1.38489e-40
76	0x000071e7	4.086e-41
77	0x80034667	-3.00762e-40
78	0x000616bc	5.59169e-40
79	0x000662d2	5.86463e-40
80	0x0002b2ce	2.47814e-40
81	0x8003862c	-3.23638e-40
82	0x000695f1	6.04802e-40
83	0x00029732	2.3791e-40
84	0x00062d3a	5.67237e-40
85	0x8004ca7e	-4.39982e-40
86	0x0000dbe7	7.8886e-41
87	0x80029ef5	-2.40694e-40
88	0x0004cfe2	4.41916e-40
89	0x00035f4d	3.09694e-40
90	0x00055857	4.90868e-40
91	0x000660d3	5.85747e-40
92	0x80041529	-3.74933e-40
93	0x8004b4d9	-4.32218e-40
94	0x0000aa67	6.1129e-41
95	0x8000c77f	-7.1566e-41
96	0x800086ad	-4.8313e-41
97	0x8000eeb8	-8.5636e-41
98	0x800389e7	-3.24977e-40
99	0x80003ac6	-2.1084e-41
100	0x00014866	1.17807e-40
101	0x8005291d	-4.73926e-40
102	0x00006224	3.5206e-41
103	0x80042086	-3.79009e-40
104	0x00034f54	3.03964e-40
105	0x000283d9	2.30969e-40
106	0x8000b1b3	-6.3746e-41
107	0x8001ca0c	-1.64316e-40
108	0x80011850	-1.00557e-40
109	0x800411d7	-3.73742e-40
110	0x80007622	-4.2378e-41
111	0x8002bbbf	-2.51022e-40
112	0x00060ab9	5.5486e-40
113	0x00058427	5.06585e-40
114	0x800601f1	-5.5171e-40
115	0x800448bf	-3.93438e-40
116	0x8000037f	-1.254e-42
117	0x0001ac12	1.53563e-40
118	0x8001b1ea	-1.55659e-40
119	0x80013348	-1.10232e-40
120	0x0001262c	1.05529e-40
121	0x8002b90c	-2.50053e-40
122	0x0002150f	1.91225e-40
123	0x8004d8d2	-4.45122e-40
124	0x0005faa7	5.49095e-40
125	0x8001f851	-1.80915e-40
126	0x8004470c	-3.92829e-40
127	0x0001a8a4	1.52332e-40
128	0x0005acd4	5.21177e-40
129	0x800061b3	-3.5048e-41
130	0x800292f1	-2.36384e-40
131	0x0002a27b	2.41958e-40
132	0x8001ce8c	-1.6593e-40
133	0x0000f303	8.7176e-41
134	0x80015551	-1.22441e-40
135	0x8000db76	-7.8728e-41
136	0x00008f7e	5.1475e-41
137	0x800157e0	-1.23359e-40
138	0x0003504f	3.04316e-40
139	0x80053d87	-4.8125e-40
140	0x8004bfdf	-4.36172e-40
141	0x0002c233	2.53337e-40
142	0x80010cb0	-9.6387e-41
143	0x0002d242	2.59097e-40
144	0x00032c92	2.91495e-40
145	0x8006482b	-5.76902e-40
146	0x80041cef	-3.77721e-40
147	0x8005bd7d	-5.27153e-40
148	0x80035a47	-3.07892e-40
149	0x8001f638	-1.80162e-40
150	0x00037a67	3.19416e-40
151	0x8003a3b1	-3.34228e-40
152	0x00065851	5.82695e-40
153	0x8002484b	-2.09605e-40
154	0x80017cc5	-1.36594e-40
155	0x00012d3d	1.08064e-40
156	0x8006c0ee	-6.20223e-40
157	0x000360cd	3.10232e-40
158	0x800504a1	-4.60838e-40
159	0x800288e6	-2.32781e-40
160	0x0002a9ef	2.44632e-40
161	0x000157dc	1.23354e-40
162	0x0003413f	2.98912e-40
163	0x0004d1cd	4.42604e-40
164	0x80047dcf	-4.12474e-40
165	0x0000316a	1.7726e-41
166	0x800112d0	-9.8584e-41
167	0x0001d4d2	1.68181e-40
168	0x0001f224	1.78699e-40
169	0x80015800	-1.23404e-40
170	0x00017721	1.34571e-40
171	0x80030d23	-2.80219e-40
172	0x8003ad85	-3.37754e-40
173	0x80014542	-1.1668e-40
174	0x80034997	-3.01906e-40
175	0x800515e9	-4.67037e-40
176	0x80021a25	-1.9305e-40
177	0x8000f5ed	-8.8222e-41
178	0x8002c66d	-2.54853e-40
179	0x800433ac	-3.85878e-40
180	0x000151e0	1.21207e-40
181	0x000226a4	1.97533e-40
182	0x00068593	5.9893e-40
183	0x80038c38	-3.25807e-40
184	0x0003343a	2.94242e-40
185	0x8003812b	-3.21843e-40
186	0x00035c11	3.08534e-40
187	0x80019e7d	-1.4869e-40
188	0x80012b6f	-1.07417e-40
189	0x80032791	-2.897e-40
190	0x8004fa06	-4.57033e-40
191	0x8004b007	-4.30489e-40
192	0x8001c23a	-1.61511e-40
193	0x0001456b	1.16738e-40
194	0x800285bf	-2.3165e-40
195	0x00010c40	9.623e-41
196	0x80016fda	-1.3196e-40
197	0x8005e3cb	-5.40894e-40
198	0x00001f51	1.1234e-41
199	0x0003b5d5	3.40736e-40
200	0x8001d7cf	-1.69253e-40
201	0x8000a7a6	-6.0141e-41
202	0x000377aa	3.18434e-40
203	0x0003c591	3.4638e-40
204	0x80017753	-1.34641e-40
205	0x0004fcdb	4.5805e-40
206	0x00029a1e	2.38958e-40
207	0x000469a0	4.05233e-40
208	0x80019a88	-1.47271e-40
209	0x0000ff39	9.1557e-41
210	0x8004a4ba	-4.26435e-40
211	0x80010475	-9.3434e-41
212	0x00064205	5.74696e-40
213	0x0004b220	4.31241e-40
214	0x800582b8	-5.0607e-40
215	0x8001981d	-1.46403e-40
216	0x8001b868	-1.57988e-40
217	0x80034fa7	-3.0408e-40
218	0x80002260	-1.2331e-41
219	0x0004d6c3	4.44384e-40
220	0x80058076	-5.0526e-40
221	0x8000020b	-7.33e-43
222	0x0005d8e6	5.36986e-40
223	0x800381dd	-3.22093e-40
224	0x80038ea7	-3.2668e-40
225	0x80038aa0	-3.25236e-40
226	0x000190eb	1.43822e-40
227	0x8002dbe0	-2.62547e-40
228	0x800475d8	-4.09616e-40
229	0x0002f801	2.72638e-40
230	0x8004540c	-3.97492e-40
231	0x0000f15c	8.6583e-41
232	0x00001426	7.228e-42
233	0x80062609	-5.64657e-40
234	0x0003797b	3.19085e-40
235	0x8005fab4	-5.49113e-40
236	0x0003fef9	3.66973e-40
237	0x000046e2	2.5428e-41
238	0x00037d12	3.20373e-40
239	0x0001575a	1.23171e-40
240	0x0002cfae	2.58172e-40
241	0x0001cc28	1.65073e-40
242	0x80032fa4	-2.92597e-40
243	0x0004f26b	4.54305e-40
244	0x00053048	4.76498e-40
245	0x8000a28c	-5.8311e-41
246	0x80002ad2	-1.5361e-41
247	0x00031cab	2.8579e-40
248	0x000116c0	9.9997e-41
249	0x00033cf2	2.9737e-40
250	0x8000ddc6	-7.9557e-41
251	0x8002b596	-2.48812e-40
252	0x00015639	1.22766e-40
253	0x8002408a	-2.06823e-40
254	0x000151da	1.21198e-40
255	0x8004b9dd	-4.34017e-40

linear_layers.0.bias f4 [64]
0	0x00040d7f	3.72183e-40
1	0x8002e6f8	-2.66527e-40
2	0x0004d97d	4.45362e-40
3	0x8004687a	-4.04821e-40
4	0x00034e46	3.03586e-40
5	0x800335c5	-2.94795e-40
6	0x0005e950	5.42874e-40
7	0x8001e903	-1.75424e-40
8	0x80009314	-5.2762e-41
9	0x80067848	-5.94162e-40
10	0x000231bd	2.01514e-40
11	0x0006435e	5.7518e-40
12	0x800417d8	-3.75896e-40
13	0x8002f01f	-2.6981e-40
14	0x8002ceb2	-2.57819e-40
15	0x800382dc	-3.2245e-40
16	0x00007916	4.3437e-41
17	0x00063f33	5.73685e-40
18	0x0002681c	2.21018e-40
19	0x8002744f	-2.25395e-40
20	0x80053c77	-4.80868e-40
21	0x0006358b	5.7022e-40
22	0x00039b3a	3.31191e-40
23	0x00048517	4.15086e-40
24	0x8003a744	-3.3551e-40
25	0x800197be	-1.4627e-40
26	0x8003b5a7	-3.40671e-40
27	0x0001da8e	1.70238e-40
28	0x8002acc8	-2.45653e-40
29	0x00016c9a	1.30794e-40
30	0x80001732	-8.321e-42
31	0x800139e4	-1.12603e-40
32	0x0002fa80	2.73533e-40
33	0x80059cdb	-5.15447e-40
34	0x0000d402	7.6054e-41
35	0x00067e2e	5.96278e-40
36	0x0001e124	1.72601e-40
37	0x80061e8b	-5.6197e-40
38	0x000165a7	1.28301e-40
39	0x0003a192	3.33467e-40
40	0x00017ef0	1.37372e-40
41	0x0000b227	6.3909e-41
42	0x00034c9c	3.02989e-40
43	0x0003ac72	3.37368e-40
44	0x0004c64e	4.3848e-40
45	0x0001f762	1.8058e-40
46	0x80033dfe	-2.97745e-40
47	0x00000b6a	4.095e-42
48	0x80038fc2	-3.27077e-40
49	0x0004024c	3.68166e-40
50	0x0005c44b	5.29594e-40
51	0x80001b4c	-9.792e-42
52	0x80031127	-2.8166e-40
53	0x8000dd35	-7.9354e-41
54	0x0004ded9	4.47285e-40
55	0x8004757f	-4.09492e-40
56	0x0005fa6c	5.49012e-40
57	0x00044b76	3.94412e-40
58	0x0001777d	1.347e-40
59	0x80039ff9	-3.32894e-40
60	0x80026557	-2.20025e-40
61	0x0000e923	8.3634e-41
62	0x80062918	-5.65755e-40
63	0x80037da2	-3.20575e-40
